mujoco_project/saved_models_baseline/FetchPickAndPlace-v1/model.pt (torch_old, 562016 bytes, 8 tensors)

fc1.weight f4 [256, 28]
0	0xbe243dc1	-0.16039182
1	0x3f04e404	0.51910424
2	0xbe4f56fd	-0.20248027
3	0x3f075d60	0.52876854
4	0xbf0cfc07	-0.55072063
5	0x3bde407c	0.0067825895
6	0x3f40e9f5	0.7535699
7	0xbf910e4d	-1.1332489
8	0xbe584a45	-0.21122082
9	0x3d050a50	0.032480538
10	0xbcb11cd4	-0.021620192
11	0xbd31b05f	-0.04338109
12	0xbb8ee7e3	-0.004361139
13	0xbbeea250	-0.0072825328
14	0x3d071bf7	0.032985654
15	0xbd7153b3	-0.058917712
16	0xbddebb51	-0.108755715
17	0xbbdfd54c	-0.006830847
18	0xbd72496f	-0.059152063
19	0xbd198107	-0.037476566
20	0x3db2b620	0.08726144
21	0xbc82331a	-0.015893508
22	0xbdb7dcfc	-0.08977696
23	0x3d739a7f	0.05947351
24	0xbd913cba	-0.07091661
25	0xbe381525	-0.17976816
26	0xbb000e93	-0.0019539937
27	0x3e0d9273	0.13825397
28	0xbeb70cd6	-0.3575198
29	0xbe07aa86	-0.13248643
30	0x3dbaf29b	0.091283046
31	0x3e43b726	0.19112834
32	0x3e48e368	0.19617999
33	0x3dacbf05	0.084348716
34	0x3f55aaa6	0.83463514
35	0x3d6af6c4	0.05736424
36	0xbe490013	-0.19628935
37	0xbd5b4e6e	-0.053541593
38	0xbd1fbf42	-0.039000757
39	0x3cb1c68b	0.021701118
40	0x3b96ca22	0.004601733
41	0xbb95ae0e	-0.004567868
42	0x3e2a250b	0.16615693
43	0xbc1b0e9c	-0.009463932
44	0xbcf65f5d	-0.03007477
45	0x3ccbe086	0.024887335
46	0xbc6b3862	-0.014356704
47	0xbc3a26c3	-0.011361781
48	0x3e188551	0.14894606
49	0x3d315799	0.04329643
50	0xbcf0a346	-0.02937473
51	0x3cf9676a	0.03044482
52	0x3d80e401	0.06293488
53	0x3e5a549b	0.21321337
54	0x3c6f6484	0.014611367
55	0xc007194f	-2.1109197
56	0x3eb5e703	0.3552781
57	0x3eb7854a	0.3584388
58	0xbe1e541d	-0.15461774
59	0xbed38e0a	-0.41319305
60	0xbe834769	-0.2564042
61	0x3e42d146	0.19025144
62	0xbf8b7334	-1.0894532
63	0xbfa5bfda	-1.2949173
64	0xbe3c2ede	-0.18377253
65	0x3deb7097	0.11496084
66	0xbd7b400f	-0.061340388
67	0xbcb56439	-0.022142516
68	0x3cf57ec8	0.02996768
69	0xbc1e92bd	-0.00967854
70	0xbd23b977	-0.039971795
71	0xbd115cdf	-0.03548896
72	0x3c95d8fa	0.018291939
73	0xbc9615d3	-0.018320953
74	0xbd964472	-0.07337274
75	0x3cc2bf05	0.023772726
76	0x3c88f98e	0.01672056
77	0xbb9528cc	-0.0045519825
78	0xbc358271	-0.011078463
79	0x3db56210	0.088565946
80	0x3d617318	0.055041403
81	0xbc5288d4	-0.012850005
82	0xbe16ef34	-0.14739686
83	0xbb403561	-0.0029328691
84	0xbbe144d0	-0.006874658
85	0xbd7094fc	-0.058735833
86	0xbead81cb	-0.33888087
87	0x3d2174ad	0.03941791
88	0x3d03205d	0.032013286
89	0x3f660853	0.8985645
90	0xbf0786c0	-0.5293999
91	0xbc8b0032	-0.016967867
92	0x3f284f77	0.65746254
93	0xbdf9ade0	-0.12191367
94	0xbcdb7265	-0.026787946
95	0xbd028ed4	-0.031874493
96	0xbc7ca56c	-0.015420299
97	0xbb0bb436	-0.002131713
98	0xbd830c38	-0.06398815
99	0xbd40e990	-0.047097743
100	0x3d94f6ae	0.07273613
101	0xbcce36c1	-0.025172593
102	0x3d3a3842	0.045463808
103	0x3c1207a1	0.008912952
104	0x3b7a07a6	0.0038151531
105	0xbd03c031	-0.03216571
106	0x3d1c4b1c	0.038157567
107	0xbca0bd67	-0.019621564
108	0xbd8c08d8	-0.06837624
109	0xbd9091d4	-0.070590645
110	0x3c44268e	0.011972083
111	0xbebd0a80	-0.36922073
112	0x3ec000f2	0.3750072
113	0x3e2332dc	0.1593737
114	0x3d00f462	0.03148306
115	0x3ee2aa73	0.44270667
116	0xbe1d2a61	-0.15348198
117	0xbe2d41bf	-0.16919611
118	0x3e9f7632	0.31144863
119	0xbd408406	-0.047000907
120	0xbd8d4f1f	-0.06899857
121	0xbd587a5e	-0.052851073
122	0xbd976523	-0.07392337
123	0x3d27435f	0.040835734
124	0x3e19f6ee	0.15035602
125	0x3a0cf3bf	0.0005376897
126	0xbcb3697a	-0.021900881
127	0x3c9cd9a5	0.01914675
128	0xbd3baf32	-0.045821376
129	0x3d8f386a	0.06993182
130	0xbddaebc8	-0.10689503
131	0x3c5545b2	0.013017105
132	0xbe08bcf8	-0.13353336
133	0xbcf2e3e1	-0.029649677
134	0xbc4b3c72	-0.012404548
135	0x3d67e4cb	0.05661468
136	0x3dedce3c	0.11611602
137	0xbf4412a8	-0.7659097
138	0xbde02d17	-0.109461
139	0xbeb125c8	-0.34599137
140	0x3ed783bf	0.42092702
141	0x3dd4ba7d	0.10387132
142	0xbe69de2d	-0.2283866
143	0xbf20d9e2	-0.6283246
144	0xbe3043d5	-0.17213376
145	0xbd2143cf	-0.039371308
146	0xbfeb4363	-1.837994
147	0xbf17e864	-0.59338975
148	0x3d90edb4	0.07076588
149	0xbc8db375	-0.017297486
150	0xbda5d744	-0.08097699
151	0xbd1f5bc8	-0.03890589
152	0xbce84b11	-0.028356107
153	0x3b2e4b6b	0.0026595246
154	0xbe8d4211	-0.27589467
155	0xbd3c8052	-0.046020813
156	0xbacc2a72	-0.0015576615
157	0x3d2ee0f4	0.042695
158	0x3d30535f	0.04304826
159	0x3c7384a9	0.014863172
160	0xbe5dda3e	-0.21665284
161	0xbcce81d9	-0.0252084
162	0x3c836917	0.016041322
163	0x3c6f57e5	0.014608358
164	0xbc838764	-0.01605577
165	0x3d857efe	0.065183625
166	0xbc5a0654	-0.013307173
167	0x3cd8435e	0.02639931
168	0x3ec899b5	0.3917977
169	0x3d63ac9d	0.05558454
170	0xbec7ee4c	-0.39048994
171	0xbf1cbff8	-0.6123042
172	0x3b937422	0.004499928
173	0x3ee2ed77	0.44321796
174	0xbf78846e	-0.9707707
175	0xbe2c2cc8	-0.16813958
176	0x3e8f2c67	0.27963564
177	0xbb13c684	-0.0022548744
178	0x3d9e2dd0	0.07723582
179	0x3ca733da	0.020410467
180	0xbc321329	-0.010868826
181	0x3bd4858d	0.006485647
182	0xbd67d8e1	-0.056603316
183	0x3d010d9b	0.031507116
184	0x3c1ded67	0.009639121
185	0x3d13dd7f	0.036099907
186	0xbc2e241b	-0.010628725
187	0x3cc6afad	0.02425369
188	0xbd2ebde4	-0.042661563
189	0x3db82d9e	0.08993076
190	0xbc3932d4	-0.011303622
191	0x3d3fbc9b	0.046810728
192	0xbd5e63d6	-0.05429443
193	0x3e357f27	0.17724286
194	0xbe1d3f4d	-0.15356179
195	0xbf9d8715	-1.2306849
196	0x3c8eacbf	0.017416356
197	0x3c6465a2	0.013940247
198	0xbbe2d0c3	-0.006921859
199	0x3ddf594a	0.109057024
200	0xbda7e6e2	-0.08198334
201	0x3caff5bc	0.02147948
202	0x3e26aef1	0.16277672
203	0xbdea5e63	-0.11443784
204	0xbd98c26e	-0.074589595
205	0xbd19a8e3	-0.03751458
206	0x3c0d014e	0.008606268
207	0x3c4190b7	0.011814288
208	0x3b44f518	0.0030053314
209	0xbd93fd82	-0.07226087
210	0x3d5dd56c	0.054158613
211	0xbca2c235	-0.019867996
212	0x3cd3f732	0.025874708
213	0xbd0c262b	-0.034216087
214	0x3ca364e4	0.01994557
215	0xbcbf53d7	-0.023355408
216	0x3dacb420	0.084327936
217	0xbcf46d49	-0.029837267
218	0x3d6e97da	0.058250286
219	0xbcfc418d	-0.030792976
220	0xbd0f249f	-0.034947034
221	0xbd41a34a	-0.047274865
222	0x3cf104e6	0.029421281
223	0xc026ca10	-2.606083
224	0xbec15a4b	-0.377642
225	0xbe8d1f4c	-0.2756294
226	0xbdcaa52d	-0.09894786
227	0xbf3c1dc3	-0.7348291
228	0xbebec35f	-0.3725843
229	0x3cdad831	0.026714416
230	0xbe94b74f	-0.29046103
231	0xbe8b65f4	-0.27226222
232	0xbdc2f2bd	-0.09518955
233	0x3a65943f	0.0008757747
234	0x3c6457cf	0.013936951
235	0xbc9f7b07	-0.019467844
236	0xbbac80e9	-0.0052643907
237	0x3c30bdf1	0.010787473
238	0xbdc94979	-0.09828467
239	0xbdd1bd09	-0.10241134
240	0xbdf4bd5f	-0.11950182
241	0x3be282ce	0.006912566
242	0x3bd64bb8	0.006539788
243	0xbb356b4a	-0.0027682357
244	0xbdf1279c	-0.11775133
245	0xbdf62c2a	-0.120201424
246	0xbda5928f	-0.080845945
247	0xbc230f05	-0.009952311
248	0xbc0ac317	-0.008469365
249	0x3fa07b83	1.2537693
250	0x3f3cef1c	0.7380235
251	0xbf92a2ee	-1.1455972
252	0x3ee1b686	0.44084567
253	0x3e7544a0	0.2395196
254	0xbd25a241	-0.04043794
255	0x3edaf880	0.42767715

fc1.bias f4 [256]
0	0xbf9c2e31	-1.2201596
1	0xbf7b5e90	-0.98191166
2	0x3e85ab65	0.26107326
3	0xbf2b3916	-0.6688398
4	0xbf8458cb	-1.0339597
5	0xbfaa72fa	-1.3316338
6	0xbfa14b2b	-1.2601064
7	0xbf5c441c	-0.86041427
8	0xbf103f1c	-0.563463
9	0x3f051bbf	0.5199546
10	0x3f12150b	0.5706336
11	0xbf2ce5ef	-0.6753835
12	0xc0233e10	-2.550663
13	0xbf37c367	-0.71782535
14	0xbf58adcc	-0.84640193
15	0xbf3d5b7b	-0.73967713
16	0xbe9d175f	-0.30681893
17	0xbf9edab4	-1.2410493
18	0xbf9b3c1d	-1.212772
19	0xbf90bd64	-1.1307797
20	0xbe1201d6	-0.14258513
21	0x3ef5756b	0.47941145
22	0xbf89204a	-1.0712979
23	0xbfb75f67	-1.432599
24	0xbf9a83cc	-1.2071471
25	0x3d889ab9	0.06670136
26	0xbf94a9bc	-1.1614299
27	0xbf5f762f	-0.8728971
28	0xbf4ca0aa	-0.79932654
29	0xbf2209e1	-0.63296324
30	0x3eb788e5	0.3584663
31	0x3ee13b2a	0.4399045
32	0xbf43c5b5	-0.7647355
33	0xbe425f73	-0.18981723
34	0xbfb0f139	-1.3823615
35	0xbf50f941	-0.8163033
36	0x3edccf1a	0.43126756
37	0xbf5467c3	-0.8297083
38	0x3ebb7d7d	0.36619177
39	0xc008b7dc	-2.136222
40	0xbfba55c1	-1.455742
41	0x3ef21751	0.47283414
42	0xbf96a699	-1.1769592
43	0xbfd55f3b	-1.6669687
44	0xbfb40c8a	-1.4066327
45	0x3ed09c55	0.40744272
46	0xbf3e9ec6	-0.7446102
47	0xbf34455a	-0.7041832
48	0xbfd027ad	-1.6262108
49	0xbf867f26	-1.0507553
50	0xbf5eb7ab	-0.86999005
51	0xbf93d106	-1.1548164
52	0xbf5b0257	-0.85550445
53	0xbee9ce09	-0.45665005
54	0xbf61faec	-0.882735
55	0xbf100148	-0.56251955
56	0xbfa8acaa	-1.3177693
57	0xbfe9b113	-1.8257164
58	0xbd5ce294	-0.05392702
59	0xbf282d35	-0.6569398
60	0xbea2d00e	-0.31799358
61	0xbf3370e2	-0.7009412
62	0xbf7e0b4e	-0.99236
63	0xbf1a94b0	-0.6038313
64	0x3ecd644f	0.40115592
65	0xbebd87f7	-0.37017795
66	0xbfa58c69	-1.2933475
67	0xbe30ff18	-0.1728481
68	0xbf17df12	-0.59324753
69	0x3e3c838e	0.18409559
70	0xbedf3a6b	-0.43599257
71	0xbf8faebb	-1.1225199
72	0xbf8969e4	-1.073544
73	0xbebfd1f1	-0.3746486
74	0xbee98d35	-0.45615545
75	0xbe4464d3	-0.19179086
76	0xbfeb7e66	-1.8397949
77	0xbf75703f	-0.958744
78	0xbe172a2f	-0.14762186
79	0xbf3d77d7	-0.74010986
80	0xbfb3d0ce	-1.4048097
81	0xbfa59d3a	-1.2938607
82	0xbf112162	-0.56691563
83	0x3f30281c	0.688112
84	0xbf1823d7	-0.5942969
85	0xbfc962a7	-1.5733231
86	0xbf23d221	-0.63992506
87	0xbfc37c07	-1.5272225
88	0xbf565d97	-0.83736557
89	0xbf4e7eb1	-0.80662066
90	0xbea9d333	-0.33168945
91	0xbf73f361	-0.9529324
92	0xbfa15147	-1.2602929
93	0xbf8f36aa	-1.1188557
94	0xbf07aa84	-0.5299456
95	0xbeff22d4	-0.4983126
96	0xbfb5e973	-1.4211868
97	0xbf87b692	-1.0602591
98	0xbf19fece	-0.60154426
99	0xbf3de078	-0.7417064
100	0xbef52c4e	-0.47885364
101	0x3f40ba7f	0.7528457
102	0xbebea6a3	-0.3723651
103	0xbea44951	-0.32087186
104	0xbf533036	-0.8249544
105	0xbe9fa496	-0.31180257
106	0xbe9f7d4c	-0.3115028
107	0xbf775017	-0.9660658
108	0xbf095219	-0.53640896
109	0xbf3a8916	-0.72865427
110	0xbf9014ff	-1.1256407
111	0xbf28e249	-0.65970284
112	0x3f22da6a	0.63614523
113	0xbfab1633	-1.336615
114	0xbfe6378f	-1.7985705
115	0xbed50bd9	-0.41610602
116	0xbf4e6a76	-0.80631196
117	0xbf6955ba	-0.91146433
118	0xbfaf0d5c	-1.3675952
119	0xbf9326c2	-1.1496203
120	0xbfdd95f2	-1.7311385
121	0xbf275c3a	-0.653751
122	0xbedfb8ef	-0.4369578
123	0xbfe5140c	-1.7896743
124	0xbf217790	-0.6307306
125	0x3e7010db	0.2344393
126	0xbf4650f0	-0.7746725
127	0xbee681dd	-0.45020953
128	0xbf9cb467	-1.2242554
129	0xbe84f2dd	-0.2596654
130	0xbf8bd605	-1.0924689
131	0xbf99a41e	-1.200321
132	0x3cfe603d	0.03105175
133	0x3f16dec4	0.58933663
134	0xbee492ff	-0.446434
135	0xbf93461b	-1.150577
136	0xbce3d7ef	-0.027812926
137	0xbf0997d3	-0.5374729
138	0xbe8836a1	-0.2660418
139	0xbef41047	-0.4766867
140	0xbedd6a72	-0.43245274
141	0xbf438c70	-0.76386166
142	0x3f0acb85	0.54216796
143	0xbf447043	-0.767338
144	0xbfcfc52a	-1.6232045
145	0xbf31f752	-0.69518006
146	0xbe77df33	-0.24206237
147	0xbcba08b4	-0.022709228
148	0x3eb2a1fb	0.34889206
149	0xbf531105	-0.82447845
150	0x3da871e4	0.08224848
151	0xbeff1adb	-0.49825177
152	0xbfa15c36	-1.2606266
153	0xbf3d08c0	-0.73841476
154	0xbed694ec	-0.41910493
155	0xbfaccc69	-1.3499881
156	0xbe9cd054	-0.30627692
157	0xbf63325b	-0.8874871
158	0xbee94bd7	-0.45565674
159	0x3ea8623e	0.32887453
160	0x3ef81757	0.48455307
161	0xbf1f8e59	-0.6232658
162	0xbee81815	-0.45330873
163	0xbebabfcc	-0.36474454
164	0xbfa9fa4f	-1.3279513
165	0xbf587f3c	-0.84569144
166	0xbf8cbc2f	-1.0994929
167	0xbfb7ead0	-1.4368534
168	0x3e1a8ad8	0.15092027
169	0xbf83b064	-1.0288205
170	0xbfa1965d	-1.2624012
171	0xbf705218	-0.93875265
172	0xbf2477f1	-0.64245516
173	0xbf689a45	-0.90860397
174	0xbe300567	-0.17189561
175	0xbf2fe19f	-0.68703645
176	0x3eef93d4	0.4679247
177	0xbfa58415	-1.2930933
178	0x3d8e8573	0.06959047
179	0x3ee63997	0.44965813
180	0xbf943489	-1.1578532
181	0xbe679c81	-0.22618295
182	0xbf9501ee	-1.1641214
183	0xbf860e58	-1.0473127
184	0xbf46cfce	-0.77660835
185	0x3f8af3ee	1.0855691
186	0xbff04064	-1.876965
187	0xbf65ab2f	-0.8971433
188	0xbf1ef781	-0.6209641
189	0xbf7b8a92	-0.98258317
190	0xbf56e5ba	-0.83944285
191	0xbf87d7f0	-1.0612774
192	0xbfbbc5cc	-1.4669738
193	0xbf58b5f9	-0.8465267
194	0xbfad4ff8	-1.354003
195	0xbf15c324	-0.58500886
196	0xbf00462c	-0.50107074
197	0xbfefb363	-1.872662
198	0xbf2c78bc	-0.67371726
199	0xbfb8e265	-1.444409
200	0xbf7c8895	-0.9864591
201	0xbfbf8ba2	-1.4964488
202	0xbeaa389e	-0.3324632
203	0x3f1e6425	0.6187156
204	0xbf33b8af	-0.7020368
205	0x3cdf978e	0.027293947
206	0xbdaea7c9	-0.08528096
207	0xbf9e195f	-1.2351493
208	0x3e95e280	0.29274368
209	0xbf8fd194	-1.1235833
210	0xbf64d83d	-0.89392453
211	0xbf027ec3	-0.50974673
212	0xbff6e98b	-1.9290022
213	0xbf5cb7d1	-0.8621798
214	0xbeba765b	-0.36418423
215	0xbf95405a	-1.1660264
216	0xbfa13d61	-1.2596856
217	0xbfa9f655	-1.32783
218	0xbf658578	-0.8965678
219	0x3f45d8d9	0.7728401
220	0xc000b048	-2.0107594
221	0xbf97b403	-1.185181
222	0xbf90086d	-1.1252571
223	0x3f039926	0.5140556
224	0xbf91f3b5	-1.1402498
225	0xbf0bc0db	-0.5459115
226	0xbf21a61c	-0.6314409
227	0xbec55ebc	-0.3854884
228	0xbf7572d3	-0.9587833
229	0xbf31abdf	-0.6940288
230	0xbee1129d	-0.43959513
231	0x3f446489	0.76715904
232	0xbfce2918	-1.6106291
233	0xbd8eaf30	-0.06967008
234	0xbf7f9596	-0.99837625
235	0xbfa19713	-1.2624229
236	0xbf67ae33	-0.9050018
237	0xbea81836	-0.3283097
238	0xbfeabc78	-1.8338766
239	0xbf96ee82	-1.1791537
240	0xbffaafef	-1.9584941
241	0xbf509e8a	-0.8149191
242	0xbeb4aee8	-0.35289693
243	0xbe280f55	-0.16412099
244	0xbf0fd50b	-0.5618445
245	0xbfda5833	-1.7058166
246	0xbf3a16a1	-0.7269078
247	0x3e18e269	0.14930119
248	0xbfc292f4	-1.5201097
249	0xbf312193	-0.69191855
250	0xbfa90e71	-1.3207532
251	0x3df15a98	0.117848575
252	0xbf986389	-1.1905376
253	0xc0127e17	-2.288946
254	0xbf3f3128	-0.7468438
255	0xbcfeaa65	-0.03108711

fc2.weight f4 [256, 256]
0	0x3f03fadd	0.5155466
1	0xbeca1b72	-0.39474064
2	0xbe3718c2	-0.17880538
3	0x3e339368	0.175367
4	0xbccd96b7	-0.02509628
5	0xbfad28ba	-1.3528054
6	0xbf3f5387	-0.7473683
7	0xbe20e2c8	-0.1571151
8	0xbe165598	-0.14681089
9	0x3ce87c84	0.028379686
10	0xbe8c9a57	-0.27461502
11	0xbf53238d	-0.8247612
12	0xbe0ad995	-0.13559563
13	0xbc7d9a0c	-0.015478622
14	0xbdd8255e	-0.10554002
15	0x3e1b0e43	0.15142159
16	0xbcd70d06	-0.026251327
17	0xbe26ce3f	-0.16289614
18	0x3e663c1c	0.22483867
19	0xbe0dfd97	-0.13866268
20	0x3ba3a608	0.0049941577
21	0xbf5bbf36	-0.8583864
22	0xbe250b8e	-0.16117689
23	0x3ce54aa0	0.027989686
24	0xbf6c180a	-0.9222418
25	0xbd1ca346	-0.038241647
26	0xbf121ded	-0.57076913
27	0x3de4f71e	0.11179946
28	0x3e3c08ec	0.18362778
29	0xbcf406b7	-0.029788358
30	0x3eb77aa1	0.35835746
31	0xbdcae61b	-0.099071704
32	0xbde53faf	-0.11193787
33	0xbd9f5034	-0.077789694
34	0xbeb8d2f7	-0.36098453
35	0xbe92e6ae	-0.2869162
36	0x3c4705c2	0.012147369
37	0xbd4afdb3	-0.049558353
38	0x3e19fc64	0.15037686
39	0x3e88e91c	0.26740348
40	0xbf085022	-0.5324727
41	0x3e10c769	0.14138569
42	0xbe2d7be2	-0.16941789
43	0xbeb32efb	-0.3499678
44	0x3bdfb1c7	0.0068266126
45	0xbcd3b7fa	-0.025844563
46	0xbe6735b3	-0.22579078
47	0xbed79a6f	-0.4211001
48	0x3e2c6e27	0.16838895
49	0xbee0b539	-0.43888262
50	0xbf477ccf	-0.7792482
51	0xbeb39f20	-0.3508234
52	0xbf314e7c	-0.6926038
53	0xbe5e7d9d	-0.21727605
54	0x3d3c9611	0.046041552
55	0xbe4e8744	-0.20168787
56	0x3e225825	0.15853937
57	0xbe019598	-0.12654722
58	0x3dfecdbb	0.12441584
59	0xbe131177	-0.14362131
60	0x3e2ac082	0.16674998
61	0xbcd44a3a	-0.0259143
62	0xbe038fc9	-0.12847818
63	0xbd10835a	-0.035281517
64	0x3aa1265e	0.001229476
65	0x3de11076	0.10989468
66	0xbf063567	-0.52425236
67	0xbef98a40	-0.4873829
68	0xbd137803	-0.036003124
69	0x3c831105	0.015999326
70	0xbe83e1a4	-0.25758088
71	0xbd0a2059	-0.033722255
72	0x3cc0ea86	0.02354933
73	0xbe119423	-0.14216666
74	0xbf8a4951	-1.0803624
75	0x3e5a16fc	0.2129783
76	0xbdeeb390	-0.116553426
77	0xbe7ca3fd	-0.24671932
78	0x3ed91487	0.42398474
79	0xbd8c6576	-0.0685529
80	0xbe1c586e	-0.15268108
81	0xbf45976b	-0.7718417
82	0x3d6c131b	0.057635408
83	0x3e937291	0.28798345
84	0x3e3ebe32	0.18627241
85	0x3d6cf2a8	0.057848603
86	0xbd630023	-0.055420052
87	0x3ddf6c07	0.109092765
88	0xbd96fec3	-0.07372811
89	0xbe150dc0	-0.14556026
90	0x3e07b64a	0.13253132
91	0xbf496f97	-0.786859
92	0xbe2b10ed	-0.16705675
93	0xc02628f5	-2.5962498
94	0xbe56340f	-0.20918296
95	0xbe2b8076	-0.16748223
96	0x3e20abae	0.1569049
97	0xbd893a39	-0.06700558
98	0xbf0713aa	-0.5276438
99	0xbf2c8656	-0.6739248
100	0xbe5505b0	-0.20802951
101	0x3ea9e8c4	0.331854
102	0xbd6d4a34	-0.057932094
103	0xbd356495	-0.044285376
104	0xbe80cd6c	-0.25156724
105	0x3e71a7e0	0.23599195
106	0x3d308b23	0.04310144
107	0xbf932bba	-1.1497719
108	0xbe15542d	-0.14582892
109	0xbec9435d	-0.39309207
110	0x3caa5113	0.020790612
111	0xbe372345	-0.17884548
112	0x3e738051	0.23779418
113	0x3e344905	0.1760598
114	0x3d2cb7a6	0.04216733
115	0x3d9ec66d	0.077526905
116	0xbcd11258	-0.025521442
117	0x3e802078	0.25024772
118	0xbca08550	-0.019594818
119	0xbe20f57f	-0.1571865
120	0xbd9578b5	-0.07298414
121	0xbc278fb6	-0.010227134
122	0x3e0b1103	0.13580708
123	0x3f39df9e	0.7260684
124	0xbe46e589	-0.19423498
125	0x3d9180d1	0.07104648
126	0xbf0bef39	-0.546619
127	0xbdadc90b	-0.084856115
128	0x3c6db888	0.014509328
129	0xbdb7a67c	-0.08967301
130	0x3e5fe708	0.21865475
131	0xbe58634d	-0.2113163
132	0x3d9686db	0.073499404
133	0xbdab3680	-0.083600044
134	0x3ecbb717	0.39788124
135	0xbfaeb514	-1.3649011
136	0xbea5acaa	-0.32358295
137	0x3ed1cd96	0.40977162
138	0x3d85f313	0.06540503
139	0xbf69e674	-0.9136727
140	0xbd170de9	-0.0368785
141	0xbd180c9d	-0.037121404
142	0x3de1d18d	0.11026297
143	0xbe85867f	-0.26079175
144	0x3d3e328f	0.046434935
145	0x3e048484	0.12941176
146	0xbe79a254	-0.2437833
147	0x3d7971a6	0.0608994
148	0xbebec244	-0.37257588
149	0x3e9b013e	0.30274385
150	0xbd6cf5d0	-0.057851613
151	0x3ed37454	0.4129969
152	0xbef60935	-0.480539
153	0x3e012dec	0.12615174
154	0xbde47411	-0.111549504
155	0x3e90186a	0.28143626
156	0x3db9c081	0.0906992
157	0xbdd57a16	-0.10423677
158	0xbfa33656	-1.2750957
159	0x3e29f9e1	0.16599227
160	0x3b01889a	0.0019765259
161	0xbf02c26e	-0.51077926
162	0xbe2778a6	-0.16354617
163	0xbc960775	-0.018314103
164	0x3e0977ad	0.13424559
165	0x3b87f210	0.004148729
166	0x3e26fecc	0.16308135
167	0xbf15a3a2	-0.5845281
168	0xbb8edf29	-0.004360099
169	0x3d3908e8	0.04517451
170	0x3d03ef04	0.032210365
171	0x3e118445	0.14210613
172	0x3e4de11b	0.20105402
173	0x3e628f5e	0.22125003
174	0x3cf12036	0.029434305
175	0xbe524909	-0.20535673
176	0xbe5859d6	-0.2112802
177	0xbf126039	-0.57178074
178	0xbd08cc1d	-0.033397783
179	0xbefd7c55	-0.4950892
180	0xbd1b50ad	-0.037918735
181	0xbd7f2698	-0.062292665
182	0x3e371c17	0.17881809
183	0xbc1a6365	-0.009423112
184	0x3d2e2900	0.04251957
185	0x3bbc4d43	0.005746515
186	0xbe495332	-0.19660643
187	0xbe741af2	-0.23838404
188	0x3d836935	0.06416551
189	0xbf310850	-0.6915331
190	0xbdcf24a5	-0.10114411
191	0xbd9af589	-0.07566363
192	0xbe5c6c87	-0.21525775
193	0x3b576ecb	0.0032872434
194	0xbd8adc08	-0.06780249
195	0xbe2b0836	-0.16702351
196	0x3e1c698b	0.15274636
197	0x3e9b65f6	0.30351228
198	0x3e0413df	0.12898205
199	0xbe7fec5a	-0.24992505
200	0x3d9e6e4f	0.077358834
201	0xbd129429	-0.035785828
202	0x3d271344	0.040789858
203	0x3d87b957	0.06627148
204	0xbead9186	-0.33900088
205	0xbfd0a14e	-1.6299226
206	0x3de63087	0.112397246
207	0xbe407f6d	-0.18798609
208	0x3d26ae1f	0.0406934
209	0x3eb65ced	0.35617772
210	0x3c0593a2	0.008152874
211	0xbdd78caa	-0.105248764
212	0xbd681adc	-0.05666624
213	0x3917a762	0.00014462837
214	0x3d76687a	0.06015823
215	0xbe3cd627	-0.18441068
216	0x3bead26c	0.0071661975
217	0xbe1d9f5c	-0.15392822
218	0x3c27a0da	0.010231221
219	0xbe438fbb	-0.19097798
220	0xbeac360d	-0.33634987
221	0x3c6538bb	0.013990576
222	0x3caf364a	0.021388192
223	0x3e0b605f	0.13610981
224	0xbf9b8478	-1.2149801
225	0x3e5a973b	0.21346752
226	0x3e5e9ef5	0.21740325
227	0x3e61b760	0.22042608
228	0xbe871532	-0.26383358
229	0x3bf48adb	0.007462842
230	0xbeeb3bb0	-0.45943975
231	0x3ee66c0e	0.45004314
232	0xbea47372	-0.32119328
233	0x3ca1385c	0.019680195
234	0xbdc3cecf	-0.0956093
235	0xbe619fdb	-0.22033636
236	0x3d0a2821	0.033729676
237	0xbe2e954a	-0.17049137
238	0x3e8f53d8	0.27993655
239	0xbded8bf0	-0.115989566
240	0xbe6f4cdd	-0.23369165
241	0xbe7d6578	-0.24745739
242	0xbd972baf	-0.07381379
243	0xbd4322cc	-0.047640607
244	0x3e3d2f52	0.18475083
245	0xbd5c7831	-0.05382556
246	0x3d6b2050	0.057403862
247	0xbdc135dd	-0.09434102
248	0xbd27050a	-0.04077629
249	0xbf0191b6	-0.5061296
250	0xbe56aade	-0.20963618
251	0xbca1ae96	-0.01973657
252	0xbea0d93c	-0.31415737
253	0xbe3d11f9	-0.18463887
254	0xbd9ec6d4	-0.07752767
255	0xbd5094f7	-0.050923314

fc2.bias f4 [256]
0	0x3e8b604a	0.272219
1	0x3ef28a14	0.4737097
2	0xbf15aaf8	-0.58464
3	0xbe693346	-0.22773466
4	0x3e5e9766	0.21737441
5	0xbee1f9ba	-0.4413584
6	0x3d8517f4	0.06498709
7	0x3d80ee9c	0.06295511
8	0x3f4f0f09	0.80882317
9	0x3deca561	0.11554981
10	0x3c163c97	0.009169719
11	0xbec165ac	-0.37772882
12	0xbe04cfd4	-0.12969905
13	0xbe359db6	-0.17735943
14	0x3e82f1dd	0.25575152
15	0x3e544f83	0.20733456
16	0xbf0092c9	-0.50223976
17	0x3ee16cad	0.44028226
18	0x3e5b5863	0.21420436
19	0xbf1abb3a	-0.60441935
20	0x3d15a2a7	0.03653207
21	0x3df461e8	0.11932737
22	0xbca0a64e	-0.01961055
23	0x3d78fab8	0.06078598
24	0xbf381ddc	-0.7192056
25	0x3d4d852d	0.050175834
26	0x3e13d1e6	0.14435539
27	0x3e8a6faa	0.27038318
28	0x3ed6c131	0.41944268
29	0x3e9123bc	0.28347576
30	0xbe3a1332	-0.18171385
31	0x3e449aaf	0.19199632
32	0xbe71f5a5	-0.23628862
33	0xbd84ef78	-0.064909875
34	0x3d8bfa6e	0.06834875
35	0xbf193550	-0.59846973
36	0xbfa7d314	-1.3111291
37	0xbeccb713	-0.39983425
38	0xbe6be639	-0.23037042
39	0x3efc5b4a	0.49288398
40	0x3efef85b	0.49798855
41	0xbd2ee78f	-0.0427013
42	0x3c67e001	0.014152528
43	0x3f02d899	0.5111175
44	0x3e834eca	0.2564605
45	0x3e116c1b	0.14201395
46	0x3e511d19	0.20421256
47	0x3e9f30ab	0.31091818
48	0xbfdeb9e8	-1.7400484
49	0xbd70c87c	-0.058784947
50	0xbe97b7ee	-0.29632515
51	0xbcb2ef5d	-0.021842653
52	0x3e7df8fa	0.24802008
53	0x3f1fd911	0.6244059
54	0xbec2da00	-0.38056946
55	0x3e1ee42c	0.15516728
56	0x3de5edf7	0.11227029
57	0x3e091fb2	0.13390997
58	0x3d0f8a3a	0.035043932
59	0xbe9ee634	-0.31035006
60	0x3e964eff	0.29357144
61	0x3e293f11	0.16527964
62	0xbd620678	-0.05518195
63	0x3ee91732	0.4552551
64	0x3e5e6dbc	0.21721548
65	0xbddb5119	-0.107088275
66	0xbefe2973	-0.49640998
67	0xbf0ab683	-0.5418474
68	0xbda71121	-0.08157564
69	0x3f3f66af	0.7476606
70	0x3f1007dc	0.5626199
71	0xbeb79b1a	-0.3586052
72	0xbe9c35dc	-0.3050984
73	0x3e8b890e	0.27253002
74	0xbdc6105d	-0.0967109
75	0x3d1d9d0f	0.03847986
76	0x3c1b3d86	0.009475118
77	0x3da45182	0.08023359
78	0x3effb6e1	0.49944213
79	0xbe2c4ae6	-0.16825446
80	0x3eabbc9c	0.33542335
81	0x3ef5d764	0.48015893
82	0xbe8d33f1	-0.2757869
83	0x3e9d94d1	0.307776
84	0x3f0a1b46	0.53947866
85	0xbe2346a8	-0.15944922
86	0x3e6cc298	0.23121107
87	0x3e6d04f9	0.23146428
88	0xbf2bd731	-0.6712523
89	0x39479816	0.00019034775
90	0xbf6c85a8	-0.92391443
91	0xbcca5182	-0.02469707
92	0x3ca36fbc	0.01995074
93	0xbe88aabe	-0.26692766
94	0x3e9b828b	0.30373034
95	0x3e7ad05e	0.24493548
96	0xbbe72e48	-0.0070550777
97	0xbe85e295	-0.2614943
98	0x3e657455	0.22407658
99	0xbdff9c3d	-0.12480972
100	0x3f01029a	0.50394595
101	0x3eb087e0	0.34478664
102	0xbef43048	-0.47693086
103	0x3ed3ed83	0.41392145
104	0xbee1e3c7	-0.44119093
105	0xbd8ad3e6	-0.06778698
106	0xbf098068	-0.5371156
107	0xbd1c2c5e	-0.03812825
108	0xbdaefc1b	-0.08544179
109	0x3e584ecb	0.21123807
110	0xbdba9fa9	-0.09112484
111	0x3e85bd6c	0.2612108
112	0x3d1f7816	0.038932882
113	0xbc3f5fe5	-0.011680578
114	0xbd9b1082	-0.07571508
115	0x3f0fa470	0.56110287
116	0x3f1a8c0e	0.60369956
117	0x3ee54c9e	0.44785017
118	0xbd2e4656	-0.042547546
119	0x3edc95de	0.4308309
120	0x3e51c508	0.20485318
121	0x3c8eb2da	0.017419267
122	0x3ca807e8	0.020511582
123	0xbc35bf1f	-0.01109293
124	0x3f02330d	0.5085915
125	0xbda6280e	-0.081131086
126	0xbda25f04	-0.07928279
127	0x3e769f6f	0.24084257
128	0xbf75f682	-0.96079266
129	0x3c45a313	0.012062806
130	0xbdb124f3	-0.08649626
131	0x3e814acd	0.2525238
132	0xbbb7d400	-0.005609989
133	0x3e9053d0	0.28188944
134	0x3e4d98ac	0.20077771
135	0xbd6ea790	-0.05826527
136	0xbfc61484	-1.5475011
137	0xbf8761b6	-1.0576694
138	0x3daf7db0	0.08568895
139	0x3d02815c	0.031861648
140	0x3ec0791a	0.37592393
141	0x3bfb4cc3	0.007669063
142	0x3ed598a4	0.41718018
143	0xbd614886	-0.055000804
144	0x3f343746	0.7039684
145	0xbc1efdbc	-0.00970405
146	0xbd0c89b0	-0.034310997
147	0x3f044cd5	0.51679736
148	0x3e640a0e	0.2226946
149	0xbdc09145	-0.09402708
150	0xbe8ce514	-0.27518523
151	0x3e29a0bb	0.1656522
152	0xbdd76f06	-0.10519223
153	0x3e80a52d	0.2512602
154	0x3e6dc11b	0.23218195
155	0x3efe85fa	0.4971159
156	0xbff28ffd	-1.8950192
157	0xbeacf4a8	-0.33780408
158	0x3d1e53cd	0.038654137
159	0xbe011fd5	-0.12609799
160	0xbdda4086	-0.10656838
161	0xbf400d59	-0.75020367
162	0xbd962175	-0.073306
163	0xbaa0feb9	-0.0012282945
164	0xbefda482	-0.49539572
165	0xbdd72db6	-0.105067655
166	0xbea196c4	-0.31560338
167	0x3ef8d624	0.48600876
168	0x3d0fa562	0.03506983
169	0x3ee59e86	0.44847506
170	0xbdae13a4	-0.0849984
171	0x3eb3bc27	0.35104486
172	0xbcebb6e9	-0.028773742
173	0x3e9e75a7	0.30949137
174	0xbe2b98bb	-0.16757481
175	0xbe2a1393	-0.1660903
176	0xbd2f3efe	-0.042784683
177	0xbe11a181	-0.14221765
178	0xbbf1c87c	-0.007378636
179	0x3e435877	0.19076715
180	0xbe761b19	-0.24033774
181	0xbe65572c	-0.22396535
182	0x3e8eb98f	0.27875945
183	0xbdc1fb46	-0.09471755
184	0x3e9b817a	0.3037222
185	0x3d503c55	0.050838787
186	0xbdb15b74	-0.086600214
187	0x3e220042	0.15820411
188	0xbd3a2b33	-0.045451354
189	0x3b48b07f	0.0030622778
190	0x3ef12f63	0.47106466
191	0xbc1b03bb	-0.009461339
192	0x3f64e4a7	0.89411396
193	0xbc639942	-0.01389152
194	0xbee4a00e	-0.44653362
195	0xbf79f7d0	-0.97643757
196	0xbe42968e	-0.19002745
197	0xbe003da4	-0.12523514
198	0xbed1594d	-0.40888444
199	0xbc377658	-0.011197649
200	0x3eedf14d	0.4647316
201	0x3e881946	0.26581782
202	0x3eb3de8d	0.3513073
203	0xbf1fc985	-0.6241687
204	0xbeec3e67	-0.4614136
205	0xbe3cde03	-0.18444066
206	0xbf3eac59	-0.7448173
207	0x3dba6ac9	0.09102399
208	0x3ef7bfcb	0.48388514
209	0xbeae33cb	-0.3402389
210	0xbc6f0aa5	-0.01458994
211	0xbef37e27	-0.47557184
212	0x3ee2ac09	0.44271877
213	0x3df2df99	0.11859054
214	0xbbf5d7d2	-0.0075025344
215	0x3dd28899	0.1027996
216	0x3e91c850	0.2847314
217	0x3df7b421	0.12094904
218	0x3f087109	0.5329748
219	0xbe57897b	-0.21048538
220	0xbd3a09d5	-0.045419533
221	0x3ebf29ff	0.37336728
222	0x3e4fb722	0.20284703
223	0xbeec2403	-0.46121225
224	0x3dedaacd	0.11604843
225	0x3e85805e	0.260745
226	0xbd6d7f0f	-0.0579825
227	0x3f3b8e24	0.73263764
228	0x3c59ff1c	0.013305452
229	0xbe601994	-0.21884757
230	0x3eec6044	0.46167195
231	0x3e621414	0.22077972
232	0x3e7e0a19	0.2480854
233	0x3e5bca41	0.21463872
234	0xbe8db572	-0.27677494
235	0xbe84fda5	-0.25974765
236	0x3b36985f	0.0027861816
237	0x3ee6ae31	0.45054772
238	0x3d85ed35	0.06539384
239	0xbf0b26c1	-0.5435601
240	0xbe641a36	-0.22275624
241	0x3ebf2a43	0.3733693
242	0x3eadd959	0.33954886
243	0xbfca7c5d	-1.5819203
244	0x3e7e8e4f	0.24858974
245	0x3e9818cb	0.29706416
246	0xbea10ba9	-0.31454208
247	0x3eae256f	0.34012935
248	0xbee11b17	-0.4396598
249	0xbb889d54	-0.0041691456
250	0xbd96c091	-0.07360948
251	0x3e855a78	0.26045585
252	0xbd440bbc	-0.047862753
253	0x3ddd3ad5	0.10802237
254	0xbddbdba2	-0.10735251
255	0x3de64f0a	0.11245544

fc3.weight f4 [256, 256]
0	0xbe8a3f46	-0.270014
1	0xbf3c66f8	-0.7359462
2	0xbd432ced	-0.047650266
3	0x3dd70a39	0.10499997
4	0x3d6918ce	0.05690842
5	0xbe1040fd	-0.14087291
6	0x3d759b5c	0.059962615
7	0xbecea753	-0.40362033
8	0x3e92f8d5	0.2870547
9	0xbe68b35c	-0.2272467
10	0x3eff62d6	0.49880093
11	0x3d9ba102	0.07599069
12	0x3ddc659c	0.10761568
13	0x3e913ea7	0.28368112
14	0x3ed9fc97	0.42575523
15	0xbf8f159f	-1.1178473
16	0xbe251fd8	-0.16125429
17	0xbe828955	-0.254954
18	0x3e9317c8	0.2872908
19	0x3d6bf613	0.05760772
20	0xbb850822	-0.0040598074
21	0x3df1f4c0	0.118142605
22	0x3c0d2bcd	0.0086164
23	0x3c296328	0.010338582
24	0xbf5363a5	-0.8257392
25	0x3d9b4da9	0.07583172
26	0xbddc8581	-0.10767651
27	0xbdc62ec9	-0.09676892
28	0xbedd861b	-0.43266377
29	0x3f06617f	0.5249252
30	0x3d90788c	0.070542425
31	0xbf5574a4	-0.83381104
32	0xbcd60312	-0.02612451
33	0xbf0b639e	-0.5444888
34	0x3dfa18cf	0.12211763
35	0xbfacd570	-1.3502636
36	0x3e902a23	0.28157148
37	0x3e6a0c7f	0.2285633
38	0xbd8d6473	-0.06903925
39	0xbe1ec263	-0.1550384
40	0xbeefb0fd	-0.4681472
41	0xbf10e987	-0.56606334
42	0x3e88f489	0.26749066
43	0xbe99b90f	-0.30024
44	0xbdb8cec3	-0.09023812
45	0x3effd930	0.49970388
46	0x3cb57f84	0.02215553
47	0xbe78be3a	-0.24291316
48	0x3d883536	0.06650774
49	0xbe026567	-0.12733994
50	0x3d3f7c37	0.04674932
51	0x3d08483b	0.03327201
52	0x3e387ad3	0.18015604
53	0xbd8d8073	-0.06909265
54	0x3d901d35	0.07036821
55	0x3e990e71	0.2989383
56	0xbe8a769e	-0.27043623
57	0x3e00b65f	0.12569569
58	0xbda49c31	-0.08037604
59	0x3e22cb35	0.1589783
60	0xbe9f03f3	-0.310577
61	0xbd56d2f6	-0.05244728
62	0x3e6ec3b5	0.23316844
63	0x3f115c42	0.567814
64	0xbd919f77	-0.07110494
65	0xbe3ccc15	-0.18437226
66	0x3d945703	0.07243159
67	0xbe784894	-0.24246436
68	0xbd96a9a1	-0.07356573
69	0xbd190f54	-0.037368134
70	0xbe4e4d5f	-0.20146702
71	0x3dd6c43f	0.1048665
72	0xbe9e13ec	-0.30874574
73	0x3bf2de75	0.007411773
74	0x3d894acf	0.06703722
75	0x3e48ee25	0.19622095
76	0x3b593e4d	0.0033148706
77	0x3e21bbd8	0.15794313
78	0xbcb4211b	-0.021988442
79	0xbdd91d70	-0.10601318
80	0xbe5ad6e4	-0.21371037
81	0x3e55ab05	0.2086602
82	0xbec84d74	-0.39121592
83	0xbe7e67a6	-0.24844226
84	0xbbdbe472	-0.0067105824
85	0xbc5bbb91	-0.013411419
86	0x3dfe693c	0.124224156
87	0x3edb0534	0.42777407
88	0xbe2e2cf9	-0.17009343
89	0x3d8f3302	0.06992151
90	0xbbf49747	-0.0074643227
91	0xbe0ba274	-0.1363619
92	0x3e8d234b	0.2756599
93	0x3c517dd0	0.012786344
94	0xbe32843c	-0.17433256
95	0x3eb76cc7	0.35825178
96	0x3d22dca0	0.039761186
97	0x3e61f5ab	0.22066371
98	0x3e665c95	0.22496255
99	0xbd1a6a3e	-0.037698977
100	0xbf4e30a3	-0.80542964
101	0x3e16a27f	0.14710425
102	0xbe753054	-0.23944217
103	0xbd21ac64	-0.039471045
104	0xbefee16b	-0.49781355
105	0xbe324994	-0.1741088
106	0x3e2119f8	0.15732563
107	0xbde70fa8	-0.11282283
108	0xbc4947a4	-0.012285147
109	0xbe06a4a7	-0.13148747
110	0x3d8bc5eb	0.06824859
111	0x3eba81c7	0.36427137
112	0xbe8349d5	-0.25642267
113	0xbc0d91f0	-0.008640751
114	0x3d941500	0.07230568
115	0xbe6929a9	-0.22769798
116	0x3e2df6f2	0.16988733
117	0xbd7233de	-0.059131496
118	0x3e704231	0.2346275
119	0x3c9bc4b8	0.019014701
120	0xbf2d5649	-0.67709786
121	0x3df2a413	0.11847701
122	0xbe703366	-0.23457107
123	0xbdc76d3d	-0.097376324
124	0x3e7330a6	0.23749027
125	0x3e02ffaa	0.1279284
126	0xbca12a58	-0.019673511
127	0xbdc18e75	-0.09451
128	0xbe09e3d2	-0.13465813
129	0x3ecc0ef9	0.39855173
130	0xbd13ddd7	-0.036100235
131	0xbdf468a7	-0.11934023
132	0x3e04b2ef	0.12958883
133	0x3dae1f1a	0.08502026
134	0xbd129370	-0.03578514
135	0xbdd557a8	-0.1041711
136	0xbd762a71	-0.06009907
137	0xbd4656ec	-0.04842274
138	0xbe11c6a0	-0.14235926
139	0x3da4a63e	0.08039521
140	0xbece1363	-0.40249166
141	0x3d332e4c	0.043745324
142	0xbe652cd2	-0.22380379
143	0x3cdc6f88	0.026908651
144	0xbcf2c349	-0.029634135
145	0x3e5c03f7	0.21485887
146	0xbd8d6281	-0.06903554
147	0xbec9717e	-0.393444
148	0xbc560207	-0.013062007
149	0x3d5796e4	0.052634135
150	0xbe45207e	-0.19250676
151	0x3d8fae60	0.07015681
152	0x3db9213f	0.09039544
153	0xbe8311b0	-0.25599432
154	0xbd1d750e	-0.03844171
155	0x3e9e0ff0	0.30871534
156	0xbd87ace2	-0.06624772
157	0x3d0dca4d	0.034616757
158	0xbe994eba	-0.29942876
159	0xbddc5e25	-0.10760144
160	0x3c6e5cdf	0.014548509
161	0xbdccb9f6	-0.09996407
162	0x3d0402df	0.0322293
163	0x3d16c008	0.03680423
164	0x3db57e7c	0.088620156
165	0x3d0e6bff	0.03477096
166	0xb9165bfc	-0.00014339382
167	0xbdfebd8f	-0.12438499
168	0xbc806507	-0.015673174
169	0xbe78a85b	-0.24282973
170	0xbee4e6af	-0.44707248
171	0xbe5b4f8b	-0.21417062
172	0x3d5371da	0.05162225
173	0xbdd806c2	-0.10548164
174	0xbc8d9ac1	-0.017285706
175	0xbf0d3d8e	-0.5517205
176	0xbca58bc1	-0.020208241
177	0x3e177d02	0.1479378
178	0xbed4990f	-0.41523024
179	0xbee0e321	-0.43923286
180	0x3e154bbc	0.14579672
181	0x3c422be2	0.011851283
182	0xbf124f41	-0.5715218
183	0x3d153e84	0.036436573
184	0x3cc3f690	0.023921281
185	0x3c9f4bcf	0.019445328
186	0x3d6ffd05	0.058590908
187	0xbdb6e292	-0.089299336
188	0x3d065857	0.03279909
189	0x3ddc2c08	0.10750586
190	0xbdb1c033	-0.08679237
191	0x3da3a8d0	0.07991183
192	0x3d908f26	0.070585534
193	0x3e5e18f7	0.21689211
194	0x3d991b72	0.07475938
195	0xbf0b224e	-0.5434922
196	0xbd63371f	-0.05547249
197	0xbb81282e	-0.0039415574
198	0x3e210915	0.15726121
199	0xbcd1d617	-0.025614781
200	0xbe64c56f	-0.2234094
201	0x3e6e8fcd	0.23297043
202	0x3e12421b	0.1428303
203	0xbe0b08cb	-0.13577573
204	0x3dc917ea	0.09819014
205	0xbf29bbfe	-0.6630248
206	0xbf2fe26b	-0.6870486
207	0xbc952be0	-0.018209398
208	0x3dbfe347	0.093695216
209	0xbe415b7c	-0.18882555
210	0x3e119b26	0.1421934
211	0x3db8cd11	0.09023488
212	0xbf4cb604	-0.79965234
213	0x3e259aa1	0.16172267
214	0xbe2e0527	-0.16994153
215	0xbc88cfdf	-0.016700683
216	0xbcd9fcf8	-0.026609883
217	0xbd607efd	-0.054808605
218	0xbcb391a6	-0.021920037
219	0x3df05b29	0.117361374
220	0xbdcac215	-0.099002995
221	0x3d17d312	0.037066527
222	0xbdcd7cf7	-0.10033601
223	0xbd887abf	-0.06664037
224	0xbe1d1972	-0.15341738
225	0xbde82560	-0.11335254
226	0xbd189d49	-0.037259374
227	0xbf92ea75	-1.1477801
228	0xbe03853c	-0.12843794
229	0xbe4f9ea7	-0.20275365
230	0xbe9a9ca3	-0.3019763
231	0x3eb31cc6	0.3498289
232	0xbe9f898b	-0.31159624
233	0xb9b1724a	-0.00033845223
234	0xbe552edf	-0.20818661
235	0xbe822107	-0.25415823
236	0x3df6a05c	0.12042305
237	0x3a99bb8d	0.0011728868
238	0x3d739d42	0.059476145
239	0x3e40f4ed	0.18843432
240	0x3e65076f	0.22366117
241	0x3e218b36	0.15775761
242	0x3ea6ebb3	0.326017
243	0xbed4867c	-0.41508853
244	0xbe6d0795	-0.23147424
245	0xbf1c036c	-0.6094272
246	0xbda9b54f	-0.08286535
247	0xbe917065	-0.28406063
248	0xbe725ffb	-0.23669426
249	0x3d01b6ad	0.031668354
250	0xbca9b448	-0.020715848
251	0xbdfb7303	-0.12277796
252	0x3d227c79	0.039669488
253	0x3da85bad	0.08220611
254	0x3df6661a	0.12031193
255	0xbe45437d	-0.19264026

fc3.bias f4 [256]
0	0x3f3b111c	0.7307298
1	0x3cfbf717	0.03075747
2	0xbe64fb48	-0.22361481
3	0xbe8253b5	-0.25454488
4	0xbe29e09c	-0.16589588
5	0xbce70a1a	-0.028203059
6	0xbea5be7f	-0.323719
7	0xbe163a0a	-0.14670578
8	0xbf2897be	-0.6585654
9	0x3c7b0e76	0.015323272
10	0x3e0ad368	0.13557208
11	0x3f511e20	0.8168659
12	0xbec1502a	-0.37756473
13	0x3f087d14	0.53315854
14	0xbe4e9442	-0.20173743
15	0x3d946463	0.0724571
16	0xbcf2d502	-0.029642586
17	0xbede3322	-0.43398386
18	0xbb81d396	-0.0039619906
19	0xbe77c5ba	-0.2419652
20	0xbe9d90d0	-0.30774546
21	0xbdb0e6cb	-0.0863777
22	0x3cb9d2f9	0.022683607
23	0xbc2d144c	-0.010563921
24	0x3e9a71e5	0.3016502
25	0x3d1098ae	0.035301857
26	0xbd8a4052	-0.067505494
27	0x3f179104	0.5920565
28	0xbdf3ebe4	-0.11910227
29	0xbdef8e35	-0.11697046
30	0x3d2b80d7	0.041870918
31	0x3f09275a	0.5357567
32	0xbdc3f21a	-0.095676616
33	0xbdda04d9	-0.10645456
34	0xbe85b259	-0.2611263
35	0xbe12561b	-0.14290659
36	0xbdeca790	-0.115553975
37	0xbeccb02d	-0.3997816
38	0xbe809410	-0.25112963
39	0x3ec125ff	0.377243
40	0xbe23f02a	-0.16009584
41	0xbc8d91bc	-0.017281406
42	0xbe9820fd	-0.29712668
43	0xbf59fdc3	-0.85152835
44	0x3ea0ea7e	0.31428903
45	0xbe3a3246	-0.1818324
46	0xbdf4e082	-0.11956884
47	0x3c5c4c23	0.013445887
48	0xbe48af68	-0.19598162
49	0xbf465900	-0.77479553
50	0xbeb28ef4	-0.3487469
51	0xbe1228e7	-0.14273416
52	0x3d6140d2	0.054993458
53	0x3e824871	0.25445893
54	0xbdd99533	-0.106241606
55	0xbe91d410	-0.28482103
56	0xbe63412d	-0.22192831
57	0xbd315119	-0.04329023
58	0x3e58fbc0	0.21189785
59	0x3bc596f8	0.00602996
60	0xbe1c7839	-0.15280236
61	0xbe158485	-0.14601333
62	0x3ddaf9a3	0.10692146
63	0xbe1f1705	-0.15536125
64	0x3f0191f8	0.50613356
65	0x3e34509e	0.17608878
66	0xbe7928e2	-0.24332002
67	0xbd5d809f	-0.05407774
68	0xbda3d9d7	-0.08000534
69	0x3e293634	0.16524583
70	0xbdadd6af	-0.08488213
71	0x3f225ca5	0.63422614
72	0xbe0505d2	-0.12990502
73	0xba4afebc	-0.0007743647
74	0x3d841398	0.0644905
75	0xbe480ff7	-0.1953734
76	0xbf65a2a6	-0.89701307
77	0xbcb254bd	-0.021768922
78	0x3f4e1b52	0.8051044
79	0xbdeee2b1	-0.11664332
80	0xbe866e67	-0.26256105
81	0xbe66b0d0	-0.22528386
82	0x3f393c7b	0.7235791
83	0xbde8048e	-0.11328994
84	0xbef840b2	-0.4848686
85	0x3e0d6a09	0.1380998
86	0xbe904985	-0.2818109
87	0xbd9f8b40	-0.07790232
88	0x3de0b282	0.10971548
89	0xbe5b7d5a	-0.21434537
90	0xbf0d79b8	-0.55263853
91	0x3e0772fc	0.13227457
92	0xbed744bf	-0.42044637
93	0xbf499573	-0.78743666
94	0xbe23e4ae	-0.16005203
95	0xbe8435f8	-0.25822425
96	0x3d6ced0f	0.057843264
97	0x3ea2d40c	0.31802404
98	0x3efc43a9	0.4927037
99	0xbdb8b0e6	-0.09018116
100	0xbe01d7fc	-0.12680048
101	0xbe3e4b8e	-0.1858351
102	0xbe925e84	-0.28587735
103	0x3e8b07ae	0.27154297
104	0xbe6e83dc	-0.23292488
105	0xbe8c238f	-0.2737088
106	0xbb7e429e	-0.003879703
107	0xbea8d762	-0.32976824
108	0xbe1552b5	-0.14582331
109	0xbddd7e39	-0.10815091
110	0xbdb287d3	-0.08717313
111	0xbf0b0475	-0.54303676
112	0xbeb84c3e	-0.35995668
113	0xbe123012	-0.1427615
114	0xbb831f34	-0.0040015224
115	0x3ea64175	0.32471815
116	0xbe1bb5ec	-0.15206116
117	0x3dace3dd	0.08441899
118	0xbe96febd	-0.29491225
119	0xbd0d3584	-0.034474865
120	0xbd6d75dd	-0.05797373
121	0x3d7cac76	0.06168791
122	0x3ec0a299	0.37624052
123	0xbed3cfb0	-0.4136939
124	0x3e5f352e	0.2179763
125	0x3e786680	0.2425785
126	0x3e53d576	0.20686898
127	0xbe3a16eb	-0.18172805
128	0xbe3173ea	-0.17329374
129	0xbdfb9473	-0.12284174
130	0xbed5580d	-0.4166874
131	0x3f538ab5	0.82633525
132	0xbdf0d0ab	-0.1175855
133	0xbe802fb4	-0.25036395
134	0xbe5c84c0	-0.21535015
135	0xbd9296dc	-0.071576804
136	0xbb432faf	-0.002978306
137	0xbded9835	-0.11601297
138	0x3d0525b8	0.032506675
139	0x3e8008fe	0.2500686
140	0xbe8c6b39	-0.27425554
141	0xbd73d261	-0.059526805
142	0x3e4392c4	0.19098955
143	0x3e8c183f	0.27362248
144	0xbbe037f8	-0.0068426095
145	0x3f37e512	0.7183391
146	0xbec592cc	-0.3858856
147	0xbee1ac2b	-0.44076666
148	0xbd22bf01	-0.039732937
149	0x3ccb6a39	0.024830924
150	0x3e61eeec	0.22063798
151	0xbe0f001c	-0.13964885
152	0xbe65f72f	-0.22457574
153	0x3e8b73b1	0.27236703
154	0xbde6c04f	-0.11267149
155	0xbdf50321	-0.119634874
156	0xbeb0be34	-0.34520113
157	0xbeb19457	-0.34683487
158	0xbe612080	-0.21985054
159	0xbee7c62f	-0.4526839
160	0x3e8f6af8	0.28011298
161	0x3c03813c	0.008026417
162	0x3e9bce66	0.30430907
163	0xbe18975b	-0.14901488
164	0xbefb9ddf	-0.49143884
165	0xbf40c643	-0.75302523
166	0xbf4d7bbd	-0.80266935
167	0x3f016e6e	0.5055913
168	0x3ec8b13c	0.3919772
169	0xbe12590e	-0.14291784
170	0xbe1ff639	-0.1562127
171	0xbdb5b559	-0.0887248
172	0x3ec4ec5d	0.3846158
173	0xbbb4aa1a	-0.0055134417
174	0xbe1f0c6f	-0.15532087
175	0x3e8cab1b	0.27474293
176	0xbdcf19ac	-0.101123184
177	0xbd6c47dd	-0.05768572
178	0xbc9467e4	-0.018115945
179	0xbd33f3b3	-0.04393358
180	0x3d9f4229	0.07776291
181	0x3f3ee47e	0.745674
182	0xbe19d2c1	-0.15021802
183	0x3e9b92b3	0.3038536
184	0x3e0a0542	0.13478568
185	0x3edd596b	0.43232283
186	0xbe3be102	-0.18347552
187	0xbcdab1f9	-0.026696192
188	0x3dac92de	0.0842645
189	0x3f5182e8	0.8184037
190	0xbeb764d1	-0.35819104
191	0xbe1475cb	-0.1449806
192	0xbe857981	-0.26069263
193	0x3e2f791a	0.1713604
194	0xbde11ca2	-0.109917894
195	0x3dea9972	0.114550486
196	0x3e8f1f49	0.27953556
197	0xbe9990f7	-0.29993412
198	0x3ecc45b1	0.3989692
199	0x3f26b680	0.6512222
200	0xbe86e2e3	-0.26344976
201	0xbe9d9ffb	-0.30786118
202	0xbe88360a	-0.2660373
203	0xbe2572e0	-0.16157103
204	0x3f058a9d	0.5216463
205	0xbe9021be	-0.28150743
206	0xbdf94af2	-0.12172498
207	0xbeb0cef4	-0.34532893
208	0x3ecddd38	0.4020784
209	0xbeacfe0a	-0.33787566
210	0xbd8905b9	-0.06690545
211	0x3e92d947	0.28681394
212	0x3ea625bf	0.32450673
213	0xbb18b032	-0.002329838
214	0xbd066b0b	-0.032816928
215	0x3eb1769f	0.34660813
216	0xbe2205d0	-0.1582253
217	0xbec3dd8c	-0.38254964
218	0x3d03d9ce	0.032190137
219	0xbc44b0c1	-0.012005032
220	0x3f0f4943	0.55971164
221	0xbe3f2ab9	-0.18668641
222	0x3eabb904	0.33539593
223	0xbdbe99e5	-0.09306697
224	0xbe1eb154	-0.15497333
225	0xbe78692a	-0.24258867
226	0xbd8e2bfe	-0.069419846
227	0xbd9959dc	-0.074878424
228	0x3f98eb84	1.1946874
229	0xbd5eb427	-0.054371025
230	0x3d9d953d	0.076944806
231	0xbdc9f04a	-0.098602846
232	0xbec09a05	-0.37617508
233	0x3e4f7fdb	0.20263617
234	0xbd17537e	-0.03694486
235	0xbdcf7a05	-0.10130695
236	0xbd969ae1	-0.073537596
237	0xbe013ff3	-0.12622051
238	0xbe4bb8ae	-0.19894668
239	0xbe85fdb3	-0.2617012
240	0x3f4f527a	0.80985224
241	0x3ec5334a	0.38515693
242	0x3e16aa02	0.1471329
243	0xbeba23f7	-0.36355564
244	0xbe6adbbb	-0.22935383
245	0x3df9c87b	0.12196442
246	0xbed439a3	-0.41450223
247	0x3f34cf8c	0.7062919
248	0x3e8a1d37	0.26975414
249	0x3e387cb9	0.18016328
250	0xbe6bbc7e	-0.23021123
251	0xbe451070	-0.19244552
252	0x3f1a668c	0.60312724
253	0xbd90f8fc	-0.0707874
254	0xbe9a77e5	-0.30169597
255	0xbd43be22	-0.047788747

action_out.weight f4 [4, 256]
0	0xbb8f2147	-0.0043679806
1	0xbae9e68d	-0.0017845199
2	0x3c1a7742	0.009427847
3	0x3f2c76a8	0.67368555
4	0x3d0c46c0	0.03424716
5	0xbd440cc8	-0.04786375
6	0x3d99bbff	0.075065605
7	0xbf1cd8b0	-0.6126814
8	0xbcbda81f	-0.023151455
9	0xbbdc93bc	-0.0067314785
10	0xbdc64a0c	-0.09682092
11	0xbb0f258d	-0.002184245
12	0x3d8c29dc	0.068439215
13	0xbc6e2a17	-0.014536402
14	0xbe3b81a3	-0.18311171
15	0xbb924187	-0.004463378
16	0x3d6c8377	0.057742562
17	0xbfb7aea2	-1.4350169
18	0xbcba52db	-0.022744587
19	0x3e5628aa	0.2091395
20	0x3e8d29a5	0.27570835
21	0xbe06b3ec	-0.13154572
22	0x3d9ad7d4	0.07560697
23	0x3e59c045	0.21264751
24	0x3d1864ed	0.037205625
25	0xbca6f5b6	-0.020380836
26	0xbd0360eb	-0.03207485
27	0x3d87e01b	0.066345416
28	0xbd0efb56	-0.03490766
29	0x3e69c2ef	0.22828268
30	0x3da8cb46	0.08241896
31	0x3caaefce	0.0208663
32	0x3b88ca55	0.0041745105
33	0xbe3277b9	-0.17428483
34	0xbc252775	-0.010080208
35	0xbcf7f533	-0.030268287
36	0x3edd476c	0.43218553
37	0x3cab9ebc	0.020949714
38	0xbd8eae8d	-0.06966887
39	0xbd9799d1	-0.07402385
40	0x3de27de7	0.1105917
41	0x3bedb25a	0.007253927
42	0xbc8e11b8	-0.017342433
43	0x3b876eaf	0.0041330676
44	0xbe0ce289	-0.13758291
45	0xbdb0f526	-0.08640508
46	0xbc8b4e2a	-0.017005045
47	0x3cc6188e	0.02418163
48	0x3e00de67	0.1258484
49	0xb84c3ab6	-4.869207e-05
50	0x3d5df99b	0.05419312
51	0x3d0ba455	0.034092266
52	0x3d94d4e3	0.072671674
53	0x3d3cf26c	0.04612963
54	0xbab96629	-0.0014144826
55	0xbe11aa4f	-0.14225124
56	0x3d3bfa9f	0.045893308
57	0xbe11c93e	-0.14236924
58	0x3db3efa2	0.08785941
59	0x3d9a7dc3	0.075435184
60	0x3c5fe5e8	0.013665654
61	0xbdfec36d	-0.12439618
62	0x3be21b0e	0.006900198
63	0x3e15c1ed	0.14624758
64	0xbd265d86	-0.040616535
65	0x3bf7bbba	0.0075602205
66	0xbdb2f8e3	-0.087388776
67	0xbcbc33c7	-0.022973908
68	0xbe2f5b08	-0.1712457
69	0xbda6a7fe	-0.08137511
70	0x3df93be2	0.12169625
71	0x3ccefa01	0.025265696
72	0xbed0a05b	-0.40747342
73	0xba78eceb	-0.0009495753
74	0xbd8cc7c5	-0.068740405
75	0xbc175e4c	-0.009238791
76	0xbc306f72	-0.010768758
77	0x3dec6493	0.115426205
78	0xbae63c90	-0.0017565656
79	0x3d944446	0.072395846
80	0xbd233e10	-0.03985411
81	0x3ee426d7	0.44560882
82	0x3d86462d	0.06556354
83	0xba603383	-0.0008552598
84	0x3f6f87b8	0.93566465
85	0x3b0ff87b	0.0021968174
86	0xbe061e1b	-0.13097422
87	0xbe106848	-0.1410228
88	0x3c889124	0.016670771
89	0xba862317	-0.0010233846
90	0xbf8e4f54	-1.1117959
91	0x3c6d8ba3	0.014498624
92	0xbd196689	-0.0374513
93	0xbb6563c2	-0.0035002087
94	0x3d873c13	0.06603255
95	0x3e0cd445	0.1375285
96	0x3ca43188	0.02004315
97	0x3d8174fe	0.063211426
98	0xbbd6624f	-0.006542481
99	0x3cd35def	0.025801627
100	0xbccd736c	-0.025079452
101	0xbd368585	-0.044560928
102	0xbc9e8215	-0.019349137
103	0x3c613353	0.013745147
104	0xbe5664bd	-0.20936866
105	0xbdd10c97	-0.102074794
106	0xbce44452	-0.027864609
107	0xbb444400	-0.0029947758
108	0x3de1e50a	0.11030014
109	0x3a48627d	0.00076440704
110	0x3bd19239	0.006395605
111	0x3bfed866	0.0077772615
112	0x3bd90a94	0.0066235755
113	0x3dc34f6f	0.09536635
114	0x3e0ca13f	0.13733386
115	0xbd6ade17	-0.057340708
116	0xbc5f5a7a	-0.013632411
117	0xbc6f59b2	-0.014608787
118	0x3e69593b	0.22787945
119	0xbc8b367a	-0.01699375
120	0xbc8cac60	-0.017172039
121	0xbc65b4de	-0.014020173
122	0xbcb4d64f	-0.022074847
123	0x3fdbd332	1.7173827
124	0x3c771e1a	0.01508286
125	0xbc9f7f4f	-0.019469885
126	0x3e66f068	0.22552645
127	0x3dfbdfb7	0.122985296
128	0x3cd33f9a	0.025787164
129	0x3d91a9fb	0.07112499
130	0xbedd24c3	-0.4319211
131	0xbc85cf09	-0.016334074
132	0xbcfa2936	-0.030537229
133	0x3cd5f7cf	0.02611914
134	0x3f50c8ec	0.8155658
135	0xbdbb52b2	-0.09146632
136	0x3cb5e927	0.022205902
137	0xbd9a473a	-0.07533117
138	0x3edd6509	0.43241146
139	0xbcf5b056	-0.02999131
140	0xbb566ff4	-0.0032720538
141	0xbc9241d5	-0.017853657
142	0x3d1ba3c2	0.03799797
143	0x3c273e1e	0.010207681
144	0xbde8a953	-0.11360421
145	0x3cbff050	0.02343002
146	0xbae273b6	-0.0017276916
147	0xbd6d6f4a	-0.05796746
148	0x3bfe9c60	0.007770106
149	0x3ca6c806	0.02035905
150	0xbc944d4c	-0.018103264
151	0x3e38a7ed	0.18032809
152	0x3e040480	0.12892342
153	0xbda52f12	-0.080656186
154	0x3d8431ca	0.06454809
155	0x3d0298e4	0.03188409
156	0xbd8401c5	-0.0644565
157	0xbe1a85bf	-0.15090083
158	0xbd6d639b	-0.05795632
159	0xbe1229f3	-0.14273815
160	0xbca7d0a8	-0.020485237
161	0xbc0c91b6	-0.008579662
162	0x3ccb85bf	0.024844049
163	0xbca873f9	-0.020563113
164	0xbc843961	-0.016140642
165	0xbee73215	-0.45155397
166	0xbf300462	-0.6875669
167	0xbb9bb71c	-0.004752053
168	0xbcf2d141	-0.029640796
169	0x3d89a8ce	0.0672165
170	0x3db29664	0.08720091
171	0x3df8f274	0.12155619
172	0x3ce50891	0.027958186
173	0xbe531e8b	-0.2061712
174	0xbc12524e	-0.008930756
175	0x3df0e329	0.11762077
176	0x3cc09507	0.023508562
177	0x3dc4f147	0.096163325
178	0xbf3b3ca4	-0.73139405
179	0x3d17d0cf	0.03706437
180	0x3c20f145	0.009823148
181	0x3ce3cadc	0.027806692
182	0x3bd09e3f	0.0063665207
183	0x3cbefc99	0.023313807
184	0xbcf66395	-0.030076781
185	0xbc4ac084	-0.012375001
186	0x3f5e8738	0.8692508
187	0xbdb9022d	-0.09033618
188	0x3b99a738	0.0046891235
189	0xbcddae9b	-0.027060797
190	0x3cc2be42	0.023772363
191	0xbefd4f7a	-0.49474698
192	0x3e42b541	0.19014455
193	0xbc121957	-0.008917174
194	0x3d92621f	0.07147621
195	0x3e8da07d	0.27661505
196	0x3cc150ed	0.023598159
197	0x3e457d35	0.19286044
198	0x3d65e32c	0.05612485
199	0x3c2838eb	0.010267477
200	0x3df3200c	0.11871347
201	0x3f62135e	0.883108
202	0xbf3f9701	-0.7483979
203	0xbf13bd38	-0.577106
204	0xbb7e3c22	-0.0038793166
205	0xbd1280ab	-0.03576724
206	0xbe9d9cb8	-0.3078363
207	0x3efc4967	0.49274752
208	0x3db0a39f	0.08624958
209	0xbe713406	-0.23555002
210	0x3d218c0f	0.03944021
211	0xbb46a55d	-0.0030310967
212	0x3d3db440	0.046314478
213	0x3c775f42	0.015098395
214	0x3daf5390	0.0856086
215	0xbc9694da	-0.018381525
216	0x3d83acb5	0.064294256
217	0xbcb4e820	-0.022083342
218	0xbf878a0e	-1.0589006
219	0xbe4b0fe9	-0.19830288
220	0x3da68159	0.0813014
221	0xbedb7e41	-0.42869762
222	0x3dafc6d1	0.08582843
223	0xba5893f2	-0.00082617917
224	0x3d13bf3d	0.03607105
225	0xb868292a	-5.5351447e-05
226	0x3b32a453	0.002725859
227	0xbd1fc0dd	-0.039002288
228	0x3c32d235	0.010914375
229	0xbd475f4b	-0.048674863
230	0xbb94d60f	-0.0045421193
231	0xbd830882	-0.06398107
232	0xbd5b73a0	-0.053577065
233	0xbc5d5d43	-0.013511005
234	0xbdc10a4c	-0.09425792
235	0x3e01c47e	0.12672612
236	0xbc517ab0	-0.012785599
237	0x3ce96c49	0.028494017
238	0x3d0a542e	0.033771686
239	0xbf63ef93	-0.89037436
240	0x3dc63ad8	0.09679192
241	0x3db70a2f	0.08937489
242	0xbda47842	-0.0803075
243	0x3cc04309	0.023469465
244	0x3ef49299	0.47768095
245	0xbd1bd881	-0.03804827
246	0x3e19cd37	0.1501969
247	0xbbbc81d2	-0.0057527805
248	0xbd4ba42b	-0.04971711
249	0xbd179fcd	-0.037017632
250	0xbb946beb	-0.0045294664
251	0x3d465127	0.048417237
252	0x3d9889d6	0.07448165
253	0xbdd70a0b	-0.104999624
254	0xbc84a92f	-0.016193954
255	0xbd871b15	-0.06596962

action_out.bias f4 [4]
0	0xbb7d18d7	-0.0038619542
1	0x3b581380	0.0032970607
2	0x3b53103f	0.0032205728
3	0xbb2cd41e	-0.002637155
