mujoco_project/saved_models/FetchPush-v1/model.pt (torch_old, 562104 bytes, 8 tensors)

fc1.weight f4 [256, 28]
-0.22127582 -0.14210378 0.06849269 -0.024430811 -0.05255184 0.3849736 0.0060162377 0.059161182
-0.24288648 -0.18513958 0.5566116 0.17794926 -0.02253635 0.10036123 0.16179511 -0.006011926
0.083879836 -0.091443345 0.022963347 0.04563715 0.2034941 -0.022940751 0.091754094 -0.0996608
0.024646636 0.25937712 0.12827614 0.07559792 0.072699904 -0.06948094 0.8167653 -0.055717543
0.08878114 -0.78491807 -0.008964074 -0.16127147 -1.0915018 0.15602179 -0.5465077 -0.010436775
-0.024122566 -0.031205367 0.029571665 0.039311472 -0.047795985 -0.041574854 -0.003868485 -0.01131439
0.004029421 0.045358393 -0.035417438 0.12070074 0.07886481 -0.06839477 -0.011553024 -0.34940782
-0.13991562 0.03239809 0.06492243 -0.1829076 -0.06619859 0.008691835 -0.32083324 -0.122260384
-0.079608396 0.50506765 -0.613742 -0.008904425 -0.14262131 0.12369586 0.05345407 0.07068387
-0.096066825 -0.004358401 -0.09076904 -0.02911846 0.02567683 0.029281506 -0.024889631 0.0670951
0.007099523 0.3701763 -0.1310241 -0.07230544 0.030525222 -0.13062324 -0.27492797 0.24716578
-0.11936499 0.17517376 -0.11962011 0.1482914 0.27298272 0.26106608 -0.35573387 -0.07006073
0.0635901 0.0013446436 0.11306238 0.03599549 0.26380342 -0.02375874 -0.052663956 -0.005466231
0.11024849 -0.003695756 0.18451327 0.13808721 0.20192178 0.06768685 0.282483 -0.2682091
-0.17974494 -0.060434286 -0.039904125 0.15274501 -0.45358253 0.22550222 0.5011566 -0.0774694
-0.0066961446 0.2721638 0.013538141 -0.0682833 0.046410896 -0.033244967 0.20087723 -0.054966357
0.14942084 -0.042739186 -0.01754375 -0.01202328 0.20246609 -0.13500386 0.10425613 0.1793496
-0.024452183 0.22067451 0.44433686 -0.14612357 -0.22651546 -0.029868208 0.030017113 0.1238756
-0.08011286 -0.004440121 0.11206081 -0.15915236 -0.05726557 -0.30571097 0.2571776 0.037797198
-0.06769975 -0.052576926 0.19594991 0.12647389 -0.24509291 0.044677082 -0.08371796 -0.023479117
0.23101011 0.07283929 -0.26869524 -0.06776976 0.14049277 0.39727184 -0.08650101 -0.29911283
0.05605483 0.20283341 0.039184228 -0.09707559 0.24167944 0.21139763 -0.047561742 0.1684632
-0.17135796 -0.23595229 0.3806029 -0.06314337 -0.088032834 -0.19311386 0.107409686 -0.293405
-0.1782185 0.015408747 -0.15200472 0.058755632 0.03958403 -0.24356227 -0.14737633 0.09656993
0.024577577 0.014864018 -0.31664816 0.22745183 -0.21018681 -0.43422613 0.38934085 0.31465214
0.1300259 0.17549315 0.90619266 0.4645176 -0.33093223 -0.41057813 0.5956602 -0.017306386
0.034997743 -0.03955447 0.031439252 0.004963483 -0.02578133 -0.07989152 0.012621518 -0.027855113
0.022405589 -0.025392633 -0.007695509 0.17233394 0.01861141 -0.15354301 0.30326614 -0.29096267
-0.3762023 -0.14075334 -0.11662736 -0.8090991 -0.10031597 0.027122285 -0.2761435 -0.21805704
-0.12907347 0.30402187 0.008714117 0.0068319435 0.037902582 0.03169199 -0.15009563 -0.0073860697
-0.02552143 -0.032676782 0.040815495 -0.02414512 -0.14297415 0.0076173437 -0.008639819 0.03510597
0.008642976 1.1829729 0.26459664 0.099865064 0.23275149 -0.333688 -0.15433376 0.2518374
00000000: 2196 62be a783 11be e545 8c3d 2023 c8bc
00000010: 9940 57bd 421b c53e dc23 c53b ff52 723d
00000020: 3cb7 78be 3b95 3dbe 197e 0e3f 5538 363e
00000030: 279e b8bc 308a cd3d 9ead 253e b1ff c4bb
00000040: 31c9 ab3d a646 bbbd a11d bc3c 05ee 3a3d
00000050: c260 503e 3eee bbbc 92e9 bb3d f61a ccbd
00000060: bee7 c93c 14cd 843e d25a 033e 15d3 9a3d
00000070: b0e3 943d 064c 8ebd 8817 513f 1438 64bd
00000080: e3d2 b53d 64f0 48bf 0dde 12bc 5924 25be
00000090: 55b6 8bbf 2dc4 1f3e eee7 0bbf 02ff 2abc
000000a0: b09c c5bc 66a2 ffbc 4740 f23c 1105 213d
000000b0: b9c5 43bd 654a 2abd 6986 7dbb fe5f 39bc
000000c0: 3c09 843b b9c9 393d e011 11bd f331 f73d
000000d0: e083 a13d 8f12 8cbd e548 3dbc 95e5 b2be
000000e0: 0a46 0fbe dcb3 043d 0df6 843d 214c 3bbe
000000f0: 2093 87bd 3368 0e3c 4144 a4be a763 fabd
00000100: ba09 a3bd 1d4c 013f 321e 1dbf dee3 11bc
00000110: 520b 12be 4154 fd3d a8f2 5a3d b4c2 903d
00000120: afbe c4bd ebd0 8ebb 1ee5 b9bd d689 eebc
00000130: 3758 d23c c5df ef3c 57e5 cbbc 2869 893d
00000140: 1ea3 e83b bf87 bd3e 2f2b 06be e014 94bd
00000150: 0810 fa3c 19c2 05be 5cc3 8cbe 0719 7d3e
00000160: a275 f4bd c060 333e 63fb f4bd b3d9 173e
00000170: 64c4 8b3e 74aa 853e c022 b6be 007c 8fbd
00000180: 873b 823d c13e b03a 408d e73d 0270 133d
00000190: 3e11 873e b0a1 c2bc 29b6 57bd 121e b3bb
000001a0: f6c9 e13d 7f34 72bb 0cf1 3c3e bc66 0d3e
000001b0: 95c4 4e3e 679f 8a3d 9da1 903e b452 89be
000001c0: 0f0f 38be f189 77bd 8272 23bd 3069 1c3e
000001d0: f83b e8be 0eea 663e cd4b 003f 47a8 9ebd
000001e0: 556b dbbb 0e59 8b3e 14cf 5d3c 1dd8 8bbd
000001f0: 5a19 3e3d e02b 08bd c3b2 4d3e 6724 61bd
00000200: c701 193e 490f 2fbd e9b7 8fbc 4bfd 44bc
00000210: 4553 4f3e 743e 0abe 3d84 d53d 6ca7 373e
00000220: f24f c8bc 80f8 613e 1f80 e33e 6ba1 15be
00000230: abf3 67be 2cae f4bc 73e6 f53c 7eb2 fd3d
00000240: 3612 a4bd 6f7e 91bb 2380 e53d d6f8 22be
00000250: 4d8f 6abd 2686 9cbe c8ac 833e 3cd1 1a3d
00000260: 2ba6 8abd e75a 57bd 18a7 483e 5f82 013e
00000270: a3f9 7abe 51ff 363d 5274 abbd 4757 c0bc
00000280: ea8d 6c3e c42c 953d 6c92 89be dfca 8abd
00000290: 56dd 0f3e 3767 cb3e 7127 b1bd 5125 99be
000002a0: c099 653d 90b3 4f3e a47f 203d 91cf c6bd
000002b0: d17a 773e 9f78 583e 1ad0 42bd 9e81 2c3e
000002c0: 7678 2fbe 7a9d 71be 62de c23e 5051 81bd
000002d0: 8f4a b4bd a4bf 45be 9cf9 db3d 2e39 96be
000002e0: e97e 36be f874 7c3c 20a7 1bbe bfa9 703d
000002f0: dd22 223d 6368 79be d2e9 16be 75c6 c53d
00000300: ea56 c93c 3688 733c b51f a2be 22e9 683e
00000310: 363b 57be e352 debe af57 c73e 161a a13e
00000320: 8225 053e 7ab4 333e 3efc 673f 40d5 ed3e
00000330: f36f a9be 4c37 d2be 307d 183f 1fc6 8dbc
00000340: cb59 0f3d de03 22bd 72c6 003d b7a4 a23b
00000350: 5e33 d3bc 2a9e a3bd 7cca 4e3c 6830 e4bc
00000360: ed8b b73c 3604 d0bc 9c2a fcbb 4f78 303e
00000370: f576 983c 613a 1dbe b345 9b3e 0ff9 94be
00000380: 969d c0be a521 10be 53da eebd 1e21 4fbf
00000390: 7672 cdbd 8e2f de3c ae62 8dbe 584a 5fbe
000003a0: d62b 04be c1a8 9b3e a8c5 0e3c 7fde df3b
000003b0: bd3f 1b3d 76cf 013d abb2 19be d806 f2bb
000003c0: 5112 d1bc 17d8 05bd 262e 273d fdcb c5bc
000003d0: d167 12be e99a f93b 078e 0dbc 47cb 0f3d
000003e0: 459b 0d3c a86b 973f 3679 873e 0e86 cc3d
000003f0: 6856 6e3e 27d9 aabe ab09 1ebe d5f0 803e

fc1.bias f4 [256]
-0.8046012 0.20431657 -0.88193583 -0.69784176 -0.8774277 -0.510638 -0.80577934 -0.05364785
-0.18110895 -0.754145 -0.20436776 -0.22193219 -0.67543983 -0.48095685 -1.1098294 -0.8431897
-0.32726783 -0.7394758 -0.4197281 -0.2909042 -0.24472916 -0.56412333 -0.5887015 -0.43721893
-0.8890916 0.5671328 -0.8867244 -0.69563794 -0.89891964 -0.8044935 -0.34837607 0.42750898
-0.6932024 -0.481977 -0.1248207 -0.20398703 -0.59318304 -0.49398437 -0.21521443 -0.64438844
-0.9418829 -0.5050143 -0.6839673 -0.36387834 -0.48054302 -0.6483554 0.46224055 -0.11583673
-0.69512 -0.71575403 -0.94286525 -0.75235766 -0.8634314 -0.29455817 -0.7397422 -0.07006384
-0.54520863 -0.75168353 -0.6517875 -0.40845072 -0.30749288 -0.062036518 -0.41718557 -0.53676295
0.2758221 -0.87291455 -0.6777413 -0.3966976 -0.33250886 -0.98963743 -0.58270526 -0.23709603
-0.49892932 0.43898404 0.5755449 -0.51351863 -0.18108703 -0.7357266 -0.68880737 -0.6582096
-0.5347347 -0.6923132 -0.5844427 -0.46037644 -0.5376931 -0.20500004 -0.6690188 -0.8725549
-0.0850398 -0.7648194 0.3797287 -0.26758853 -0.83934915 -0.618331 -0.7130777 -0.55140066
-0.088965006 -0.5121357 -0.6791444 0.22010462 -0.89782137 0.560454 -0.52804804 -0.32348788
-0.51998687 -0.9631884 0.06390864 -0.60810816 -0.8253987 -0.1540196 -0.9508405 -0.5669793
0.3108326 -0.7978247 -1.0892963 -0.14726055 -0.23562126 -0.64725024 0.35176712 -0.4109605
-0.73604095 -0.27773708 -0.8299883 -1.0525904 -0.77205485 -0.18977234 -0.08727824 -0.55036885
-0.90133244 -0.48091343 -0.39608455 -0.8478827 -0.52634215 0.619041 -0.18533495 -0.8698189
-0.4968394 -0.46670908 -0.123752914 0.2261765 -0.7871047 -0.62015694 -0.57576233 -0.92836213
-0.16235144 -0.110910095 -0.39458337 -0.4948981 0.48428777 -0.26296675 -0.6179396 -0.47588593
-0.52157754 0.3412585 0.03399489 -0.17308919 -0.91564995 -0.4435557 -0.521073 -0.22148675
-0.4513073 -0.2457696 -0.74679244 -0.38081196 -0.813766 -0.53574014 -0.8753136 -0.60761744
-0.74425554 -0.6990122 -0.1793823 -0.033400927 -0.3676295 -0.5891055 -0.202062 -0.7198226
-0.18675923 -0.8547961 -0.2761777 -0.47702426 -0.8536658 -0.43583056 -0.6223659 -0.36121908
-0.18440649 -0.14914702 -0.51340634 -0.60459036 -0.6843063 -0.43431517 -0.7552308 -0.7663535
-0.71684676 -0.5631157 -0.8888148 -0.7155753 -0.66063267 -0.33386675 -0.5708936 -0.8365371
-0.29905686 -0.22647735 -0.53005874 0.059554335 -0.7309321 -0.13312882 -0.48549035 -0.48346254
-0.5573158 -0.53911287 -1.077141 0.30728254 -0.79186004 -0.8657567 -0.43691593 -0.6382368
-0.6649979 -0.6776922 0.256052 -0.82616556 -0.5833917 -0.8506669 -0.66996515 0.42519742
0.10507127 0.09207073 -0.7439084 -0.17841901 0.05174507 -0.44475338 -0.59760225 -0.20048435
-0.5570722 -0.32327685 -0.39262307 -0.40558115 -0.585033 -0.11244368 -0.8090271 -0.27248457
-0.75905377 0.18194737 -0.59410053 -0.10992968 -0.89872366 -0.6000975 -0.85569596 0.6093099
-0.31800404 -0.45944533 -0.72586596 -0.8267584 0.12659875 -0.35302433 -0.63355637 0.27235398
00000000: 58fa 4dbf 5d38 513e 8cc6 61bf c2a5 32bf
00000010: 1a9f 60bf 2cb9 02bf 8e47 4ebf d9bd 5bbd
00000020: a074 39be a60f 41bf c845 51be 3142 63be
00000030: a0e9 2cbf fa3f f6be e40e 8ebf 48db 57bf
00000040: a68f a7be 494e 3dbf 9ae6 d6be 65f1 94be
00000050: 489a 7abe 636a 10bf 24b5 16bf 29db dfbe
00000060: 829b 63bf 9d2f 113f 5f00 63bf 5415 32bf
00000070: 991f 66bf 49f3 4dbf 595e b2be 75e2 da3e
00000080: b675 31bf b0c5 f6be ffa1 ffbd fae1 50be
00000090: d8da 17bf 85eb fcbe 2c61 5cbe a4f6 24bf
000000a0: 3d1f 71bf 9e48 01bf 7b18 2fbf 434e babe
000000b0: bc09 f6be 9ffa 25bf cbaa ec3e cf3b edbd
000000c0: 62f3 31bf a83b 37bf 9e5f 71bf 839a 40bf
000000d0: d709 5dbf 54d0 96be bf5f 3dbf a17d 8fbd
000000e0: cb92 0bbf 556e 40bf 8cdb 26bf 7420 d1be
000000f0: b56f 9dbe 011a 7ebd 5999 d5be 4c69 09bf
00000100: 8e38 8d3e 5477 5fbf 7480 2dbf f31b cbbe
00000110: 9a3e aabe e158 7dbf 2c2c 15bf 4dc9 72be
00000120: aa73 ffbe 84c2 e03e e956 133f f575 03bf
00000130: e16e 39be 9458 3cbf ae55 30bf 6d80 28bf
00000140: 60e4 08bf 703b 31bf 099e 15bf 76b6 ebbe
00000150: 41a6 09bf 88eb 51be d144 2bbf c25f 5fbf
00000160: 5929 aebd 34cb 43bf cd6b c23e 5d01 89be
00000170: 96df 56bf f14a 1ebf 438c 36bf 9828 0dbf
00000180: 4933 b6bd 531b 03bf 68dc 2dbf 1b63 613e
00000190: 9fd7 65bf ea79 0f3f 282e 07bf 34a0 a5be
000001a0: dc1d 05bf 8493 76bf 88e2 823d faac 1bbf
000001b0: 544d 53bf 50b7 1dbe 486a 73bf 8e25 11bf
000001c0: 7325 9f3e 3d3e 4cbf 106e 8bbf 78cb 16be
000001d0: b346 71be 31b2 25bf d21a b43e 6a69 d2be
000001e0: 2e6d 3cbf 8e33 8ebe 1d7a 54bf 48bb 86bf
000001f0: 63a5 45bf ae53 42be efbe b2bd f9e4 0cbf
00000200: b9bd 66bf 493a f6be 98cb cabe d70e 59bf
00000210: 5cbe 06bf 7979 1e3f 72c8 3dbe 74ac 5ebf
00000220: bc61 febe 7ef4 eebe 2b72 fdbd d09a 673e
00000230: b27f 49bf 9bc2 1ebf 2965 13bf 24a9 6dbf
00000240: 753f 26be d524 e3bd d506 cabe 4963 fdbe
00000250: 91f4 f73e 94a3 86be 4a31 1ebf 52a7 f3be
00000260: 1b86 05bf 6fb9 ae3e 3a3e 0b3d 4b3e 31be
00000270: 0968 6abf bc19 e3be 0a65 05bf 6ccd 62be
00000280: c011 e7be 07ab 7bbe ca2d 3fbf c9f9 c2be
00000290: f852 50bf 4426 09bf 8d14 60bf d18c 1bbf
000002a0: 8887 3ebf 77f2 32bf feaf 37be 69cf 08bd
000002b0: ef39 bcbe 9ecf 16bf 57e9 4ebe 4b46 38bf
000002c0: d03d 3fbe ebd3 5abf 2a67 8dbe 863c f4be
000002d0: d889 5abf 2f25 dfbe 5f53 1fbf b5f1 b8be
000002e0: 0ed5 3cbe ffb9 18be 996e 03bf 6fc6 1abf
000002f0: b32e 2fbf 8f5e debe ce56 41bf be2f 44bf
00000300: 4583 37bf 5a28 10bf 5e89 63bf f12f 37bf
00000310: 391f 29bf 95f0 aabe 1526 12bf 4c27 56bf
00000320: fb1d 99be aee9 67be eeb1 07bf 3fef 733d
00000330: 5e1e 3bbf ec52 08be 3192 f8be 6788 f7be
00000340: 40ac 0ebf 4d03 0abf c2df 89bf 2354 9d3e
00000350: 57b7 4abf 3ba2 5dbf 72b3 dfbe 7d63 23bf
00000360: 4d3d 2abf 3c7d 2dbf 3f19 833e 967f 53bf
00000370: 2959 15bf 4ec5 59bf d682 2bbf 7ab3 d93e
00000380: 9b2f d73d 948f bc3d c870 3ebf 79b3 36be
00000390: a3f2 533d b7b6 e3be 76fc 18bf c54b 4dbe
000003a0: 499c 0ebf 8b84 a5be e405 c9be 55a8 cfbe
000003b0: b9c4 15bf df48 e6bd 661c 4fbf 1983 8bbe
000003c0: 5951 42bf 6950 3a3e f916 18bf d022 e1bd
000003d0: c112 66bf fd9f 19bf e40e 5bbf bcfb 1b3f
000003e0: 6dd1 a2be 6b3c ebbe 5ad2 39bf 70a6 53bf
000003f0: 1aa3 013e 9bbf b4be c030 22bf fb71 8b3e

fc2.weight f4 [256, 256]
-0.31888142 0.25579727 -0.25566998 -0.3369486 0.02987447 -0.055710588 0.3341234 0.25976145
-0.38702953 -0.107214585 0.44472924 -0.0477261 0.11175223 0.1610187 -0.3372867 0.34685993
0.21222201 -0.15224975 0.058731247 -0.031994157 -0.30439427 0.063974954 -0.33852452 -0.01683446
0.059874013 -0.08341355 0.31599095 0.21831986 0.21321276 -0.08630996 -0.28274712 0.092633605
-0.49084827 0.18842071 0.118991815 -0.024911584 -0.10301977 -0.4246004 -0.20910864 -0.32615507
-0.046264037 -0.4149672 -0.3340562 -0.098958634 0.19642435 -0.19084585 0.11753227 0.22432153
0.11808937 -0.139984 -0.14967781 -0.09588075 0.0009136019 -0.23385188 0.021538377 0.039983947
-0.003381343 -0.03326457 -0.07986453 -0.16710912 0.03386212 -0.017066116 0.019747537 0.19620585
0.1196577 -0.38316208 0.14669926 -0.30575782 -0.050315585 0.04723059 0.46412385 -0.15427923
-0.13462897 -0.03824232 0.10534995 -0.22524078 -0.37169948 0.37003762 0.04758478 0.06117677
-0.082353055 -0.15257096 -0.24831359 0.1423394 -0.32465732 0.26019016 0.15673344 -0.102730274
-0.27772573 -0.23730068 0.0055144476 0.1636863 -0.030283824 -0.19865309 0.15881822 -0.37483907
-0.88517576 0.08053165 0.18904275 0.072138764 0.18717855 -0.2031849 -0.45701805 -0.13345002
0.2727436 0.09114325 -0.49623168 -0.38690355 0.34096995 -0.85545844 0.1468355 0.22131765
-0.18422185 -0.00045261084 0.089243874 -0.04178738 -0.027078975 -0.27885956 -0.1002934 -0.30060962
0.023571992 -0.07414142 0.17275503 -0.038221706 0.29262656 -0.67749965 -0.043075185 0.11077847
-0.75684726 0.08373628 -0.35466447 -0.18326052 -0.05965354 -0.28013945 -0.025773108 -0.18137628
0.10697023 0.32335505 0.054141458 0.24910821 -0.10916963 0.3473914 0.17302498 0.1746175
-0.37117034 0.002689351 0.06543423 -0.1990584 0.013622601 -0.13844103 -0.058418956 0.08170779
-0.06037376 0.14046176 -0.199155 0.34168842 0.20783252 -0.046778396 0.2710226 -0.48959988
-0.02960337 0.09931248 0.5010095 -0.18413009 0.34492216 -0.23185265 0.43240088 0.3006238
0.14846927 0.101289816 -0.2082116 0.1096505 0.2223465 -0.32596675 0.11010223 0.44103682
-0.05718496 0.031144645 -0.9652606 0.029002065 0.021343963 0.07786867 -0.45027927 0.15581122
-0.55435807 -0.0068698097 -0.52713025 -0.019855987 -0.082114644 0.14938775 -0.14741303 -0.13070235
-0.4090808 0.07174222 0.21523069 0.3700152 0.13318045 0.22441244 -0.0067948876 0.015037614
-0.14399555 -0.3673729 0.16430272 0.1543681 0.19834492 -0.16103984 -0.09024727 0.1782121
0.04291164 0.0063947244 -0.3901707 0.069476195 -0.52618843 -0.075956695 0.18207319 0.010938896
-0.32505172 0.2903327 -0.18526946 -0.09781729 -0.07895424 -0.31799543 -0.167359 -0.29173934
-0.04993043 -0.022280574 0.14719595 0.18036753 -0.19923402 0.24904788 0.01655398 0.31907016
-0.18468627 -0.67171234 0.022237957 -0.20345162 0.06547102 0.15195876 -0.40129268 -0.38670155
-0.303128 -0.32663342 -0.117150836 0.2896566 -0.33125553 -0.039271574 -0.7859218 -0.34406364
0.054344073 -0.5785286 -0.08895442 0.3034352 -0.520736 -0.1468745 0.14595525 -0.34238797
00000000: 6d44 a3be dcf7 823e 2de7 82be 8784 acbe
00000010: 4ebb f43c c930 64bd 3912 ab3e 74ff 843e
00000020: bc28 c6be 5293 dbbd 8db3 e33e 717c 43bd
00000030: 5ade e43d 16e2 243e d8b0 acbe a097 b13e
00000040: ba50 593e 5ce7 1bbe 2d90 703d 4e0c 03bd
00000050: 91d9 9bbe 4d05 833d 1653 adbe 6ce8 89bc
00000060: 743e 753d b9d4 aabd 91c9 a13e 3e8f 5f3e
00000070: 7254 5a3e 47c3 b0bd 3bc4 90be b0b6 bd3d
00000080: 7750 fbbe 5cf1 403e fbb1 f33d 6113 ccbc
00000090: 07fc d2bd 3965 d9be 9320 56be ccfd a6be
000000a0: 5c7f 3dbd 9576 d4be 6a09 abbe d3aa cabd
000000b0: 7723 493e 186d 43be c2b4 f03d 8bb4 653e
000000c0: d7d8 f13d f757 0fbe 2445 19be 205d c4bd
000000d0: c97e 6f3a de76 6fbe 4071 b03c 35c6 233d
000000e0: 8699 5dbb 6e40 08bd 0490 a3bd a71e 2bbe
000000f0: 02b3 0a3d 3dce 8bbc 96c5 a13c 30ea 483e
00000100: 190f f53d d22d c4be 5538 163e 4a8c 9cbe
00000110: b717 4ebd dd74 413d a4a1 ed3e 60fb 1dbe
00000120: 2ddc 09be fba3 1cbd b7c1 d73d 85a5 66be
00000130: 654f bebe 9275 bd3e 42e8 423d 7e94 7a3d
00000140: b8a8 a8bd 903b 1cbe eb45 7ebe 6bc1 113e
00000150: 7c39 a6be a537 853e bb7e 203e 4064 d2bd
00000160: 1132 8ebe f3fe 72be 8ab2 b43b 629d 273e
00000170: c815 f8bc b76b 4bbe 3ea1 223e e8ea bfbe
00000180: e19a 62bf c7ed a43d 6c94 413e 7dbd 933d
00000190: bcab 3f3e b40f 50be 45fe e9be 1fa7 08be
000001a0: 0da5 8b3e 50a9 ba3d 1412 febe 3918 c6be
000001b0: 9d93 ae3e 53ff 5abf 0c5c 163e 18a1 623e
000001c0: a7a4 3cbe 664c edb9 7ec5 b63d 3e29 2bbd
000001d0: bad4 ddbc aec6 8ebe a066 cdbd 81e9 99be
000001e0: 0d1a c13c 75d7 97bd b2e6 303e 5d8e 1cbd
000001f0: 26d3 953e 9e70 2dbf 9b6f 30bd d3df e23d
00000200: bec0 41bf ed7d ab3d 9596 b5be a5a8 3bbe
00000210: 4557 74bd 706e 8fbe 2022 d3bc b4ba 39be
00000220: 3513 db3d cb8e a53e 6fc3 5d3d 3916 7f3e
00000230: 5494 dfbd 49dd b13e 762d 313e eece 323e
00000240: 0a0a bebe d33f 303b 6202 863d f7d5 4bbe
00000250: 5431 5f3c 7cc3 0dbe b748 6fbd 6a56 a73d
00000260: 7a4a 77bd 35d5 0f3e 4aef 4bbe c9f1 ae3e
00000270: 0cd2 543e b49a 3fbd 79c3 8a3e d6ac fabe
00000280: c482 f2bc 5764 cb3d 2942 003f 998c 3cbe
00000290: a399 b03e c86a 6dbe a663 dd3e 5deb 993e
000002a0: 5408 183e 0971 cf3d 6c35 55be 7190 e03d
000002b0: cdae 633e 1de5 a6be 477d e13d 94cf e13e
000002c0: c73a 6abd 0e23 ff3c 521b 77bf bd95 ed3c
000002d0: 89d9 ae3c 9c79 9f3d 018b e6be fa8c 1f3e
000002e0: 69ea 0dbf 241c e1bb 02f2 06bf 06a9 a2bc
000002f0: b92b a8bd 1af9 183e 71f3 16be d6d6 05be
00000300: 0a73 d1be 96ed 923d 6f65 5c3e a272 bd3e
00000310: 7560 083e 60cc 653e a6a7 debb 5360 763c
00000320: 9273 13be 4d18 bcbe f93e 283e ac12 1e3e
00000330: ee1a 4b3e a1e7 24be 90d3 b8bd 3c7d 363e
00000340: 1ec4 2f3d d68a d13b 74c4 c7be 8949 8e3d
00000350: 49b4 06bf 2f8f 9bbd 6571 3a3e 0e39 333c
00000360: 2e6d a6be 7da6 943e 47b7 3dbe 6e54 c8bd
00000370: c3b2 a1bd 4cd0 a2be 2860 2bbe dc5e 95be
00000380: da83 4cbd c085 b6bc 89ba 163e 44b2 383e
00000390: 0104 4cbe 6806 7f3e 369c 873c 2a5d a33e
000003a0: 661e 3dbe 57f5 2bbf 602c b63c 9f55 50be
000003b0: ac15 863d 149b 1b3e 3c76 cdbe bffd c5be
000003c0: 9833 9bbe 7f3c a7be c7ec efbd df4d 943e
000003d0: 539a a9be 3bdb 20bd 2c32 49bf 1c29 b0be
000003e0: e497 5e3d 731a 14bf bc2d b6bd dc5b 9b3e
000003f0: f44e 05bf 4566 16be 4b75 153e 7a4d afbe

fc2.bias f4 [256]
-0.17952725 0.44037524 0.40629843 -0.24808341 -0.0133789675 -0.4717803 0.22504914 0.06112449
0.30197206 0.1365356 0.35712284 0.39529637 -0.0043156017 -0.10648716 -0.090939045 0.5590644
0.071712516 0.2122259 -0.037177145 0.15169127 0.028726248 0.4582214 -0.052681405 0.66546637
0.1032788 -0.08044373 -0.09429729 -0.084662706 0.15881816 -0.22077912 -0.08636433 0.06930666
0.13243344 0.14266375 0.09592555 -0.046243425 0.1104556 0.016816396 0.13004164 -0.009155594
0.03397935 -0.014713877 0.038108803 0.1847738 -0.50794536 -0.109292686 -0.0067718476 0.48267072
-0.07877254 -0.17742957 -0.092048794 -0.5684518 0.20768511 0.12041042 -0.080992855 -0.3968276
-0.045892183 0.003933562 -0.027477978 0.0736925 0.09400286 0.45390743 0.33401948 -0.051605534
-1.0747646 -0.17222226 -0.05584684 0.20840065 0.0036586674 0.3096491 -0.027445931 -0.09771291
-0.15762356 -0.056222294 0.00346418 0.20469186 0.0008540822 0.25183332 0.4577552 -0.7828173
0.09112583 -0.16515169 0.56978565 -0.018882332 0.22111368 0.010264839 -1.1644703 0.023491018
0.174687 0.45285115 -0.05623031 0.24967912 0.08636804 0.5365512 0.3181256 0.41997594
0.0030815625 0.10215099 0.29710144 0.19102131 -1.1534443 0.33912572 0.15715139 0.11445077
0.63816243 -1.2565507 0.18339275 0.1430698 0.27269492 -0.10709315 0.013364752 -0.24214701
-0.07555144 0.076633476 -0.08038051 0.24373427 -0.09746655 -0.33571452 0.28841904 0.0439034
0.26443967 0.27996048 -0.06995037 0.43455514 -0.07502408 -0.0024827546 0.35895497 -0.007418786
0.038989484 -0.4062547 0.06689606 0.14479177 -0.013628723 0.04634992 0.33405533 -0.020380355
0.057370067 0.04009175 0.43419102 -0.14122204 0.29921886 0.3449892 0.33162135 -0.32716855
0.0072983587 0.5464476 -0.30538407 0.09021051 -0.3075814 -0.15862894 -0.19983442 -0.09075683
-1.5247695 0.28152445 -0.20109273 -0.08301996 0.30818266 0.022321997 -0.054910846 -0.06951338
-0.062359855 -0.07783401 -0.09319329 0.08109356 -0.13570753 0.053184886 0.11062305 0.028268136
0.5592251 -0.04303238 -0.07558922 -0.07318681 0.25574544 0.03625592 0.015090409 -0.10260343
-0.11416275 -0.54111505 -0.08461224 -0.4961653 0.11281581 -0.2931891 0.11149417 0.040027324
0.18143195 0.40777746 0.47679517 0.123902604 -0.071742766 0.15265252 0.68911034 -0.0025088214
0.00065932545 -0.007406343 0.16110153 0.058512352 0.19142565 -0.4614337 -0.0126285255 0.21327744
0.21463494 -0.019433355 0.18346274 -0.044617984 0.16756207 -0.100822374 -0.064206064 -0.009565291
0.03738215 0.018774718 -0.07117892 -0.5656202 -0.045266207 0.1138887 0.26472396 -0.01089
0.17660332 -0.029388657 -0.08407465 0.29110947 -0.10709493 0.07130047 0.031916548 -0.10179081
0.07965006 -0.37952235 -0.12895279 0.1050063 0.06910386 -0.030405808 0.011510747 0.2270368
-0.30125073 0.06925983 0.2840832 -0.04552125 0.33286768 0.008788669 0.19572516 0.2141204
0.2358583 0.4453413 -1.0386848 -0.090187036 0.03049088 -0.0010216788 -0.6229363 0.4587863
-0.08557896 -0.01607423 0.21415147 0.13199331 0.2460207 0.2068733 0.12989148 0.102468744
00000000: fed5 37be dd78 e13e 5906 d03e 9409 7ebe
00000010: 7533 5bbc 308d f1be 4873 663e ac5d 7a3d
00000020: 159c 9a3e fdcf 0b3e ced8 b63e 4964 ca3e
00000030: e469 8dbb f115 dabd 403e babd d81e 0f3f
00000040: 03de 923d bf51 593e 1047 18bd f554 1b3e
00000050: 4f53 eb3c ff9b ea3e 75c8 57bd 015c 2a3f
00000060: d683 d33d afbf a4bd f01e c1bd a463 adbd
00000070: 3aa1 223e ec13 62be c8df b0bd a6f0 8d3d
00000080: a29c 073e 7216 123e 9d74 c43d bf69 3dbd
00000090: 8c36 e23d 8ac2 893c a329 053e 5801 16bc
000000a0: ee2d 0b3d 7912 71bc fa17 1c3d 5835 3d3e
000000b0: b508 02bf d8d4 dfbd 60e6 ddbb 9e20 f73e
000000c0: 7f53 a1bd 19b0 35be 1484 bcbd 0f86 11bf
000000d0: 68ab 543e bd99 f63d 95df a5bd fd2c cbbe
000000e0: 71f9 3bbd 1ce5 803b 7f19 e1bc 18ec 963d
000000f0: 9284 c03d 8e66 e83e 9a04 ab3e 5360 53bd
00000100: e391 89bf 085b 30be a8bf 64bd fb66 553e
00000110: 41c6 6f3b 548a 9e3e 4ad6 e0bc b51d c8bd
00000120: 1268 21be 5949 66bd 4c07 633b be9a 513e
00000130: 7ce4 5f3a 4cf0 803e e45e ea3e b766 48bf
00000140: 2ea0 ba3d 861d 29be 79dd 113f 1faf 9abc
00000150: a06b 623e db2d 283c 5d0d 95bf 3c70 c03c
00000160: 26e1 323e 1bdc e73e c151 66bd e2ab 7f3e
00000170: bae1 b03d 6b5b 093f 5ce1 a23e 1607 d73e
00000180: 0af4 493b 8a34 d13d ae1d 983e 179b 433e
00000190: 10a4 93bf e3a1 ad3e 4bec 203e 2a65 ea3d
000001a0: 9d5e 233f a7d6 a0bf 4fcb 3b3e e480 123e
000001b0: ab9e 8b3e a753 dbbd d5f7 5a3c 63f5 77be
000001c0: b7ba 9abd 03f2 9c3d 899e a4bd 7a95 793e
000001d0: 8b9c c7bd c6e2 abbe a9ab 933e 0dd4 333d
000001e0: a364 873e fb56 8f3e 2442 8fbd 037e de3e
000001f0: 3aa6 99bd b6b5 22bb f2c8 b73e 4a19 f3bb
00000200: 70b3 1f3d 9e00 d0be cd00 893d 4b44 143e
00000210: 024b 5fbc 6ad9 3d3d 4d09 ab3e b4f4 a6bc
00000220: e0fc 6a3d 3f37 243d 494e de3e 839c 10be
00000230: 3733 993e 6da2 b03e 46ca a93e a382 a7be
00000240: 1227 ef3b fde3 0b3f 4d5b 9cbe 4ac0 b83d
00000250: 4f7b 9dbe a06f 22be 65a1 4cbe b8de b9bd
00000260: a62b c3bf f923 903e 41eb 4dbe 5e06 aabd
00000270: 1eca 9d3e 9fdc b63c 32ea 60bd 085d 8ebd
00000280: 0c6d 7fbd 7067 9fbd 20dc bebd 6114 a63d
00000290: eaf6 0abe 65d8 593d 568e e23d 9492 e73c
000002a0: 6029 0f3f b942 30bd 85ce 9abd f7e2 95bd
000002b0: 11f1 823e 1681 143d c33d 773c bf21 d2bd
000002c0: 29ce e9bd 8486 0abf 2f49 adbd 6109 febe
000002d0: fa0b e73d e21c 96be 0e57 e43d b1f3 233d
000002e0: 4cc9 393e 35c8 d03e 7f1e f43e a6c0 fd3d
000002f0: dfed 92bd f150 1c3e 8969 303f 0a6b 24bb
00000300: 95d6 2c3a e8b0 f2bb cdf7 243e a6aa 6f3d
00000310: 1605 443e 0a41 ecbe e0e7 4ebc 6765 5a3e
00000320: 43c9 5b3e b332 9fbc a8dd 3b3e 59c1 36bd
00000330: 6495 2b3e f67b cebd 787e 83bd bdb7 1cbc
00000340: 061e 193d 70cd 993c 41c6 91bd 7ccc 10bf
00000350: 0f69 39bd 7b3e e93d e689 873e f86b 32bc
00000360: 80d7 343e 7bc0 f0bc 552f acbd 4d0c 953e
00000370: 9654 dbbd fb05 923d edba 023d b377 d0bd
00000380: 921f a33d c150 c2be 330c 04be 8b0d d73d
00000390: 5386 8d3d 9a15 f9bc 9297 3c3c 567c 683e
000003a0: 893d 9abe 19d8 8d3d 5a73 913e 7e74 3abd
000003b0: a26d aa3e 59fe 0f3c 2d6c 483e 6142 5b3e
000003c0: d784 713e c603 e43e a0f3 84bf fbb3 b8bd
000003d0: 03c8 f93c dae9 85ba c178 1fbf 0ae6 ea3e
000003e0: 0644 afbd 1bae 83bc 864a 5b3e 4129 073e
000003f0: daec 7b3e 98d6 533e 4602 053e 22db d13d

fc3.weight f4 [256, 256]
-0.22975475 -0.09443703 -0.187661 -0.011121513 0.049923982 -0.25102392 0.07829355 -0.39846405
0.26003757 -0.13763505 -0.053084295 -0.21925524 -0.028992653 0.023463715 -0.07634865 0.039408922
0.07212403 -0.35685351 0.019060796 0.057720624 0.10365986 0.15072861 -0.017569078 -0.25340855
-0.23608296 -0.100213185 -0.041428234 0.020513244 -0.05859912 -0.4776265 0.03989522 -0.2400997
-0.12905836 -0.4773986 0.17021127 0.079146616 0.40593314 -0.018156685 0.10551997 -0.056712
0.06956399 -0.45295614 0.0030848272 -0.29457083 -0.092669055 -0.060902726 0.014039479 0.38351116
-0.03409143 0.16226159 0.08398766 -0.42173937 0.06173068 -0.07115149 -0.06869842 0.034165934
0.30013967 0.13518114 -0.030136254 -0.20679052 0.2016395 0.07986063 0.17800182 -0.02304287
-0.090020694 -0.11663408 0.061605748 0.010008495 -0.051100407 -0.10406505 0.03266461 -0.15957174
0.1277437 -0.06067568 -0.053074606 0.09298482 0.018428847 -0.19015218 -0.32962942 -0.15905163
-0.10949056 -0.050870102 -0.28976735 0.29971814 0.07209116 0.010329449 -0.11135043 0.10482216
-0.016870657 -0.7726554 0.016225616 -0.21105619 0.03948516 0.08392979 0.14505681 -0.54657614
0.15173447 0.002401626 -0.3213366 -0.20975415 -0.104617536 0.2461203 -0.42319363 -0.19862479
-0.118497565 0.03881557 0.09284994 -0.18847835 -0.17153446 -0.057724793 -0.02025053 -0.0113995895
-0.017128268 -0.16703261 0.0021076556 0.4459217 -0.064346276 0.2542764 -0.13439362 -0.3324392
9.2963965e-05 -0.11601196 0.059432324 -0.33280426 -0.009392225 0.041902203 -0.046663683 0.033564165
-0.054182433 -0.11643771 0.10264097 -0.44880393 -0.024298023 0.12270303 -0.22324504 -0.18788901
0.24606451 -0.14819387 0.09096614 -0.0856527 -0.24743596 0.05714034 0.2462661 -0.23605911
0.2163349 -0.297336 -0.1611703 -0.20678198 -0.10118945 0.12759654 -0.086204484 0.037454538
-0.43587843 -0.32523662 -0.0007140608 -0.51273495 0.17493652 -0.23899512 -0.13994479 0.030603353
-0.05035303 -0.12525243 0.032061987 0.055754304 -0.004356012 -0.008177638 -0.10505315 0.05475819
-0.00930817 -0.28851092 -0.29680976 0.0570467 0.2946363 -0.037840083 -0.015397026 0.09890502
-0.015667917 -0.1236021 -0.022656742 -0.12967125 -0.12058998 -0.12519532 -0.2805752 0.1851313
-0.13014899 0.16701686 -0.2203548 -0.08518482 -0.25466654 0.007840529 -0.5569202 0.05433288
0.034899816 -0.39229515 0.018499376 -0.15602483 -0.07748535 0.022623131 0.046242636 0.121126525
-0.19625156 -0.053514287 -0.35829163 0.0030288 -0.17729293 0.015435742 0.008438424 -0.011451659
-0.33755922 -0.0038660888 -0.2568427 -0.4073327 0.09036583 -0.32414806 0.32440802 0.0083784675
0.20048358 -0.009006763 0.008384199 0.07466749 -0.048330374 -0.070773594 -0.41868562 0.09245495
0.04206673 -0.37853384 -0.049469166 -0.2629794 -0.17280598 -0.06949519 0.11837865 0.02376398
-0.43352303 0.22454365 -0.28980944 0.05927003 -0.20388411 -0.17461841 -0.1396566 0.23765571
0.118319 -0.6742166 -0.14213009 0.021378819 0.42485717 -0.09488792 -0.25548366 0.12148895
-0.04159084 0.040938236 -0.22832772 -0.22519763 -0.042424764 0.24529532 -0.25810313 -0.026483994
00000000: d444 6bbe 3468 c1bd 352a 40be 0237 36bc
00000010: 177d 4c3d 3586 80be 5e58 a03d 7b03 ccbe
00000020: a523 853e 34f0 0cbe eb6e 59bd 7284 60be
00000030: 0082 edbc fa36 c03c ae5c 9cbd 406b 213d
00000040: c3b5 933d 81b5 b6be 6325 9c3c 766c 6c3d
00000050: 9f4b d43d 9a58 1a3e 07ed 8fbc c4be 81be
00000060: bbbf 71be 923c cdbd a7b0 29bd 640b a83c
00000070: a105 70bd 768b f4be 2c69 233d b2dc 75be
00000080: e027 04be 976d f4be dd4b 2e3e 9f17 a23d
00000090: 78d6 cf3e 54bd 94bc db1a d83d d84a 68bd
000000a0: 9177 8e3d dee9 e7be d02a 4a3b fdd1 96be
000000b0: 46c9 bdbd 2375 79bd d805 663c 935b c43e
000000c0: 75a3 0bbd e727 263e b901 ac3d 39ee d7be
000000d0: 4fd9 7c3d dfb7 91bd c2b1 8cbd 94f1 0b3d
000000e0: e8ab 993e ed6c 0a3e 4ee0 f6bc e5c0 53be
000000f0: 967a 4e3e f88d a33d 1c46 363e 67c4 bcbc
00000100: c55c b8bd d9dd eebd 4f56 7c3d acfa 233c
00000110: a94e 51bd 0f20 d5bd 53cb 053d c666 23be
00000120: 3fcf 023e 1087 78bd c264 59bd d36e be3d
00000130: 18f8 963c 41b7 42be 30c5 a8be 6ede 22be
00000140: 963c e0bd 2b5d 50bd 635c 94be a874 993e
00000150: 88a4 933d d93c 293c b20b e4bd 00ad d63d
00000160: 5534 8abc bfcc 45bf 95eb 843c 1d1f 58be
00000170: 31bb 213d 62e3 ab3d c689 143e 6aec 0bbf
00000180: 4860 1b3e 9964 1d3b 3b86 a4be cbc9 56be
00000190: b841 d6bd f606 7c3e d6ac d8be 4c64 4bbe
000001a0: daae f2bd 13fd 1e3d 1c28 be3d 7800 41be
000001b0: bba6 2fbe d570 6cbd 71e4 a5bc 58c5 3abc
000001c0: 9550 8cbc 990a 2bbe 9820 0a3b d94f e43e
000001d0: fbc7 83bd 8430 823e 7b9e 09be 7935 aabe
000001e0: a6f5 c238 ae97 edbd 4f6f 733d 5265 aabe
000001f0: d9e1 19bc a5a1 2b3d 6b22 3fbd 947a 093d
00000200: 66ee 5dbd e576 eebd 6e35 d23d a1c9 e5be
00000210: a60c c7bc ba4b fb3d 599a 64be fa65 40be
00000220: 56f8 7b3e 22c0 17be 754c ba3d af6a afbd
00000230: da5f 7dbe fd0b 6a3d 2e2d 7c3e 7bb9 71be
00000240: e586 5d3e 6d3c 98be d409 25be a8be 53be
00000250: 6a3c cfbd aba8 023e fa8b b0bd ee69 193d
00000260: 752b dfbe 6a85 a6be cf2f 3bba 9942 03bf
00000270: 8f22 333e 23bb 74be b04d 0fbe e2b3 fa3c
00000280: fb3e 4ebd 2c42 00be 6e53 033d a05e 643d
00000290: e1bc 8ebb 80fb 05bc 1b26 d7bd 204a 603d
000002a0: 4b81 18bc b4b7 93be 73f7 97be cda9 693d
000002b0: 92da 963e 34fe 1abd cf43 7cbc b78e ca3d
000002c0: 015a 80bc 1923 fdbd a29a b9bc 8ac8 04be
000002d0: e1f7 f6bd 3433 00be 8da7 8fbe 0f93 3d3e
000002e0: c745 05be 7806 2b3e b0a4 61be 6175 aebd
000002f0: a763 82be 9075 003c 5292 0ebf 278c 5e3d
00000300: 1cf3 0e3d e9da c8be 018c 973c f9c4 1fbe
00000310: a4b0 9ebd 2554 b93c eb68 3d3d 2f11 f83d
00000320: 2bf6 48be cc31 5bbd 0072 b7be d57e 463b
00000330: 478c 35be 32e6 7c3c 5141 0a3c bd9f 3bbc
00000340: 90d4 acbe 355e 7dbb e380 83be e98d d0be
00000350: b811 b93d bcf6 a5be cf18 a63e d745 093c
00000360: 914b 4d3e 1a91 13bc e15d 093c 45eb 983d
00000370: 12f6 45bd bff1 90bd f65d d6be 0559 bd3d
00000380: 2a4e 2c3d 30cf c1be 2ea0 4abd 3ca5 86be
00000390: 0df4 30be 7f53 8ebd 8170 f23d aeac c23c
000003a0: bbf6 ddbe c5ee 653e e761 94be 22c5 723d
000003b0: ffc6 50be 2bcf 32be 2402 0fbe 055c 733e
000003c0: 3b51 f23d 7699 2cbf 8d8a 11be a222 af3c
000003d0: e186 d93e 9954 c2bd c1ce 82be 33cf f83d
000003e0: 285b 2abd daae 273d bece 69be 359a 66be
000003f0: 97c5 2dbd b22e 7b3e 1826 84be f6f4 d8bc

fc3.bias f4 [256]
-0.21552077 -0.025363863 -0.047727652 0.26545423 0.13177818 -0.14567038 -0.03017487 -0.15731654
0.06899374 -0.06674609 0.39618894 -0.16140084 -0.06218996 0.63690084 0.3192504 -0.07284992
-0.08954436 -0.009154999 0.003284643 -0.024042847 0.08911336 -0.20428722 -0.14594106 0.5417503
-0.21688022 -0.013552385 -0.039724894 -0.078563854 0.21085899 -0.103632346 -0.1269965 -0.1076525
0.07893542 0.047659602 0.0945809 0.09327202 -0.09064286 0.16007568 0.53948283 -0.13705409
-0.23803726 -0.11426902 -0.35367677 -0.11223591 -0.16315104 -0.2903909 0.06945035 0.16831319
-0.09628516 -0.07619002 -0.13377337 0.10268 0.34294513 0.10495334 -0.3683814 -0.16069815
-0.050559666 0.0018630401 -0.222419 0.00029654425 -0.12235644 0.08837027 0.18632653 -0.08389731
-0.14004482 -0.19129698 0.23275296 0.073036045 -0.0048439177 -0.16616319 0.238173 -0.020752735
0.3887744 -0.17428274 -0.19396664 -0.1246223 0.044541508 -0.020647842 0.07322534 -0.15679011
0.007962988 0.0655374 -0.30129743 -0.08311189 -0.013436234 -0.16680612 0.2847984 0.02683304
-0.09278293 0.023936003 0.00012798632 -0.06914063 0.008061 -0.2927321 0.21734278 -0.108719915
0.1444317 -0.2140878 0.27135193 -0.1841384 -0.113715194 -0.12841736 -0.16512583 -0.00054126
-0.037645474 0.041606907 -0.13606165 0.46575108 -0.3593036 -0.26830775 -0.055586644 0.14673994
-0.098135084 0.0712321 0.123166285 0.35644796 -0.06869505 0.13112716 -0.11072162 0.1457193
0.016252954 0.49224117 -0.14821215 0.10420956 0.08800074 -0.17888956 0.14031033 -0.23050235
0.2119297 -0.015204561 -0.10878582 0.07212006 -0.3519637 0.108809 0.06494304 0.2865206
-0.1218507 -0.06598121 0.0059883725 -0.038710397 -0.02266564 -0.13951644 0.07569988 -0.14002378
0.02600801 -0.16160218 -0.12597223 -0.14040719 0.047761265 -0.13488944 0.0276727 -0.16488223
0.10515921 -0.009877035 -0.15975937 -0.118552 0.021056777 -0.46088323 0.085764125 0.05088299
0.122447595 -0.16882882 -0.05379716 0.044347264 -0.27787045 -0.13735938 -0.33753976 0.18348616
0.23194134 -0.28706902 -0.24442843 -0.12963447 -0.28084847 0.33105788 -0.010942886 0.07321082
0.0017362626 -0.1527874 0.6308311 -0.10612251 -0.17776634 0.1900509 -0.0026737335 -0.33099085
0.14086014 -0.2585093 0.11815858 0.31185013 0.19617319 -0.25912622 -0.1301426 -0.07140502
-0.21954477 -0.15932299 -0.23047954 -0.11216859 0.05945121 -0.1170294 -0.21205565 -0.098699406
0.26089796 0.0339134 6.4033775e-05 0.03855655 -0.15167163 -0.23681113 0.058217358 0.22351359
-0.20113294 0.008677398 -0.13286482 0.040772907 -0.053949524 0.041316733 0.33623964 0.7790727
0.23638949 0.0032819842 0.1227754 0.31885698 -0.08533837 -0.18146472 -0.021061825 0.01943361
-0.3363753 -0.24141578 0.12240766 -0.13933179 -0.051949717 0.10874301 -0.18084756 0.08608113
0.24944645 -0.43735725 -0.13532643 -0.038729824 -0.1503712 0.033477586 -0.27553985 -0.23819011
-0.4422543 0.22472198 0.3609337 -0.16960809 0.06621849 0.10304425 0.35597876 -0.11857937
0.12919115 -0.25083593 0.13679464 0.3275199 -0.013221264 -0.23087414 -0.030246211 -0.31942877
00000000: 7ab1 5cbe e0c7 cfbc 127e 43bd 9ee9 873e
00000010: dcf0 063e 9e2a 15be 4a31 f7bc 9617 21be
00000020: 974c 8d3d 2db2 88bd 47d9 ca3e 4346 25be
00000030: e6ba 7ebd ef0b 233f ca74 a33e 5732 95bd
00000040: 0963 b7bd d9fe 15bc 2a43 573b 81f5 c4bc
00000050: 1181 b63d ab30 51be 9371 15be 26b0 0a3f
00000060: d915 5ebe d30a 5ebc 92b6 22bd 16e6 a0bd
00000070: 6beb 573e 323d d4bd 5f0b 02be ea78 dcbd
00000080: e5a8 a13d b736 433d a2b3 c13d 6705 bf3d
00000090: f7a2 b9bd e1ea 233e 8c1b 0a3f e857 0cbe
000000a0: 0ac0 73be e005 eabd 1f15 b5be f1db e5bd
000000b0: 1111 27be 1eae 94be fc3b 8e3d 4b5a 2c3e
000000c0: 2731 c5bd 8309 9cbd e3fb 08be e449 d23d
000000d0: 8196 af3e c7f1 d63d 7d9c bcbe 0e8e 24be
000000e0: a717 4fbd 4131 f43a cec1 63be 7f79 9b39
000000f0: 0396 fabd 79fb b43d 62cc 3e3e 5ad2 abbd
00000100: e967 0fbe 5be3 43be cb56 6e3e ec93 953d
00000110: bab9 9ebb af26 2abe 9fe3 733e a401 aabc
00000120: 700d c73e 2d77 32be 319f 46be fa39 ffbd
00000130: 2871 363d aa25 a9bc 2bf7 953d 968d 20be
00000140: 3177 023c 7938 863d a843 9abe 9136 aabd
00000150: a623 5cbc 39cf 2abe 19d1 913e f7d0 db3c
00000160: fa04 bebd 7015 c43c 1134 0639 9a99 8dbd
00000170: 4912 043c fbe0 95be 1b8f 5e3e 8ca8 debd
00000180: e7e5 133e d539 5bbe a4ee 8a3e c78e 3cbe
00000190: 83e3 e8bd d77f 03be bf16 29be 58e3 0dba
000001a0: 2432 1abd 016c 2a3d bf53 0bbe ed76 ee3e
000001b0: a4f6 b7be a25f 89be d2ae 63bd ff42 163e
000001c0: 0cfb c8bd 23e2 913d 9b3e fc3d 5980 b63e
000001d0: feaf 8cbd 3346 063e 04c2 e2bd 7137 153e
000001e0: ea24 853c 0907 fc3e edc4 17be d26b d53d
000001f0: bb39 b43d d32e 37be 83ad 0f3e cf08 6cbe
00000200: 1904 593e 8d1c 79bc 1acb debd afb3 933d
00000210: 9634 b4be 41d7 de3d db00 853d d4b2 923e
00000220: dc8c f9bd 2821 87bd 1c3a c43b cb8e 1ebd
00000230: 4bad b9bc 66dd 0ebe 8a08 9b3d 6562 0fbe
00000240: c00e d53c 0b7b 25be ddfe 00be e7c6 0fbe
00000250: 51a1 433d 7520 0abe dcb1 e23c e3d6 28be
00000260: b65d d73d 4ad3 21bc f697 23be 64cb f2bd
00000270: 437f ac3c e3f8 ebbe 1aa5 af3d af6a 503d
00000280: cec5 fa3d 76e1 2cbe 695a 5cbd 7aa5 353d
00000290: 0945 8ebe f0a7 0cbe 03d2 acbe cce3 3b3e
000002a0: 0882 6d3e b6fa 92be 724b 7abe e6be 04be
000002b0: 5fcb 8fbe 6b80 a93e ca49 33bc 8eef 953d
000002c0: 4e93 e33a 4d74 1cbe 267e 213f c256 d9bd
000002d0: 6108 36be b49c 423e ce39 2fbb a277 a9be
000002e0: a43d 103e 555b 84be 20fd f13d d2aa 9f3e
000002f0: a0e1 483e 31ac 84be 1a44 05be cc3c 92bd
00000300: 58d0 60be 9125 23be d402 6cbe a5b8 e5bd
00000310: 1d83 733d 1cad efbd 1e25 59be ea22 cabd
00000320: 6b94 853e c7e8 0a3d df49 8638 79ed 1d3d
00000330: cf4f 1bbe 9e7e 72be 5375 6e3d bfe0 643e
00000340: cbf5 4dbe a52b 0e3c b70d 08be 7e01 273d
00000350: 2dfa 5cbd bc3b 293d 9a27 ac3e 4f71 473f
00000360: 1610 723e 8f16 573b ab71 fb3d 3941 a33e
00000370: e2c5 aebd e3d1 39be d989 acbc 3c33 9f3c
00000380: 6239 acbe b335 77be deb0 fa3d feac 0ebe
00000390: 3ac9 54bd a8b4 de3d 1a30 39be 4e4b b03d
000003a0: e46e 7f3e 4aed dfbe 0393 0abe 2aa3 1ebd
000003b0: e8fa 19be cb1f 093d 8f13 8dbe 1ce8 73be
000003c0: 286f e2be 851d 663e 4dcc b83e bead 2dbe
000003d0: 8f9d 873d dd08 d33d d942 b63e bed9 f2bd
000003e0: af4a 043e 916d 80be e513 0c3e b0b0 a73e
000003f0: 009e 58bc 456a 6cbe e7c6 f7bc 2b8c a3be

action_out.weight f4 [4, 256]
-0.008825528 -0.16932017 0.47043842 -0.12810367 0.055252295 -0.35468897 -0.015039366 0.14220457
0.0414366 0.21767952 -0.080247216 -0.03314162 0.0061978805 -0.12439471 -0.015738936 0.049167827
0.027858373 0.08528242 -0.012762098 -0.031120665 0.054220274 0.041063238 -0.12333677 -0.016492523
-0.12072385 0.063369825 -0.40948728 0.10064395 -0.0006751556 0.058044553 0.015845194 0.05106929
-0.072979346 -0.048741717 -0.057184134 -0.11807445 0.037654728 0.034365173 0.07248121 0.041917093
0.45948434 0.2899149 0.7273563 0.048654415 0.011685442 -0.12175434 0.14230184 0.0006043183
0.06153296 -0.034972887 -0.11016479 0.17509742 0.045197535 -0.03552412 -0.94375825 -0.12679052
-0.041296616 -0.035436817 -0.03580929 -0.11795179 -0.31020898 -0.058769237 0.05180606 0.66177493
-0.30476862 0.08725974 -0.10107697 -0.14727288 -0.26418433 -0.001852715 -0.15387361 -0.09042152
-0.08211696 0.029868891 -0.004053351 0.21755733 0.020858755 -0.40180168 0.009106799 -0.025593735
-0.29960904 -0.13016357 -0.038562994 -0.35136342 0.024159549 0.23797897 0.030120635 0.18918253
-0.17876463 0.025460282 -0.010120019 0.14666429 -0.10721057 0.058705896 -0.13417621 -0.015669912
-0.046942648 0.094920196 0.10831953 0.29656374 -0.032065686 0.117886215 -0.83075655 0.209607
-0.112607606 0.02953161 -0.30274317 0.006905183 0.33910352 0.83077097 0.17203985 -0.0015122849
0.04012386 0.060395874 -0.19370702 -0.16678151 -0.9000176 -0.059965607 0.14253376 0.050124004
-0.23436755 0.037129313 -0.088599585 0.12604548 -0.10065229 0.016787153 -0.15103972 1.3873442
0.101673625 -0.046259813 -0.08502224 -0.07620203 0.1698235 0.08434993 0.07545575 -0.017679868
0.14046596 0.024060784 0.27967244 0.32983154 -0.021853859 0.1300354 -0.1016561 0.015338211
-0.0028792985 0.094993606 0.024734868 -0.09112092 0.056279797 0.20481685 0.11658431 -0.15725268
0.07577898 -0.12472124 -0.4424446 -1.2563097 0.0063939616 -1.6394145 -0.14426601 0.024678841
-0.03422316 0.15095085 0.23773204 0.13289604 -1.073506 0.3739905 0.077180654 -0.12070735
0.05115565 -0.09007131 0.16272067 0.6417105 -0.5808926 0.08759306 0.14967969 0.024060583
0.0043971585 0.023051374 -0.03301747 -0.019015376 -0.31408048 -0.2593128 -0.07774184 -0.14238039
0.029993165 0.17425412 -0.004922877 0.011070906 -0.029435406 -0.028460639 0.025589377 -0.0044776374
-0.0027558776 -0.62775123 0.12065253 0.09602689 0.27484855 -0.0070022773 0.030765735 -0.104124956
0.029535443 0.08137696 0.023879688 -0.15013458 0.025390623 -0.068920836 0.037305735 -0.079845265
0.15789853 0.034205247 0.05377328 0.02503395 -0.19471546 0.053241625 0.0038822275 0.060905647
0.0648106 0.29164407 0.11947597 -0.032374937 -0.000434239 0.10187067 0.16646391 -0.2569757
-0.0018878203 0.44998857 -0.039714906 0.34279653 -0.06673517 0.10132806 0.012455998 -0.05022318
-0.034648485 -6.5059685e-05 0.099439345 0.11949739 0.27243355 -0.05280056 0.007760875 0.028788121
0.0078996075 -0.016824149 0.14191112 -0.01833245 0.10207594 0.5261522 0.009584589 0.113325864
-0.04030021 -0.106454626 0.122548155 -0.08803223 0.10494999 0.00016673206 -0.04687984 1.3297018
00000000: f398 10bc 4462 2dbe 4edd f03e 9c2d 03be
00000010: 3b50 623d cb99 b5be ac67 76bc 139e 113e
00000020: 6db9 293d 61e7 5e3e a758 a4bd 82bf 07bd
00000030: 9717 cb3b a7c2 febd f1ee 80bc 3464 493d
00000040: 3e37 e43c 8da8 ae3d 1e18 51bc c4f0 febc
00000050: 1416 5e3d ed31 283d fd97 fcbd 541b 87bc
00000060: 113e f7bd 0ac8 813d 51a8 d1be 6a1e ce3d
00000070: edfc 30ba 20c0 6d3d c8cd 813c 082e 513d
00000080: 3276 95bd 65a5 47bd e939 6abd 04d1 f1bd
00000090: d83b 1a3d 7fc2 0c3d 0771 943d 42b1 2b3d
000000a0: 8841 eb3e ba6f 943e 0634 3a3f da49 473d
000000b0: 4c74 3f3c 575a f9bd 93b7 113e 1d6b 1e3a
000000c0: fc09 7c3d bb3f 0fbd 149e e1bd bd4c 333e
000000d0: 0d21 393d bd81 11bd 249a 71bf 60d5 01be
000000e0: a426 29bd 3226 11bd c3ac 12bd b590 f1bd
000000f0: b6d3 9ebe 03b8 70bd 9732 543d 156a 293f
00000100: a20a 9cbe 3cb5 b23d 7101 cfbd b4ce 16be
00000110: 2b43 87be cdd6 f2ba 0b91 1dbe eb2e b9bd
00000120: f02c a8bd 9baf f43c f9d1 84bb 59c7 5e3e
00000130: fbdf aa3c f3b8 cdbe af34 153c f4a9 d1bc
00000140: 5b66 99be 9949 05be 3bf4 1dbd e8e5 b3be
00000150: 3fea c53c c2b0 733e 8dbf f63c 11b9 413e
00000160: 130e 37be 1592 d03c 70ce 25bc 2a2f 163e
00000170: 3791 dbbd 9875 703d 7d65 09be 305e 80bc
00000180: ef46 40bd 8565 c23d a1d6 dd3d 34d7 973e
00000190: 4f57 03bd 546e f13d 76ac 54bf 38a3 563e
000001a0: d19e e6bd 46ec f13c 2701 9bbe e044 e23b
000001b0: fa9e ad3e 68ad 543f 372b 303e dc37 c6ba
000001c0: eb58 243d aa61 773d 225b 46be c6c8 2abe
000001d0: 8e67 66bf 7f9e 75bd 5ff4 113e d44e 4d3d
000001e0: 0cfe 6fbe e814 183d b373 b5bd 1112 013e
000001f0: ca22 cebd 3685 893c 28aa 1abe 7f94 b13f
00000200: 433a d03d ee7a 3dbd 2420 aebd cf0f 9cbd
00000210: 36e6 2d3e a8bf ac3d 8b88 9a3d 5fd5 90bc
00000220: 4fd6 0f3e 1f1b c53c 3a31 8f3e aedf a83e
00000230: dd06 b3bc 0028 053e 1331 d0bd 1f4d 7b3c
00000240: 9db2 3cbb 028c c23d c7a0 ca3c 9b9d babd
00000250: a585 663d 82bb 513e c1c3 ee3d d906 21be
00000260: 0332 9b3d d96d ffbd 1988 e2be c2ce a0bf
00000270: 7084 d13b 56d8 d1bf 78ba 13be 482b ca3c
00000280: 962d 0cbd dc92 1a3e 0770 733e e615 083e
00000290: a568 89bf af7b bf3e e410 9e3d 6a35 f7bd
000002a0: 9688 513d 4f77 b8bd 3fa0 263e 2447 243f
000002b0: 61b5 14bf fe63 b33d a245 193e b31a c53c
000002c0: 0a16 903b 3cd6 bc3c 543d 07bd 22c6 9bbc
000002d0: 28cf a0be a6c4 84be 1d37 9fbd 2acc 11be
000002e0: 3ab4 f53c ac6f 323e 1650 a1bb bf62 353c
000002f0: 8522 f1bc 4926 e9bc d0a0 d13c 25b9 92bb
00000300: f49b 34bb 4eb4 20bf ac18 f73d bfa9 c43d
00000310: f3b8 8c3e 5c73 e5bb 6c08 fc3c 773f d5bd
00000320: 50f4 f13c f7a8 a63d 569f c33c e1bc 19be
00000330: ffff cf3c 5e26 8dbd e6cd 183d ea85 a3bd
00000340: 27b0 213e cd1a 0c3d 5f41 5c3d 0014 cd3c
00000350: 7d63 47be e413 5a3d f86c 7e3b 3378 793d
00000360: 6bbb 843d 5f52 953e d1af f43d 959b 04bd
00000370: 92aa e3b9 92a1 d03d 8475 2a3e 5292 83be
00000380: bd70 f7ba e764 e63e 19ac 22bd 0783 af3e
00000390: 73ac 88bd 1685 cf3d 3e14 4c3c d2b6 4dbd
000003a0: 92eb 0dbd a770 88b8 dba6 cb3d 0cbb f43d
000003b0: 697c 8b3e 6645 58bd f04e fe3b 11d5 eb3c
000003c0: 5b6d 013c ccd2 89bc 2651 113e ef2d 96bc
000003d0: 310d d13d e9b1 063f ae08 1d3c 6417 e83d
000003e0: d511 25bd e204 dabd 87fa fa3d 3e4a b4bd
000003f0: 05f0 d63d ccd4 2e39 1305 40bd ab33 aa3f

action_out.bias f4 [4]
0.012695569 -0.0017934316 -0.012198104 -0.0035841975
00000000: 1301 503c 9411 ebba 8eda 47bc dbe4 6abb
