mujoco_project/saved_models/FetchPush-v1/model.pt (torch_old, 562112 bytes, 8 tensors)

fc1.weight f4 [256, 28]
000000 16 47 3c be c0 84 27 3c ac 87 e6 bb a9 55 bf 3c
       -0.18386492 0.010224521 -0.0070352163 0.023356276
000010 4a 13 a8 bd 9a 6a b6 3e 71 70 35 be 0d 30 84 bd
       -0.08206804 0.35628206 -0.17718674 -0.064544775
000020 40 17 52 be d1 70 5e 3d bb 13 e0 3d 59 45 12 3e
       -0.20516682 0.05430681 0.10941263 0.14284267
000030 96 67 90 bd 22 49 98 be 36 02 e6 3d ee 20 58 bd
       -0.070510074 -0.29743296 0.112308905 -0.05276578
000040 b3 e5 d5 bd 5c 51 c8 3c 86 b2 b9 bd c9 ad 02 3e
       -0.10444202 0.024452858 -0.09067254 0.12761606
000050 c1 d7 74 bd cd dd 3c 3c 98 67 e2 3c cb ab 00 3f
       -0.05977607 0.011527491 0.027637288 0.50262135
000060 c2 79 78 be 88 38 b6 bd 77 8d 09 be 2d 63 5a 3e
       -0.24265197 -0.08897501 -0.13432871 0.21326895
000070 ff f5 6b 3e 8a cf d3 bd 23 5b f9 3d fb f4 7b 3e
       0.23043059 -0.10342319 0.12175586 0.24605171
000080 ba f0 1a 3e ba a2 92 bd 55 b2 97 3e 8b c7 f4 3c
       0.15130892 -0.07159944 0.29628244 0.029880306
000090 45 7f 10 be fc 06 db bd 4e 99 76 bc b3 b1 f4 bc
       -0.1411105 -0.106946915 -0.015051199 -0.02986989
0000a0 a0 e2 a3 3d c7 21 a0 be 30 be 99 3d 1c c2 4e 3e
       0.0800221 -0.3127577 0.075069785 0.20191234
0000b0 cb 3d 41 bc 75 dc 0e bd 24 df 9a 3d 09 da 5b 3d
       -0.011794518 -0.034878213 0.07562092 0.05367473
0000c0 4b 03 09 3e 49 6d 1f 3e 6b e9 83 3d 50 c4 f6 bb
       0.13380162 0.15569033 0.06441005 -0.0075307265
0000d0 39 12 b0 3c 86 a5 f7 3c 07 d0 ec bd 26 c2 da bd
       0.021493064 0.030230295 -0.115631156 -0.10681562
0000e0 c8 20 93 be 3c 26 66 3e 00 09 94 3d 52 bb e6 be
       -0.28735948 0.22475523 0.07228279 -0.4506479
0000f0 63 17 20 bd 26 34 b8 bd 07 8a b4 be f4 7d 9d be
       -0.039084803 -0.089943215 -0.35261557 -0.30760157
000100 06 40 0a be 2d f7 3d bd 8c eb cc 3d d1 30 6d bd
       -0.13500986 -0.046378303 0.100058645 -0.057907883
000110 8f ba 3c be 87 5b c9 3e 11 9c de 3d ea 96 3d 3b
       -0.18430541 0.39327642 0.10869611 0.0028929063
000120 d9 7a 9c bd 45 17 a7 bd dc 29 e8 3d 4c 7f 09 3d
       -0.07640619 -0.08158735 0.11336109 0.033568665
000130 4f f5 cc 3d db 93 83 bd 52 9d ca bd f2 d7 59 3d
       0.100077264 -0.064246856 -0.09893288 0.053184457
000140 ac 6f e0 3d 5d d2 87 3e c6 9b 30 3e c0 f3 9e be
       0.109588 0.26527682 0.17246923 -0.31045341
000150 0d 89 d5 3d 25 c2 c5 bd 3c 82 5c 3c 38 8f 5e 3d
       0.10426531 -0.09656171 0.013458785 0.054335803
000160 da 13 d9 3a 8d ea 73 be c5 14 b4 be ad 5b 70 3d
       0.0016561702 -0.23819943 -0.35172096 0.05868118
000170 53 cc 80 bd 86 b8 25 3e a9 ac 43 be a6 20 22 3e
       -0.06288972 0.16183671 -0.19108833 0.15832767
000180 19 8b bb 3e 00 6d d6 bc d7 38 9d 3d bf 66 db bb
       0.3662956 -0.026175022 0.07676857 -0.006695598
000190 88 b8 b8 3d 94 be de bd 3c 89 08 3d b7 9f d3 bd
       0.090195715 -0.10876194 0.033334002 -0.103331976
0001a0 d2 e4 79 3d 58 69 95 bd b4 4e a8 3d 53 96 b4 3e
       0.061009236 -0.07295483 0.082181364 0.35270938
0001b0 3e 82 89 3d e9 71 ad be ae 87 6f 3e 4c bb 93 be
       0.06714295 -0.3387597 0.23391601 -0.28853834
0001c0 6b 07 e4 3d c7 fa 69 be 47 31 ae 3d ce 49 ea 3d
       0.11134227 -0.2284957 0.08505493 0.114398584
0001d0 c8 3d ae be bc cb cd bd a4 f3 dc 3d dc b9 24 3e
       -0.3403151 -0.10048625 0.10788658 0.16086525
0001e0 d5 2c 43 be 77 59 08 3e aa 8d ac 3c c4 97 26 be
       -0.19060071 0.13315378 0.021063644 -0.16268831
0001f0 8e 46 68 3e b9 7b a3 bd 04 89 85 3c d6 fc 97 bd
       0.22683164 -0.079825826 0.016300686 -0.074212715
000200 c4 97 30 bd bd 9d 37 3e 3e b5 fd 3d c7 31 48 bc
       -0.043113485 0.17931266 0.12388085 -0.012218899
000210 69 0f c2 3d c5 c1 4d bd 76 42 e2 3c eb 83 34 3e
       0.094755955 -0.05023362 0.027619582 0.17628448
000220 95 ed 35 bd 16 bf cf be aa cc 08 3f 22 f9 51 be
       -0.04441603 -0.40575475 0.5343729 -0.20505193
000230 e2 4e f2 bd 69 1c fb bd 12 d2 d8 3c b2 29 ea 3d
       -0.11831452 -0.12261278 0.026467357 0.11433734
000240 c4 45 56 bc 76 57 d7 be e0 68 2e be 27 cc 46 3d
       -0.013078157 -0.42058915 -0.17032194 0.04853454
000250 49 69 0d be 46 40 56 be d9 25 54 3e 9e 5c d4 3d
       -0.13809694 -0.20922956 0.20717563 0.10369228
000260 51 c4 66 3e 26 0a 77 bd 68 38 68 3d 96 6d 24 3e
       0.22535826 -0.060312413 0.05669442 0.16057429
000270 18 59 ba bd 41 37 0d 3e 7d 6d 82 be d8 c9 3b bc
       -0.090990245 0.13790609 -0.25474158 -0.0114616975
000280 20 74 e3 3c 6e 2e 17 3e dc c6 1d be e0 9a 50 3e
       0.027765334 0.14763805 -0.1540789 0.2037158
000290 32 e2 c1 3d 8a 98 04 3f 8b f8 65 3d 46 d0 fd 3d
       0.094669715 0.51795256 0.056145232 0.12393241
0002a0 a0 71 31 be ff a9 98 3e ba a7 a7 bd 21 54 ed be
       -0.17328501 0.29817197 -0.08186288 -0.46353248
0002b0 8a 88 57 3e b5 32 4e 3e c1 c3 9a be 06 40 ba 3c
       0.2104818 0.2013653 -0.30227473 0.022735607
0002c0 e8 23 e9 bd 79 53 70 bd 9f 8d 3a 3e a7 b9 c6 bd
       -0.11383802 -0.058673356 0.18218087 -0.09703379
0002d0 46 9e 05 be 0e 8e 8c 3e aa 06 97 3d 41 7a 11 be
       -0.13048658 0.2745213 0.07374318 -0.14206792
0002e0 81 c6 36 be e5 6e ce bd a4 83 cb bd 35 ec 8a 3d
       -0.1784916 -0.10079745 -0.09937218 0.06783334
0002f0 08 90 de 3d 44 00 09 be 1a 3c 08 be 5d 9e 8c be
       0.108673155 -0.13379008 -0.13304177 -0.27464572
000300 fa 96 a6 bd 55 71 24 3f 2c 0e 0a bf 87 98 18 3e
       -0.08134265 0.6423543 -0.53927875 0.14901935
000310 94 60 4e 3e f8 fa 54 be 8b 14 ec 3a 40 b3 b6 3e
       0.20154029 -0.20798862 0.0018011493 0.35683632
000320 02 fc 5a be c1 2f 19 3d 3d 51 99 3e fe 87 17 be
       -0.21385196 0.037399057 0.29944792 -0.1479797
000330 e8 60 3f 3c 4f de 6d bd 38 fa cb 3e ba 1b 03 bd
       0.011680819 -0.058073338 0.3983934 -0.032008864
000340 05 10 37 3e 21 aa 52 3e 2d bb 8c 3d 2b 4f a1 bd
       0.17877205 0.20572712 0.068716384 -0.07876428
000350 b1 71 9e 3d 38 e7 a7 ba 37 cd b6 3d 13 ec 94 bc
       0.07736529 -0.0012809997 0.089258604 -0.018178975
000360 21 19 9b bc 5b 43 3f bd 0b 9c a0 ba b8 ea dc bc
       -0.01893288 -0.046695095 -0.0012253536 -0.026967391
000370 81 1c a3 be 19 dc 06 bf 4e b9 db 3e b7 f7 c1 3d
       -0.31857684 -0.5267959 0.42914814 0.09471076
000380 92 c1 a6 3c fb 0e 90 be 36 10 07 be bd 45 c8 be
       0.020355973 -0.2813643 -0.13189778 -0.39115706
000390 ba 00 fe bd 7c bc 9b 3d 37 82 40 be 98 95 3d be
       -0.12402482 0.0760431 -0.18799673 -0.18514097
0003a0 dc c4 00 be 07 2d 8b 3d ea af 0f be ab 8e e2 be
       -0.12575096 0.06795698 -0.1403195 -0.44249472
0003b0 c2 e0 11 3d 3e e6 0f 3e 65 93 81 bd df 80 1e 3e
       0.035614736 0.14052674 -0.063269414 0.15478848
0003c0 45 0f 72 3c d1 c8 53 bd 67 d9 59 bd 35 8f ca 3c
       0.014774148 -0.051705185 -0.053185847 0.02472649
0003d0 61 52 84 bd a1 3d d0 3d 26 89 73 bd d2 2d 54 3e
       -0.06461025 0.10168005 -0.059456967 0.20720604
0003e0 f2 31 2b 3b 58 d2 9b 3e 30 27 cc 3e 40 ee cf be
       0.00261223 0.30433917 0.39873648 -0.40611458
0003f0 a9 d9 8a 3e 0e 61 9d 3c 44 ba 27 3c d9 41 12 3d
       0.27119187 0.019211318 0.01023728 0.03570733

fc1.bias f4 [256]
000000 19 f2 68 be 4e 52 92 be 9f 23 a1 be f4 3b db be
       -0.22748603 -0.28578418 -0.3147249 -0.42819178
000010 48 a5 5f be 83 f8 d7 be d7 55 ed bc 83 c0 11 be
       -0.21840394 -0.42181787 -0.028971596 -0.14233594
000020 b6 c3 b2 be 65 b1 13 be a5 9f ed 3b 1a d4 a2 be
       -0.3491494 -0.1442314 0.007251697 -0.31802446
000030 d3 1d 8b be cf 5b 0d bf d8 1d d9 be 57 28 ba 3b
       -0.27171192 -0.55218214 -0.4240558 0.0056810784
000040 d1 06 05 3e c1 8d 8a be 6d 49 c5 be 68 34 bd be
       0.12990882 -0.27061275 -0.38532582 -0.36954045
000050 51 aa 4f be 7e 55 56 3e 4c c4 0d bf b8 4d f0 bc
       -0.20279814 0.2093105 -0.5537765 -0.029333934
000060 69 e6 b3 be 89 25 07 3c f6 5a 19 bf 0f 38 e5 bd
       -0.35136726 0.008248695 -0.5990442 -0.11192333
000070 8d 6e 03 bf 25 33 2d 3c d6 4b bb be 80 6c 87 3c
       -0.5134056 0.010571276 -0.36581296 0.016531229
000080 2b 54 ab 3d 70 97 4c be 8b a9 28 be ef 79 11 be
       0.08365663 -0.19979644 -0.16470926 -0.1420667
000090 fa 90 66 be ae 88 5c bc bf d9 9d 3c e4 b6 f6 be
       -0.22516242 -0.013460321 0.019268868 -0.4818641
0000a0 20 7d 50 be 9c f9 a7 3e 15 96 67 be ce 53 da be
       -0.20360231 0.32807624 -0.22615846 -0.42642063
0000b0 36 e7 93 be 0f 5c 8b 3e db b5 bf 3e 62 49 c5 3d
       -0.28887337 0.27218673 0.37443432 0.09633137
0000c0 41 e8 a7 be ce f5 d1 be 86 db f6 bd f6 61 5a be
       -0.32794383 -0.41007847 -0.120535895 -0.21326432
0000d0 32 c3 68 be a9 8b 12 be 75 4e 9e bc 13 80 3a be
       -0.22730711 -0.14311089 -0.01932452 -0.18212919
0000e0 89 00 8c be 37 a1 0f bc e2 84 e2 bd c8 f5 d9 be
       -0.27344158 -0.008766464 -0.11060502 -0.4257033
0000f0 30 06 b5 3c fa ec 5c be 6c 29 8f 3d 45 31 2d be
       0.022097677 -0.21574774 0.069903225 -0.16913326
000100 d7 4a 13 3e 68 28 11 be c6 e9 8d be 33 0d 41 3e
       0.14384018 -0.1417557 -0.27717417 0.18852691
000110 b5 1c b9 bd 0a 17 de bc 6a c6 09 be 14 75 67 be
       -0.090386786 -0.027110595 -0.13454595 -0.22603256
000120 ac 45 4f be a5 f2 30 3e dc 64 8f 3d 48 9b c2 bd
       -0.20241421 0.17280062 0.07001659 -0.09502274
000130 7a 91 99 3b 0a fb c7 be df ac bb be 0b 4b e4 be
       0.0046865316 -0.39058715 -0.36655328 -0.44588503
000140 72 18 29 be 76 23 99 be 58 c1 61 be 99 88 c3 3d
       -0.16513231 -0.29909867 -0.22046411 0.09547538
000150 83 56 15 be 2b 04 93 be 79 fe c3 be 81 03 9f be
       -0.14583783 -0.28714117 -0.38280085 -0.3105736
000160 08 3a 66 bd 91 fc 84 bd b5 25 67 3e 09 65 ce be
       -0.056207687 -0.06493486 0.22572978 -0.4031146
000170 92 0e 96 be ca 3c 7e be 03 80 6f be 2d 73 02 bc
       -0.2930799 -0.24827877 -0.23388676 -0.00796203
000180 bf 59 84 bd 49 e5 38 3d d6 cf dd ba 2c a3 8a be
       -0.0646243 0.04514054 -0.0016922902 -0.27077615
000190 42 f4 1b be 6f 6a 6a bc db f0 a6 bc 01 63 a7 be
       -0.15229896 -0.014307602 -0.02037852 -0.3269272
0001a0 a9 19 23 be a7 4a 77 be 2c 0b b6 3c 39 e2 39 be
       -0.15927757 -0.24149571 0.022222124 -0.18152703
0001b0 a6 0d 13 be 5d ad 87 be 6d 74 30 3e 0a 6b 24 be
       -0.14360675 -0.26499453 0.17231913 -0.16056457
0001c0 07 c2 82 be 59 74 de be f8 bc a6 be be ea 8b be
       -0.25538656 -0.4344814 -0.32566047 -0.27327532
0001d0 40 52 8f be 40 f9 ba be 60 da 33 3e 1f f9 90 be
       -0.2799244 -0.36518288 0.17563772 -0.28315064
0001e0 e2 98 b6 be 70 13 c5 3e 33 4f 69 be 20 42 ed be
       -0.35663515 0.38491392 -0.22784118 -0.46339512
0001f0 ca fa 7f be cf b8 0a 3e 59 d7 49 be 62 6b 8b bb
       -0.24998012 0.13547061 -0.19711055 -0.0042547444
000200 69 eb 8b be 26 f9 54 3e c1 28 d2 be 11 c1 d1 be
       -0.2732804 0.20798168 -0.41046718 -0.4096761
000210 9d 70 39 be 37 ba 59 be 44 f8 57 be 80 48 57 bd
       -0.18109365 -0.21262442 -0.210908 -0.052559376
000220 97 bc df 3d bd 2a d9 be 5a 1a 24 3d 44 61 16 bc
       0.109246425 -0.4241542 0.040064193 -0.009178463
000230 e1 11 e9 3d 30 25 04 bf 8e 35 c9 3d 58 17 4f be
       0.11380363 -0.51619244 0.09824668 -0.20223749
000240 18 7a 69 be b7 e4 34 bd 53 a6 7f be e1 cc 33 be
       -0.22800481 -0.044163432 -0.24965791 -0.17558624
000250 74 77 3b 3d db 66 11 3e 43 52 05 3e 6e 08 95 bd
       0.045768216 0.14199392 0.13019662 -0.072769985
000260 b3 35 c6 be 7d 7e f4 bd 37 cd ee 3d e9 ad 86 bd
       -0.38712844 -0.11938188 0.116602354 -0.065761395
000270 a9 8d 47 be 40 e3 7a be c9 b7 b5 be 6c a7 21 be
       -0.19487633 -0.24500751 -0.3549178 -0.15786523
000280 e5 b4 45 3e 30 7e 5b be 51 54 63 bd dd ba ae bd
       0.19307287 -0.21434855 -0.055500332 -0.08531735
000290 4c 66 8c be 4b ed 48 be b3 8e 29 3d 6f 95 82 be
       -0.27421796 -0.1962177 0.041395854 -0.25504634
0002a0 e0 87 03 bd 07 69 75 be db d7 89 be b3 d4 83 be
       -0.032112002 -0.23965846 -0.26922497 -0.25748214
0002b0 b1 ae f8 bd fe d7 bd be 17 b4 c7 bc 41 9e bb be
       -0.12142695 -0.3707885 -0.024377866 -0.36644176
0002c0 44 83 02 bc 3f 61 93 be 99 1e bc bd c3 16 8f be
       -0.0079658665 -0.2878513 -0.091855235 -0.27947053
0002d0 c2 a3 48 be 08 7e 1b be c1 af 30 be 1e 39 18 be
       -0.19593719 -0.15184796 -0.17254545 -0.14865538
0002e0 67 0c 77 be a6 94 1b 3d 27 65 d0 be c1 99 ec be
       -0.24125825 0.03798356 -0.40702173 -0.46211055
0002f0 64 ed cb bd 2d bc a3 bd c8 f2 37 be 3e 22 e4 be
       -0.09957388 -0.07994876 -0.17963707 -0.44557375
000300 8f 6b 5a be 96 5b a7 3d 66 21 1b be ba ca 4b be
       -0.21330093 0.081717655 -0.15149459 -0.19901553
000310 e6 14 7c be 1f d4 e2 be ea 11 99 be 23 a1 f0 be
       -0.24617347 -0.4430246 -0.2989648 -0.46997938
000320 7c c4 7c bc 44 61 03 3c df 2c 19 be c8 59 2a be
       -0.015427705 0.008018795 -0.14958523 -0.16635811
000330 6a e3 79 be 7b 41 40 be ae f0 ae be 4c 7a 7f be
       -0.24403158 -0.18774979 -0.34168 -0.24948996
000340 6c db f5 bd 3b a8 8c 3d f6 ad bb be 6b 54 0e bd
       -0.12004742 0.06868025 -0.3665616 -0.034748476
000350 bb a2 7a be 99 81 5e be d4 b3 cd be 45 90 eb be
       -0.24476139 -0.21729125 -0.4017626 -0.46008506
000360 6f b3 96 be 75 5b c3 bd 36 58 84 be 25 f6 6d 3d
       -0.29433772 -0.095389284 -0.2584855 0.05809607
000370 d4 92 89 be ce 02 c5 be 37 5c 8d 3d d7 95 92 3e
       -0.26869833 -0.38478702 0.06902354 0.28629944
000380 cb fe 36 be 67 f1 74 3c a0 ab 86 bd 10 dc c4 bd
       -0.17870633 0.014950133 -0.065757036 -0.09612286
000390 23 9c 84 bd 5e 83 ae be c8 98 75 be 98 8a 81 3e
       -0.06475093 -0.340846 -0.23984063 0.2530105
0003a0 9a 17 76 be 9d 47 ab be 93 96 35 be 1a 16 93 bd
       -0.24032441 -0.33453074 -0.17733221 -0.0718195
0003b0 0c 9d d3 be 8e 57 d3 be a9 f5 4a 3c 48 8a 99 be
       -0.41330755 -0.41277736 0.0123876715 -0.29988313
0003c0 0a ae 1d 3e e1 0f 1e be 54 0f d9 be 28 5c 5f be
       0.15398422 -0.15435745 -0.42394507 -0.21812499
0003d0 b8 2f 91 be a7 ba 92 be 8e f1 79 bd 58 96 c4 be
       -0.2835672 -0.2865803 -0.06102138 -0.38395953
0003e0 b4 03 1f be 8e 88 e3 be 2c ef cd be e0 7f b6 be
       -0.15528756 -0.4444012 -0.40221536 -0.35644436
0003f0 2d a4 c2 bd 54 9a ce bd 09 0b d4 be f0 ba 71 3d
       -0.0950397 -0.100880295 -0.4141467 0.059016168

fc2.weight f4 [256, 256]
000000 77 5b 5c bd f5 9a a4 bc 32 4c 45 bd 56 89 37 3d
       -0.053798165 -0.02009342 -0.04816837 0.044808708
000010 41 0e 32 bd 06 5c 32 bc e5 ad a4 bd f7 46 67 bd
       -0.043470625 -0.010886198 -0.0804098 -0.05646416
000020 27 e4 00 3c c0 66 ec bd ab 2a da bc 41 90 1c 3d
       0.007866896 -0.115430355 -0.026631674 0.03822351
000030 8d 90 f9 bd 96 89 31 3a 8f a7 1d be ad ed 92 3c
       -0.12185774 0.0006772516 -0.1539595 0.017935598
000040 21 b8 cb bd d0 c2 57 bd b0 69 8c 3c 30 8e 1a 3d
       -0.09947229 -0.052676022 0.01714024 0.037733257
000050 e4 60 8b bd 17 e4 b0 bb 97 b6 4e bd 91 a9 0d be
       -0.0680559 -0.005398284 -0.0504671 -0.13834216
000060 33 4d 95 bc 14 78 2b bc 2b 80 f1 bd 0c 31 0e be
       -0.018225288 -0.010465641 -0.11792024 -0.13885897
000070 2f a4 4e bd 2a 02 3d bd 6a 30 d7 3c e8 00 a9 3d
       -0.050449546 -0.046144642 0.026268203 0.08252126
000080 16 bb c8 bd 97 dd 02 bd 6a ca 70 bd 1a c3 36 bc
       -0.09801309 -0.031949606 -0.058786787 -0.011154914
000090 26 c2 c4 bd 68 0a 05 bb 65 1e 94 bd 9b be cd bd
       -0.096073434 -0.0020300392 -0.0723236 -0.10046121
0000a0 4c 19 86 bc c0 55 dc bd 53 c5 11 be ec 78 94 bc
       -0.016369484 -0.10758543 -0.1423543 -0.018124066
0000b0 7e 12 17 3d e2 2a 98 bd 6c 0d 54 bc 41 ad cf bd
       0.03688287 -0.07430054 -0.012942653 -0.101404674
0000c0 fd 43 b9 bc c8 26 d2 3d 1d 1b 01 3d 1c a6 67 3d
       -0.022615427 0.10261303 0.031519998 0.0565549
0000d0 20 95 7b 3c 1b b4 77 3b 78 a9 98 bc e7 f9 b0 3c
       0.015355378 0.003779656 -0.018635496 0.021603538
0000e0 17 1a ab 3d 23 f5 55 bc 18 33 d7 3c 42 e7 b5 bd
       0.083545856 -0.013058933 0.02626948 -0.088819996
0000f0 dd 15 a5 bd 45 dc fe bd 1f ac ef bc d2 a7 1d bc
       -0.08060811 -0.12444357 -0.029256878 -0.009622531
000100 ce f6 77 3d 94 aa db bb a8 92 f5 bd cc 9a bb 3c
       0.060538106 -0.006703684 -0.11990863 0.022900961
000110 e5 6f 45 bd 29 cd e8 bd 2d 64 ad bd e6 40 d1 3c
       -0.048202414 -0.11367256 -0.08466373 0.025543641
000120 1f 12 89 bd 89 9e ab bd 26 e8 2d bd 08 da 17 bd
       -0.066929094 -0.083798476 -0.042457722 -0.037073165
000130 c6 b2 d0 bd 36 a9 ab bc ad c2 fa bd be 0f c9 bd
       -0.10190348 -0.02095471 -0.12244163 -0.09817456
000140 11 4e 0e 3d d3 9a 82 bd e2 d0 bb bd 03 30 76 3d
       0.03474242 -0.063771866 -0.091707006 0.06010438
000150 11 70 c2 bd 69 a2 b9 bc f9 43 91 bc fb a5 63 bd
       -0.09494031 -0.022660451 -0.017732607 -0.055578213
000160 75 ba 76 3d 48 6f 76 bd 6d 54 65 3a 9a 25 cb bc
       0.060236413 -0.06016472 0.0008748237 -0.024798203
000170 37 36 11 bd 29 98 6f 3b 37 40 99 3c 18 2a c3 bd
       -0.035452094 0.00365592 0.018707378 -0.09529513
000180 8c 6b 6b 3a db ec 22 bd 84 7c b5 bd c4 25 10 bd
       0.00089805643 -0.039776664 -0.0886164 -0.035192266
000190 00 5b 14 3a ef 19 cc bd 86 5b 00 3c 28 96 95 3d
       0.0005659312 -0.09965884 0.007834321 0.07304031
0001a0 da c9 5d bd be 2e 2b bd 26 7e ea bc d5 6b bb bd
       -0.05414758 -0.041792624 -0.028624605 -0.09151427
0001b0 02 07 a2 bd d3 81 d5 bb a3 d7 44 bd d6 51 db 3c
       -0.07911493 -0.0065157204 -0.04805721 0.02677242
0001c0 62 ba aa bd d6 12 5c bc 93 e0 b0 bd 46 ce e3 3c
       -0.08336331 -0.013432225 -0.08636584 0.02780832
0001d0 09 85 ab 3d d6 a4 e9 3c 12 78 8f 3d 3c 01 e1 bd
       0.08374984 0.028520983 0.070053235 -0.109865636
0001e0 ce 63 9b bb 34 8b 8c bd f6 13 c9 bd eb 54 a9 3d
       -0.0047421223 -0.068624884 -0.0981826 0.0826815
0001f0 07 bc 32 be c5 54 e3 bd e1 fa 2b bd 1c 2c 0a bd
       -0.17454539 -0.11100153 -0.041987304 -0.033733472
000200 af 5c 46 be ff e1 55 bd f2 6a 0d be d5 85 a1 bd
       -0.19371293 -0.05221748 -0.13810328 -0.078868546
000210 40 d0 bb bd 4c 37 a0 bd 74 c5 46 bd 18 f6 98 bc
       -0.0917058 -0.07823047 -0.04852815 -0.018672034
000220 90 52 a4 bd 78 e0 70 bd 28 a2 45 bd f0 0c ec 3c
       -0.0802356 -0.05880782 -0.048250347 0.028814763
000230 d5 ef d6 bd 9a 88 95 bc c4 56 71 bd 75 46 87 bd
       -0.10494963 -0.018253613 -0.058920637 -0.066052355
000240 9f d8 24 3d bf dd f2 bc 73 e2 37 3c 79 2f a5 bd
       0.04024565 -0.029646752 0.011223423 -0.08065695
000250 cd fd 8e 3c 95 4d c8 bd ef 58 c1 bc 76 c5 7b bc
       0.017455006 -0.097804226 -0.023601977 -0.015366903
000260 23 fb 04 3d 33 81 a2 3d 73 cd 9c bd ed bf c2 bd
       0.032466065 0.07934799 -0.07656374 -0.09509263
000270 c8 23 90 3d 47 6e d6 3c 45 a9 e4 b9 d7 c8 f9 bd
       0.07038075 0.026175631 -0.00043613664 -0.1219651
000280 4a e7 1a bd e8 d8 a4 bd 38 1c c6 bd 34 8b 99 bc
       -0.03781823 -0.08049184 -0.09673351 -0.018743135
000290 7e 0b 9d bd 77 c7 8c bd 5c 1a 3d bd 8a e9 8c 3d
       -0.076682076 -0.068739824 -0.046167716 0.068804815
0002a0 89 e2 08 3d 0d d8 ce bd 7d bb 6e bd 66 97 16 3d
       0.033419166 -0.10099802 -0.05828427 0.03676548
0002b0 56 b0 62 bd 71 c6 35 bd 49 16 1e bd 34 8d 07 3c
       -0.05534395 -0.0443787 -0.03859547 0.008273412
0002c0 4d ff bc bd 53 21 fb bd 24 15 1c be 7b 10 89 3d
       -0.09228382 -0.122622155 -0.1524244 0.066925965
0002d0 7d 99 44 bd 3f 32 6e 3d 3c d8 3f bd 1f 66 ac bd
       -0.04799794 0.058153387 -0.046837077 -0.084179156
0002e0 28 73 4d 3d c5 e3 63 bd 2e 26 04 bc 67 0f c3 bd
       0.05015865 -0.05563714 -0.008065743 -0.09524422
0002f0 c4 f6 f3 bd fa 67 55 3c 9e 17 dd bd d4 e1 c8 3c
       -0.11912301 0.013025278 -0.1079552 0.024521746
000300 cc 20 d7 3c 02 7e c2 bd 42 e5 77 bc a0 49 aa 3c
       0.026260756 -0.0949669 -0.015130343 0.02078706
000310 40 d1 fc 3d 87 41 12 bd b8 02 ec bd 5c 59 f6 bc
       0.12344599 -0.035707023 -0.11523956 -0.030071907
000320 fd f2 a5 3c db 3c 2c 3d 53 07 fa bc 47 7f 49 3d
       0.020257467 0.042050224 -0.03052107 0.049193647
000330 b5 0d 17 bd d6 9e 56 3d 8d 48 81 bd 1c 8e 2b 3d
       -0.036878306 0.05239757 -0.06312666 0.041883573
000340 13 02 9b 3d 39 e6 0b be 7a 17 ef 3c 75 c0 84 bd
       0.07568755 -0.13662042 0.029186 -0.06482021
000350 1a eb 50 be 46 62 88 bc 78 7d 51 3d 5c d0 01 bd
       -0.20402184 -0.016648423 0.051145047 -0.031692848
000360 2d 40 5b bd 8a d7 74 3c c3 5e bc bd 29 87 c0 bd
       -0.053528 0.014943967 -0.09197762 -0.0940078
000370 c0 29 a0 bc ef 46 1b bd 38 0d d3 bc 0b 6e 5e bd
       -0.019551158 -0.037909444 -0.02576314 -0.054304164
000380 64 f6 4a be 87 7c cf bc e4 a3 4e bd 70 48 33 b8
       -0.19820553 -0.025327934 -0.050449267 -4.274439e-05
000390 94 f1 8d bd 96 db 79 3c 3c 5d 89 bd b7 bd 68 3d
       -0.06930843 0.015250107 -0.06707236 0.05682155
0003a0 78 88 15 3d 5b 3b 41 3d ba ea 1a bc 76 60 01 bd
       0.0365071 0.047175746 -0.009455377 -0.031586133
0003b0 67 3b eb bd 31 5b f4 bd 50 37 07 3c d2 c5 3e bd
       -0.114859395 -0.11931456 0.008252934 -0.046575375
0003c0 92 b6 80 bd 20 5c bf bd 82 73 12 bd bf 8b 41 bd
       -0.062848225 -0.09343743 -0.035754688 -0.047252413
0003d0 74 ef 58 3d 8f 09 27 3d 69 64 d5 bd 0b cb d2 3c
       0.052962735 0.0407806 -0.10419542 0.025731584
0003e0 50 48 ac 3d 31 e4 d0 3b 3d dc eb 3b 74 4e ae bd
       0.0841223 0.006374859 0.0071978853 -0.085110575
0003f0 1a af 79 bd b9 db eb bd c9 70 b5 3c 74 0d ed bd
       -0.060958005 -0.11516518 0.022148507 -0.115748316

fc2.bias f4 [256]
000000 de 54 bb 3a 6d c5 52 3e 77 7e e2 3c 9f ca a9 bd
       0.001429226 0.20583124 0.027648194 -0.082906
000010 11 2f fa bc 74 bc d0 3d f8 a0 80 3c 27 98 9b bc
       -0.030540021 0.101921946 0.015701756 -0.01899345
000020 18 bf cc 3d a7 08 c6 3c f3 eb 78 3d 72 55 72 bd
       0.09997386 0.024174048 0.060771894 -0.05916352
000030 8a b3 10 bd 7d d7 a2 bd f7 da 38 bd c3 24 aa 3c
       -0.03532747 -0.079512574 -0.045130696 0.020769482
000040 38 cf 17 bf 79 ae 76 3e a6 f3 0d be 18 7c b0 bd
       -0.59300566 0.24089994 -0.13862476 -0.08617419
000050 b3 78 31 bd 3f bd 04 bc c5 49 05 bd e0 16 63 bb
       -0.043328 -0.00810176 -0.032541055 -0.0034651086
000060 04 0b ed 3a 1e 7f 26 3e 55 e2 be bd 1b 80 1d bd
       0.0018084948 0.16259429 -0.09320513 -0.03845225
000070 13 82 40 bd 55 96 c2 3b 44 88 20 be a8 24 93 bd
       -0.04699905 0.005938331 -0.15676981 -0.07184726
000080 04 c8 4e be 6b 27 9c 3e 90 e9 65 3e fe 23 b6 3d
       -0.20193487 0.30498824 0.22452378 0.08893584
000090 fa 05 ab bd 5d 80 eb 3c 68 3d 90 3c 06 3e 06 3e
       -0.08350749 0.028747732 0.017607406 0.13109598
0000a0 23 9e 55 bb 4f aa 6c 3c ef 83 91 3e 41 70 c8 3c
       -0.0032595478 0.014444902 0.2842097 0.02446759
0000b0 dc 30 a6 3e a9 af 4d bd b9 30 a7 3e 59 11 18 bd
       0.32459152 -0.05021635 0.3265436 -0.03712592
0000c0 ab 1d 21 bd 07 d3 39 3e 83 8f 83 b9 53 06 4b 3e
       -0.039334934 0.18146907 -0.00025093192 0.19826631
0000d0 52 c6 82 3e 8d 8f 85 3b 3c 76 cb 3d 5c f5 7a bd
       0.2554193 0.0040759505 0.09934661 -0.06126915
0000e0 74 35 71 3c cd 11 ae 3b 9e ad 09 be 51 d1 e2 3d
       0.014722217 0.0053121806 -0.13445136 0.1107508
0000f0 45 58 47 be e7 b3 37 bd 47 fa c8 3d 1b 36 1a bd
       -0.19467266 -0.044849303 0.098133616 -0.037649255
000100 cb 99 95 be db be 5e be 15 a2 10 be 9d 08 98 3e
       -0.29218897 -0.21752493 -0.1412433 0.2969407
000110 34 c0 f0 3d 65 36 d3 bd 36 6f 50 3a 02 ec 1d 3e
       0.1175541 -0.10313109 0.0007951142 0.15422061
000120 a1 fa 43 3e 21 53 59 3e f4 ee 89 3e 50 16 02 3d
       0.19138576 0.21223117 0.2694012 0.03175956
000130 4b 4b d0 bd c5 3c ec 3e ee 6c ef 3d b9 9d 17 3e
       -0.10170611 0.46140113 0.116906986 0.1480626
000140 eb a2 de 3d 88 14 f6 be b0 b0 c5 3d bb 11 36 3d
       0.10870918 -0.4806254 0.09652841 0.044450503
000150 95 bf 03 3a 66 7a 91 3b a9 75 28 3d 83 9f 70 bb
       0.00050258014 0.00443964 0.041127834 -0.003671617
000160 52 6e e7 3b 6e 78 2c bd 5f 09 91 bd 00 f1 2e bd
       0.0070627118 -0.04210704 -0.070818655 -0.042710304
000170 e1 6a 8a bd f2 48 20 bd c3 7b a5 bd 0d 11 13 3d
       -0.06758667 -0.039132066 -0.08080246 0.035904933
000180 d5 14 3c bd 05 25 2c 3e c6 30 a6 bd a6 a3 fd 3d
       -0.045918304 0.16810997 -0.081147715 0.12384729
000190 e6 d3 16 3e d5 9e b6 3d 9c 41 13 bd df 94 88 bc
       0.1472927 0.089170136 -0.03595124 -0.01667255
0001a0 13 41 08 3d bc 8e bb bd 4c d2 31 3d 70 a9 f7 3b
       0.033265185 -0.09158084 0.043413445 0.0075580403
0001b0 31 73 8b 3e c2 0d af be f3 c9 bd 3d 4d e4 6a bd
       0.27236322 -0.34190184 0.092670344 -0.05734663
0001c0 c2 16 58 bd d1 22 07 3e 05 63 43 3d 7d a8 e0 bb
       -0.05275608 0.13196875 0.047701854 -0.006856023
0001d0 c0 2e 9f bd db bd 63 3c ed ea e9 3b 50 4a be 3c
       -0.07772589 0.013900246 0.007138601 0.023228794
0001e0 b8 2b 23 3d 31 f8 71 bd 0b 21 89 bd 24 8e 1f 3d
       0.039836615 -0.059074584 -0.066957556 0.038953915
0001f0 7d b3 8a bd 91 94 80 3e bd 6a 94 3c 2b 76 cf 3b
       -0.06772516 0.25113347 0.018117303 0.0063312254
000200 07 e5 6f bd 48 73 52 be f8 c8 6e bd 31 55 bc 3c
       -0.058568027 -0.20551789 -0.058297127 0.022989841
000210 c9 18 b1 bc 9f 8f c6 bd ff 6c 51 3d 49 3f 33 3e
       -0.021618264 -0.09695362 0.051129337 0.1750461
000220 25 4d ee bc 70 70 34 be e0 54 c8 3d e1 4a 8c 3d
       -0.02908952 -0.17621017 0.097818136 0.068502195
000230 6e 4b a0 3b 78 5f 77 3e 21 56 21 bf 1f 5e 0d bc
       0.0048918044 0.24157512 -0.6302205 -0.008628397
000240 45 0d 34 bd fe 98 29 3e 33 d0 c2 3c 12 2e f0 3d
       -0.043957967 0.16562268 0.023780918 0.11727537
000250 8c ba 06 3d b6 d8 cb bd 94 e0 97 bd b7 ca c7 bd
       0.03289275 -0.09953444 -0.07415882 -0.09755462
000260 bc 5d eb 3d 14 b6 36 3e 11 0b 0b bd 65 cf 1a bf
       0.11492488 0.17842895 -0.0339461 -0.6047271
000270 6a 8a 98 be 94 5d c4 3d 8c f6 87 3b 51 76 6f bd
       -0.29793102 0.09588161 0.0041492637 -0.058462445
000280 29 3f 9a bd 2a d8 3f bd ab ff 87 bd 74 ea 77 bd
       -0.07531578 -0.04683701 -0.06640562 -0.060526326
000290 e7 03 9a bd b0 7d 68 3e 25 63 41 3c da 9b 39 be
       -0.075202756 0.22704196 0.011803423 -0.18125859
0002a0 22 56 d2 3d 8b 84 21 bc 3e 98 23 3a 43 6f 80 bd
       0.10270335 -0.009858261 0.00062406424 -0.062712215
0002b0 64 1b 7b bc 2e dd 35 3e 93 b9 07 3e 29 37 6a bd
       -0.015326355 0.17760155 0.13254385 -0.05718151
0002c0 cc 2b 3c 3e b6 82 a0 bc 52 10 53 3d 5c 21 e4 bd
       0.18376082 -0.019593578 0.051529236 -0.11139175
0002d0 f7 c6 22 3d ee ab 39 bd af ee b8 bc 5d fd 71 bd
       0.03974053 -0.04532998 -0.02257475 -0.059079517
0002e0 1e 91 ec 3d af c6 a6 bc 6b 63 91 3d f6 11 15 3d
       0.115511164 -0.020358412 0.070990406 0.036394082
0002f0 88 10 42 bd 5a 7b cb 3d 5e 96 80 3e 11 40 77 3d
       -0.047379047 0.09935637 0.2511472 0.060363833
000300 3a 2b 65 be 7f ed bd 3b a2 89 8d bd 23 c6 95 3d
       -0.22379771 0.005796134 -0.06911017 0.07313182
000310 dc 8c fe bd 0c 3a af bd e0 ee db bc 81 87 20 3e
       -0.124292105 -0.085559934 -0.026847303 0.1567669
000320 8a a2 7b bc 9d a7 67 3d 22 b1 a4 bd 82 a8 75 3e
       -0.015358577 0.056556333 -0.08041598 0.23990062
000330 e4 ce 4a 3d f1 9d 80 bc b6 ef d5 bd a0 97 cd 3d
       0.049513713 -0.015700312 -0.10446112 0.10038686
000340 02 b8 cb bd 74 98 cf bd 05 de 82 bc 42 2f 23 bd
       -0.09947206 -0.101365 -0.015975008 -0.03983999
000350 61 5a c7 3d be af 9e 3c b4 c8 19 be 2d 8f 42 3c
       0.09734035 0.01937091 -0.15017968 0.011874956
000360 f3 46 0a bd 1d f8 f9 bc ff 06 8a be 25 1e 05 3c
       -0.03375907 -0.030513817 -0.26958463 0.008124863
000370 24 6b a0 bd 30 80 63 3e cf 57 a5 be 0a 2f db be
       -0.078329355 0.22216868 -0.32293555 -0.42809325
000380 e9 27 62 3c 72 0e c2 be 0a 4a a6 bd da e2 40 3d
       0.013803461 -0.37901646 -0.081195906 0.047091343
000390 46 ed ee 3c 0f 3f 7c bd ed bc 87 3e c9 13 ce 3d
       0.029165875 -0.061583575 0.26511326 0.100623675
0003a0 e1 89 e7 3b 80 8b 80 3d 18 9c 63 bd c3 b2 87 3e
       0.007065997 0.062766075 -0.055568784 0.26503572
0003b0 06 ba 0b 3e b9 97 3a 3e e6 0c 87 be a8 ca 8f bc
       0.13645181 0.1822194 -0.26377028 -0.017552689
0003c0 3a 0a 09 bd 82 47 5d 3e 37 0c 2b bf 86 3e bb bd
       -0.03345702 0.2160931 -0.66815513 -0.09142785
0003d0 3c ad aa 3d 53 4c b9 bc ad 8a ef bd dd 4b 84 3e
       0.08333823 -0.022619402 -0.11696372 0.2583913
0003e0 20 40 92 bd 21 17 a8 3c a5 22 85 3b ae 7d 98 3c
       -0.07141137 0.020518841 0.004062968 0.018614616
0003f0 a0 e5 ab be fa cd aa bd d1 40 e5 be 3b fd 51 be
       -0.33573627 -0.08340068 -0.44776013 -0.20506756

fc3.weight f4 [256, 256]
000000 1c 9b 2c 3d 29 c1 92 be c6 b7 42 bd c8 75 cb bd
       0.04214011 -0.28662995 -0.04753854 -0.09934574
000010 3a d3 e3 3c 71 ce 1b be 6d 3b 1f 3d 98 4f 25 bc
       0.027810682 -0.1521547 0.038875032 -0.010089777
000020 e6 cb 94 3d e5 d3 a6 bd d5 e4 29 bd ed c7 b1 bd
       0.07265453 -0.081458844 -0.041477997 -0.08680711
000030 ac 4d 6f bd 77 49 9a ba b0 80 4d bd b4 4b 84 bd
       -0.058423683 -0.0011771162 -0.050171554 -0.06459752
000040 1f 6c 2b 3e c9 df b5 bb 78 d5 df bd 4d ef 2c bd
       0.16740464 -0.005550359 -0.10929388 -0.042220403
000050 1c 00 7e 3d 2b 5d 1c bd 97 3d 8b bc bf 22 4c bd
       0.062011823 -0.03817479 -0.016997142 -0.049837824
000060 97 00 ad bc f4 36 1b bd 0d 26 80 bc 6a 8b c6 3c
       -0.021118445 -0.037894204 -0.015643144 0.0242364
000070 3f 69 51 3d 56 40 4d be e0 6e 2a 3d 4c 92 62 ba
       0.05112576 -0.20044073 0.041609645 -0.0008643016
000080 40 43 15 bd 19 b5 fa 3c a2 23 80 be c4 e3 85 3e
       -0.036441088 0.030603932 -0.25027186 0.26150334
000090 03 a6 a6 3c c8 92 84 bc b6 ba 0e bd 71 be cc bd
       0.020342832 -0.016183272 -0.03484603 -0.09997261
0000a0 e3 b1 b0 bd cb 59 b4 3b 27 14 d5 bb df b4 38 3d
       -0.08627679 0.005503868 -0.0065026465 0.045094367
0000b0 9d 68 89 3d 01 73 36 bd e1 3c 57 3d 9b e6 44 3d
       0.067094065 -0.04454327 0.052548293 0.048071485
0000c0 2c 6b 51 be 28 ad c1 3c c0 31 9b bb 28 df f0 bc
       -0.20451039 0.023642138 -0.0047361553 -0.029403284
0000d0 f5 2b 29 be 8d 99 fd bc 8b 60 e9 bd 20 2f 27 3b
       -0.16520675 -0.030957008 -0.11395367 0.0025510266
0000e0 91 6f 49 3d 34 0a 1a 3c 2f b0 45 be 7b d1 d4 bd
       0.049178664 0.009401847 -0.1930549 -0.10391518
0000f0 31 d9 38 be 56 06 e7 bc 92 82 60 be dc 12 09 bc
       -0.18051602 -0.028201263 -0.21924809 -0.008366313
000100 85 c6 0b 3d 40 a1 00 bd 02 6d f8 3c 5a 24 05 bc
       0.03412487 -0.03140378 0.030325416 -0.008126343
000110 78 41 99 bd 1f b5 72 3c 90 75 46 3d f2 89 1f 3c
       -0.0748319 0.01481369 0.04845196 0.009737479
000120 22 7a a3 bd a8 79 c7 bb c0 4e cd bd bf 71 19 bd
       -0.07982279 -0.0060875006 -0.10024786 -0.037461992
000130 5b 29 b8 bd 23 51 99 be c0 5c 1a be 77 8b 28 be
       -0.08992263 -0.29944715 -0.15074444 -0.16459452
000140 ca ec bf bd 53 b8 3b be b0 40 33 bb 41 d5 03 be
       -0.09371336 -0.18332033 -0.002735179 -0.12874319
000150 a9 6b c8 3c 40 9a 24 bd 97 c5 b7 3b 01 b2 09 3d
       0.024465399 -0.040186167 0.0056082713 0.033617023
000160 e9 56 31 3e 89 73 9e 3c 04 10 aa 3b 65 70 5c 3d
       0.1731831 0.0193422 0.0051898975 0.053818125
000170 16 c9 9e 3d b1 d1 5f bd 00 56 4c bd f2 42 c6 bd
       0.07753198 -0.054643337 -0.049886703 -0.096807376
000180 6f f5 67 3d 7f b9 9b bd fa aa 00 be 2b 34 90 bd
       0.056630548 -0.0760374 -0.12565222 -0.070412
000190 a3 cb ec bd 20 e5 03 bd aa b4 18 3b 08 ee 5e bd
       -0.11562278 -0.032200933 0.0023301044 -0.054426223
0001a0 42 42 5a 3b 3f 13 92 bb 35 ad 97 3c d7 f1 fd bb
       0.0033303653 -0.0044578607 0.018515209 -0.007749777
0001b0 77 f5 ce bd 44 6d 18 be a2 2d 95 bc d5 0b 4b be
       -0.101054125 -0.14885432 -0.018210236 -0.19828732
0001c0 1b e3 4c bc 35 e7 59 3d 71 de 00 3d e4 58 c7 bc
       -0.012505318 0.05319901 0.031462137 -0.024334379
0001d0 c3 33 82 bd bc e4 36 be 25 cc fb bd e1 b0 0f 3d
       -0.06357529 -0.17860693 -0.12294797 0.035080794
0001e0 8f ff 98 3d c5 3e 51 bc f8 c3 76 3d 30 21 50 3d
       0.07470619 -0.012771313 0.060245484 0.0508129
0001f0 86 f6 c8 bb 70 b1 bf bd c9 a2 6d bd 58 16 2c 3c
       -0.0061329035 -0.093600154 -0.058016572 0.010503374
000200 67 25 00 bd d0 e6 ba bc eb 56 b9 3c f1 f5 70 3d
       -0.03128567 -0.022815138 0.022624454 0.058828298
000210 7d bd ce bc cc b9 3d 3d 5e 94 a2 3c 17 11 80 3d
       -0.02523684 0.046319768 0.019846138 0.0625326
000220 56 8e 0f 3d c1 79 0c be 1c ff 0d bd 0b a1 8b be
       0.03504785 -0.1371832 -0.03466712 -0.27271304
000230 91 34 4b bd a3 40 be bc 05 03 48 bd c6 1f 4d bd
       -0.049610678 -0.02322418 -0.048831005 -0.05007913
000240 e7 d0 c0 bc a6 46 95 bd f6 5d 60 b9 84 89 0b 3d
       -0.023537112 -0.07288866 -0.00021397308 0.034066692
000250 af cf 0e bd d6 a9 fa 3c c3 aa 88 bd 06 a9 2a 3c
       -0.03486603 0.030598562 -0.06673195 0.010416275
000260 e9 6c 42 bd 35 ed 83 bc d2 4d 73 3d dd 4b ad bd
       -0.047467146 -0.01610432 0.059400387 -0.084617354
000270 b5 23 17 be d8 19 e7 bd 36 2c 87 bd 7d 43 b4 3c
       -0.14759715 -0.11284226 -0.066002294 0.022004837
000280 e0 b2 45 bd 44 11 37 3d 3f c0 be 3b 07 97 21 3e
       -0.04826629 0.0446942 0.0058212574 0.15780269
000290 5c 97 46 bc 82 94 86 bc d2 52 11 3d 71 a3 a8 3d
       -0.012121048 -0.016428236 0.035479374 0.08234299
0002a0 f1 6f 17 3d 68 8e e8 3c 3d 9d 55 bd 73 12 11 be
       0.03697199 0.028388217 -0.052151907 -0.14167194
0002b0 13 bc 3f 3c d7 14 8a bd 2f fd 9e bd 9d 74 91 3d
       0.011702555 -0.06742256 -0.07763135 0.0710232
0002c0 94 e4 dd bd 6e bd 6d bd e8 84 80 be dd c9 69 be
       -0.108346134 -0.058041982 -0.251014 -0.22830911
0002d0 f9 39 82 3d 99 62 ca bc 4c 1b 55 3d 5f 57 b7 3c
       0.06358714 -0.024705218 0.052027985 0.022380529
0002e0 f3 25 87 bd 73 bc 03 bd f7 2d 94 bd ee 1c b4 3c
       -0.06599035 -0.03216214 -0.072353296 0.021986451
0002f0 a2 20 a6 3c 31 3a 89 bd b7 56 2f 3d d5 8b 32 3c
       0.020279232 -0.06700552 0.042807307 0.010897596
000300 d4 99 e7 bc d6 a6 38 bc b3 cf 83 bd 76 5b 60 bd
       -0.028271593 -0.011270246 -0.064361 -0.054774724
000310 71 2b 8a bd b5 8f c1 bc 1c 20 03 bc c2 36 bc bd
       -0.06746567 -0.023628095 -0.008003261 -0.09190132
000320 7c 48 60 bb 24 31 e2 bd 8b d3 e1 3c 8d 99 49 3d
       -0.0034222892 -0.11044529 0.027566692 0.049218703
000330 10 0f 29 3d b4 24 43 bc 48 0c 9a 3c a2 95 bd ba
       0.04127413 -0.011910606 0.018804684 -0.001446415
000340 0d cc 59 bd 90 19 c0 3c ab e1 af 3b 86 cc e2 bd
       -0.053173114 0.02344969 0.005367478 -0.11074166
000350 ce 69 9f bc 41 7b 3f be 02 03 08 be 81 49 72 3b
       -0.019459631 -0.18699361 -0.13282397 0.0036970081
000360 b2 0d 7e bd 35 44 89 bd f5 04 8a be 84 b5 09 bd
       -0.06202478 -0.067024626 -0.26956907 -0.033620372
000370 72 4e fc bc 16 87 c6 bd c1 df 1b bd c5 41 eb bd
       -0.030799124 -0.09693734 -0.038055185 -0.11487154
000380 cf b5 0b bd ea 60 4e be 20 c9 f6 bd 30 c5 5a bd
       -0.034108933 -0.20154157 -0.1205008 -0.05341071
000390 8e e5 d8 3d be 21 27 3c 50 03 06 3e 7d 91 ef bb
       0.10590659 0.010200916 0.13087201 -0.0073110447
0003a0 57 27 70 3d ad cd 5a bd d9 d0 85 bd 3b 1d 08 be
       0.058631267 -0.053418804 -0.06533975 -0.132924
0003b0 ac 37 36 be ac 57 f3 3c 8b bf e2 bd d7 08 27 3d
       -0.17794675 0.029704891 -0.1107169 0.040779915
0003c0 c6 cc bc bd 49 79 47 be bf f7 2f bc 73 f1 af 3c
       -0.09218745 -0.1947986 -0.01074022 0.021477437
0003d0 e1 f7 8c be 9b 8b 80 3c c5 f4 9c 3c db 77 82 bd
       -0.27532867 0.01569157 0.019159684 -0.06370517
0003e0 5b 68 20 bd 73 cc 93 bc 36 e0 4d 3d cb 77 0e 3c
       -0.03916202 -0.018041825 0.050262652 0.008695553
0003f0 9d 4a 3c 3c e7 8d 4b 3d d5 96 df bd 1c d3 b8 be
       0.011492399 0.049695875 -0.10917441 -0.36098564

fc3.bias f4 [256]
000000 35 a3 fc bc 43 e4 cd bd 26 25 79 3d e1 1d 87 3c
       -0.030839542 -0.10053303 0.060826443 0.01649374
000010 7f 2f a0 3d 6d de ba bd a5 09 b7 bc 87 8d 11 be
       0.07821559 -0.091244556 -0.022343466 -0.14214145
000020 d6 9f ec bd 06 d8 b7 bc e9 3e 14 3c 46 f4 ba 3c
       -0.11553924 -0.022441875 0.009048202 0.022821557
000030 7c e2 3d 3e a6 91 98 3e 0e c5 c9 bd df 90 32 bd
       0.18543428 0.2979862 -0.09852038 -0.04359519
000040 1c bd 19 be 44 75 20 3e 79 ad db bd 30 5f 12 3e
       -0.15013546 0.15669733 -0.10726447 0.14294124
000050 a9 96 26 be ec 03 1a 3e da 1e 9e bd 0e c1 0f 3e
       -0.1626841 0.15040559 -0.07720728 0.14038488
000060 9c 97 0c 3d 30 72 b2 bd 84 8d 07 be 35 06 10 3e
       0.034324273 -0.08713186 -0.13237578 0.14064868
000070 85 d0 d6 bd ad 58 0b bd 12 91 95 bc 25 f5 d5 3d
       -0.10488991 -0.034020115 -0.018257651 0.10447148
000080 1f e5 f6 bd eb 46 10 3e 05 06 dd 3d 78 09 f0 bd
       -0.1205542 0.14089553 0.10792164 -0.11720556
000090 a7 8d c7 3d c6 e8 01 be 15 ad e3 bd 96 a6 40 3d
       0.09743815 -0.12686452 -0.11116997 0.04703387
0000a0 f5 d2 bf 3e 52 44 c8 3d af f8 81 3d c2 37 10 3d
       0.37465635 0.09778656 0.06346261 0.035209425
0000b0 2b cd 3d 3c 38 71 7b 3d 9e 84 f3 3d 8b e6 86 3e
       0.01158456 0.06138727 0.11890529 0.26347765
0000c0 7d 5c 7e b9 02 17 6e bd 62 01 0e 3d 63 69 c0 bd
       -0.00024257782 -0.05812741 0.034669288 -0.09395101
0000d0 70 c7 92 3d 7c d0 53 3c 4f 73 57 3b b4 01 14 3e
       0.07166946 0.0129281245 0.0032875126 0.14453775
0000e0 09 1f 29 bc 1f ba 16 3d 77 8b 55 bd 9a 2e 9c bd
       -0.010322341 0.036798593 -0.052134957 -0.07626076
0000f0 d1 7e de 3c 4a fd 18 be d8 32 aa 3d ac a1 31 3e
       0.02716008 -0.14940372 0.08310479 0.17346829
000100 22 36 78 3e b8 ea 42 3e d4 83 86 3d 1d 99 72 be
       0.242394 0.1903485 0.06568113 -0.2369122
000110 92 f7 01 3d 03 6f 03 be 70 e2 2b bb 71 a3 f2 bd
       0.031730242 -0.12835316 -0.0026227497 -0.1184758
000120 e0 8c a0 3d 13 12 c6 bd 20 2f 9b be e5 c8 15 be
       0.0783937 -0.09671416 -0.3030939 -0.14627416
000130 06 11 9b bc a6 94 61 3d e5 66 c0 bd 00 9f a7 bd
       -0.018929016 0.055073403 -0.093946256 -0.08184624
000140 d6 a4 a5 bd d8 fa 9a bd 49 2c 4b 3e 68 20 21 3b
       -0.080880806 -0.07567376 0.19841112 0.0024585966
000150 7e 2c ae 3c 8f 4a b8 3d 99 4d cd bc ce 32 bd bd
       0.02126145 0.08998596 -0.025061416 -0.09238206
000160 2a 87 f6 bc 8c 23 f0 bc e7 02 e2 bd 39 e4 da bc
       -0.030093748 -0.029313825 -0.1103571 -0.026720153
000170 bd 08 e1 bc ce 36 d8 bd 8e ac 2d be 01 db 01 bd
       -0.027469987 -0.10557328 -0.16960356 -0.031703
000180 90 83 9c bd 9e 5c 39 bd 71 35 0a bc e9 ce b7 3d
       -0.07642281 -0.045254342 -0.008435593 0.08975012
000190 0a a2 3d bd a5 99 df bd 5d c4 03 bd 55 db de 3c
       -0.04629711 -0.10917977 -0.03216969 0.027204195
0001a0 44 55 da bd 2d a2 89 3c 17 a1 65 3e 69 78 82 bd
       -0.106607944 0.016800964 0.22424732 -0.06370623
0001b0 4f 50 45 be 97 10 ee 3c 1f ff ab bd 34 0b 3f bb
       -0.19268917 0.029060645 -0.0839827 -0.0029150965
0001c0 74 a7 cc bd a7 78 06 3e c5 68 00 3e 1d 5e c5 bd
       -0.09992877 0.13131963 0.12539966 -0.09637091
0001d0 07 04 c5 bd c4 b4 85 bc 59 36 a7 bc e5 0e 24 bb
       -0.09619909 -0.016321547 -0.020411657 -0.0025033292
0001e0 81 eb d2 bd 5c aa 89 3e f5 a6 eb bd db 63 12 bd
       -0.10298825 0.26887786 -0.11506454 -0.03573976
0001f0 c3 e4 71 3e 66 b0 3d 3d c6 c5 3f 3b b3 7b 1c bd
       0.23622422 0.046310805 0.002926217 -0.038203906
000200 b8 c7 bd 3d 51 65 2d 3e 14 f2 9a bd e8 50 58 bd
       0.09266609 0.1693318 -0.07565704 -0.052811533
000210 20 c4 b2 3d 85 af 62 be 20 32 04 3e b1 34 d1 bd
       0.08728814 -0.22137268 0.12909746 -0.10215128
000220 d4 4c a4 3d 42 13 89 3e 61 d5 e8 bb 09 f1 c5 bd
       0.08022466 0.26772505 -0.007105515 -0.096651144
000230 d0 42 f4 bd 33 28 5f 3a 44 96 6d bd 00 15 8d bd
       -0.11926806 0.0008512765 -0.058004633 -0.06888771
000240 2d bb a9 3d f2 a1 67 bc 0c d0 08 be f8 74 f1 bd
       0.08287654 -0.014137732 -0.13360614 -0.11789888
000250 6f 52 a7 bc 11 b9 f0 3c fa d7 f0 bc f8 5b d1 3c
       -0.02042505 0.029385122 -0.02939986 0.02555655
000260 08 c4 17 3d dd 71 ae bc 98 fb a5 bc fb 11 ee 3c
       0.037052184 -0.021294529 -0.02026157 0.029061308
000270 28 4c dd bc c6 a2 8e 3d 76 b1 8b bd 9b df d9 bc
       -0.027013853 0.0696464 -0.06820957 -0.026595881
000280 fa 05 28 3c 51 c4 f3 bd d7 9d c8 3d 24 09 89 bd
       0.010255331 -0.11902679 0.097957306 -0.066911966
000290 ed ed 8e be c7 65 d9 bd 88 fa 00 3e 99 51 dd 3a
       -0.27915898 -0.106151156 0.1259557 0.001688528
0002a0 e5 99 00 3d 9a ab ce bd b6 ed bd 3d eb 84 29 bd
       0.031396765 -0.10091324 0.092738554 -0.041386526
0002b0 d6 cb 9d bd 9b 3a 6a bd ab ce 06 3a bf c0 90 3e
       -0.07704894 -0.057184797 0.000514249 0.28272054
0002c0 8d 57 9c 3d 7b 59 90 3d 2a 5e d6 bc 13 d7 be bd
       0.076338865 0.07048317 -0.026167948 -0.09318366
0002d0 77 80 81 bd bd 70 a0 bc c6 7a 4c bd e0 7b 2d bd
       -0.06323331 -0.019585008 -0.049921773 -0.042354465
0002e0 19 d4 d7 3b 0d be 70 bd 03 80 47 be 5e 7f 95 3e
       0.0065865633 -0.058774997 -0.19482426 0.29198736
0002f0 ff ce 80 bb 3d 28 c5 bd 57 8b a1 bd 6e be b3 3a
       -0.003930926 -0.096268155 -0.07887905 0.0013713369
000300 1d b3 fb bd 9c b5 80 bd 49 29 03 be 3c dc 40 3c
       -0.122900225 -0.06284639 -0.12808718 0.011771258
000310 cf 48 01 be 6d dc 39 bd 80 b6 e7 bc 10 e1 52 bd
       -0.1262543 -0.04537623 -0.028285265 -0.051484168
000320 f4 8c f4 3c 1c 13 b0 bd 30 33 95 bc da d1 36 bc
       0.029852368 -0.08597395 -0.018212885 -0.011158431
000330 8f 8c b4 bd 34 68 c1 bd 82 b5 30 3d 2d 5e 1d bd
       -0.08815872 -0.09443703 0.04314185 -0.03841989
000340 f1 5b c8 ba d6 0c f9 bb a3 20 a0 bc 67 ab 5d be
       -0.001528619 -0.007600407 -0.019546812 -0.21647416
000350 16 6c a2 bd a7 e6 e2 bd f5 0e 95 3d ac a0 9b bd
       -0.07930772 -0.1107915 0.072782435 -0.07599005
000360 c9 7c 0f be 17 c1 da 3a a6 f8 2e 3e 28 48 d6 3d
       -0.14012446 0.0016689625 0.1708704 0.104629815
000370 75 bf 1f be c5 4e 12 3e 16 52 7d 3d f2 70 19 3e
       -0.15600379 0.1428786 0.06184586 0.14984491
000380 2b 71 91 3d 54 58 f4 bd d9 5f f7 3c 6e 1d 07 bd
       0.07101663 -0.1193091 0.03019707 -0.03298705
000390 4f 1e 29 be 95 18 11 3e 66 15 b8 3d 3f 70 6c bd
       -0.16515468 0.14169534 0.089884564 -0.057724234
0003a0 8d 06 43 3d 8c c1 58 bc 0a d6 b4 bd 91 d2 91 3d
       0.04761367 -0.013229739 -0.08829887 0.071202405
0003b0 9e b7 3d 3d 95 3c fd 3d 4f 7b ba 3e a1 8b c2 3d
       0.04631769 0.12365071 0.36422202 0.09499288
0003c0 61 45 8f bd b3 96 25 3e c2 73 82 bd d0 cf 29 be
       -0.06995655 0.16170768 -0.06369735 -0.1658318
0003d0 80 e7 0a 3d 09 d8 4f 3c ef c0 1a bc 49 b1 8c bd
       0.03391218 0.012685784 -0.009445413 -0.06869752
0003e0 bf 21 b6 3c f3 81 36 be 48 d3 08 be e6 10 28 3b
       0.022232888 -0.17823009 -0.13361847 0.0025644838
0003f0 e8 c3 04 bd c4 78 6e 3d 53 e6 fd bd da e5 0d 3e
       -0.032413393 0.05822064 -0.123974465 0.13857213

action_out.weight f4 [4, 256]
000000 a9 bd ad bd 5f 7f 36 be 8f d7 0f 3e 5f 49 9a 3d
       -0.084834404 -0.17822026 0.14047073 0.07533526
000010 2f 64 26 bd 96 ef d9 bd b5 ed 37 3d a1 6c 7d bd
       -0.040622886 -0.106414005 0.04490443 -0.061871175
000020 10 24 02 be 66 2d 51 3e 7c c4 67 3e 4d ca 44 3e
       -0.12709069 0.20427474 0.22633547 0.19217797
000030 c0 8f 6c 3e 4f 65 63 bd e2 10 23 3c 17 7a 36 bd
       0.23101711 -0.055516537 0.009952756 -0.044550028
000040 16 a5 02 3e 79 f9 7e 3d ed 33 b9 3d b2 98 11 be
       0.12758288 0.062249634 0.09043107 -0.14218405
000050 17 10 fe 3c 4a a7 96 bc 09 1f 88 3d 6c e4 86 3e
       0.031013532 -0.018390317 0.066465445 0.26346147
000060 4b 55 2c 3f 27 08 ec 3c dc 0c 0e 3e 67 11 e4 bd
       0.67317647 0.028812481 0.13872093 -0.11136132
000070 fd aa 37 3d fd c2 0d 3f e7 45 89 3e 7a 5f de 3e
       0.0448408 0.55375654 0.26811144 0.43432218
000080 d5 9d 80 bc 36 33 9f 3d 4c bb 59 be b2 0d 78 3d
       -0.01570026 0.077734396 -0.21262854 0.060559936
000090 11 fc a6 3e b8 b9 22 3b 35 38 5f be 0c 4d 0c bd
       0.32614186 0.0024829935 -0.21798785 -0.034253165
0000a0 6e 55 8f bc b9 38 1d 3f 3a 8e fe 3d a4 0e 25 3e
       -0.01749679 0.61414677 0.12429471 0.16118866
0000b0 4a c0 e5 be 8d 43 7d 3e 87 40 81 bd 4c eb 49 3c
       -0.44873267 0.247328 -0.06311136 0.012324166
0000c0 ea 99 c0 bc 69 18 39 3f 82 06 7b 3e 27 fe 2a bc
       -0.023510892 0.7230287 0.24514201 -0.010436571
0000d0 97 df 1e be ed e8 3a 3e 18 85 1c 3e 5b 56 9a 3d
       -0.1551498 0.18252917 0.15285146 0.07536002
0000e0 93 d6 f1 3c a1 5f d3 bc 58 98 9e 3d 85 9e 8c 39
       0.029521262 -0.025802435 0.07743901 0.00026820987
0000f0 92 40 4a 3e 05 d3 9e 3e 53 7f 01 be 0c 60 c6 3c
       0.19751194 0.3102037 -0.12646227 0.02421572
000100 66 0b c4 bd 18 13 8c 3e 46 bf 74 bd 8b 8f ad be
       -0.095724866 0.27358317 -0.059752725 -0.33898577
000110 cc 7f 3d be 53 20 1a bd 7a 84 cd 3d 8b e6 f0 3c
       -0.18505782 -0.037628483 0.100350335 0.029406806
000120 31 5f ff 3d 2c f8 4e 3d 70 58 2f bd a7 23 86 3d
       0.12469328 0.050529644 -0.04280895 0.06549769
000130 ed c7 06 bd a1 02 44 3e 71 87 8e bd c2 0c 81 be
       -0.032905508 0.19141628 -0.06959427 -0.25205046
000140 7f 6e a9 bd c9 97 fe bd 93 47 63 be 70 ec da be
       -0.082730286 -0.124312945 -0.22195272 -0.42758512
000150 91 b2 84 bd 40 6f a7 bd a0 a9 07 3e 5e a0 bc bc
       -0.06479371 -0.08175516 0.132483 -0.023025688
000160 60 1b b1 bd 19 35 a1 3c a8 8b 88 bd d9 02 d3 be
       -0.086477995 0.01967864 -0.06667262 -0.4121311
000170 98 7a 80 3d 42 d2 44 3e 4b f2 ef bc f1 b9 a7 bd
       0.06273383 0.19220832 -0.029290339 -0.081897624
000180 ee a2 15 be 76 c7 a7 ba 88 af 90 3d 90 1b e2 3d
       -0.14612934 -0.0012800533 0.0706473 0.110404134
000190 b7 38 3a bc 96 9c a4 bd 76 df ff 3b 84 81 fb bc
       -0.011366061 -0.08037679 0.007808621 -0.030701406
0001a0 51 91 24 3d cc 2f 16 3e cd 37 98 3d 32 f2 c7 3c
       0.040177647 0.1466667 0.07432518 0.02440748
0001b0 17 2b 53 be 9b b4 86 be 5e 2e 66 bd ed c5 2f be
       -0.20621906 -0.26309666 -0.056196563 -0.17165346
0001c0 8c 47 97 be 07 b4 fe 3e 32 e9 36 be b0 ad 4f 3d
       -0.29546773 0.49746725 -0.17862394 0.05070275
0001d0 dc fb 21 3c 7f 70 1c bb 6a da 59 be 1d 36 f7 be
       0.009886708 -0.0023870764 -0.21274725 -0.48283473
0001e0 f0 12 7f 3c 97 6d f2 bb df 03 6d bd 04 bd 2e bd
       0.01556848 -0.007398318 -0.05786502 -0.042660728
0001f0 64 d3 85 bd e1 5a b5 3e fc 1f 0f 3c ba f8 2a be
       -0.0653446 0.35420898 0.008735653 -0.16696444
000200 28 68 08 be 94 28 0a 3d b6 7b 5f be f1 1e f7 bd
       -0.13320982 0.033730105 -0.21824536 -0.120664485
000210 9f 8e 70 be 27 dc c6 be d4 0c fe 3d ee 51 26 bc
       -0.23491906 -0.38839838 0.124047905 -0.0101513695
000220 a9 9d 3f bc e4 ac d8 bc 80 9d c9 3e 02 ed 0d be
       -0.011695304 -0.026449628 0.39377975 -0.13859943
000230 df 40 2e bd 04 c8 ab 3e 10 65 2f 3e 84 58 55 3d
       -0.042542335 0.33551037 0.17128396 0.05208637
000240 e7 d5 0b be df 7c 94 3d a2 be 47 bd af 82 8c bd
       -0.13655816 0.0725038 -0.048765786 -0.068608634
000250 2d 94 f6 3c 9f 10 cd bc 54 bf ae 3d f7 6b 60 be
       0.030099953 -0.02503234 0.08532587 -0.21916185
000260 44 9b 3a be 40 e2 9e bd c3 73 fa 3c b8 77 59 3d
       -0.18223292 -0.077579975 0.030572778 0.05309269
000270 9e 14 10 be 6d fb a4 be 7f 7b 11 3e a7 46 37 3e
       -0.14070365 -0.32223073 0.14207266 0.17898045
000280 db c3 70 bd ec 5e 51 bb 36 6f 84 3b 4f a5 23 bd
       -0.058780532 -0.0031947447 0.0040415777 -0.039952572
000290 39 c2 58 be 59 f8 b0 bd cc 55 8b 3e 1b 43 3c 3d
       -0.2116784 -0.086411186 0.27213895 0.045962434
0002a0 32 83 7b 3d 7a 5b 0d 3e 64 84 4f 3e 07 49 c8 bc
       0.061404414 0.13804427 0.20265347 -0.024448885
0002b0 a1 48 48 be ff 32 5a 3e 2c 97 20 3e e1 55 34 3e
       -0.19558956 0.21308516 0.15682667 0.17610885
0002c0 4f 64 d0 3d 54 3e 21 bd 95 27 41 bd 57 63 28 3c
       0.10175382 -0.03936608 -0.04715689 0.010277591
0002d0 be 45 76 bd d3 20 69 3c c8 70 88 bd 4c e4 5b bc
       -0.060125105 0.014229017 -0.06662136 -0.013421129
0002e0 d2 8a 72 3b e7 ad af 3d 4e 79 a0 be 1d dd e1 3d
       0.0037009013 0.08578091 -0.31342548 0.11028502
0002f0 d8 d0 6f bf 3d 70 b8 3d 27 ac a2 3d 41 b0 6b 3b
       -0.93678045 0.09005783 0.07942992 0.003596321
000300 d3 26 69 3c 6e 24 2a 3d 79 c2 ac 3e 9b 6e 39 3c
       0.014230448 0.04153865 0.3374212 0.011317874
000310 fc b6 96 3c 46 21 1b be 09 5e ec 3c aa 26 46 bd
       0.0183978 -0.15149412 0.028853433 -0.048376717
000320 db 3a 6b bd a4 ef 2d bc fc 88 60 3e 1a f1 c2 bd
       -0.057429176 -0.010616217 0.21927255 -0.09518643
000330 44 6c 48 3d 9e 38 93 3d e7 14 2c be 01 40 27 3e
       0.048931375 0.07188533 -0.16804849 0.1633301
000340 ac 5f f0 3e 9e a2 59 3d 8d b5 8d be 5f f1 97 be
       0.46947992 0.0531336 -0.27677575 -0.2967634
000350 d0 69 07 b9 75 11 23 3d 6e cf 2a bc e3 4e fd 3a
       -0.00012914021 0.03981157 -0.010425432 0.0019325878
000360 bc d0 e0 bd b0 d0 5c 3d 5e f1 05 3d 7e 44 19 3d
       -0.10977313 0.053909957 0.03270089 0.037418835
000370 5f b5 27 bd 5b 51 54 be f6 2b 08 3e 81 a5 03 be
       -0.040944453 -0.2073416 0.1329802 -0.12856103
000380 2d 75 1d be 9e 8d 1d bd a4 35 31 be 88 a5 3e 3f
       -0.1537673 -0.038465135 -0.17305619 0.7447133
000390 3b b4 71 3e 7c 3a 77 3e cb 84 8d 3d 58 be cb bd
       0.23603909 0.24143404 0.06910094 -0.099484146
0003a0 af 22 72 3d 2c e8 1d 3e a1 5d 7a bd e9 8f ad 3d
       0.059115108 0.15420598 -0.061124448 0.08474714
0003b0 47 4c 07 be 03 ce 82 be e3 1e 2e be 11 1c 3d 3e
       -0.13212691 -0.255478 -0.1700397 0.18467738
0003c0 fb ff 5b 3e 68 9f 99 be d4 2e 8e 3d 5f e6 0f 3e
       0.21484368 -0.3000443 0.069425255 0.14052723
0003d0 5f 73 ab 3d 44 55 d0 3e 88 63 ed 3d 27 fc 4b 3c
       0.08371615 0.40690053 0.1159125 0.0124502545
0003e0 09 74 8c 3d 66 99 63 be f1 f5 1e 3d 8c 35 98 bd
       0.068580694 -0.22226486 0.038808767 -0.07432088
0003f0 3b 37 72 3e e2 f5 50 3e 0e b8 35 bd 9b 30 3c be
       0.23653881 0.20406297 -0.04436498 -0.18377917

action_out.bias f4 [4]
000000 5a dc 1c 3b 8f 5c dc bb 57 e0 6c bc f4 81 63 bc
       0.002393505 -0.006724901 -0.014457784 -0.013885964
