mujoco_project/saved_models_baseline/FetchPush-v1/model.pt (torch_old, 562038 bytes, 8 tensors)

fc1.weight f4 [256, 28]
000000 56 5b 67 be 0f 43 5c 3d ef e0 f2 bd a1 51 6f 3c
       -0.22593436 0.05377489 -0.11859309 0.014606864
000010 8e 89 a0 be 03 6f 06 bd 1c be 42 be 2c 49 83 be
       -0.31354946 -0.032820713 -0.19017833 -0.25641763
000020 70 de 55 be 27 20 fe bd f1 2a d6 3e 95 0b 61 3d
       -0.20885634 -0.12408476 0.41829637 0.054942686
000030 c2 4a 27 be bb 16 3d bd 44 10 f1 3d b9 9a 2f be
       -0.16337112 -0.046164256 0.117706805 -0.17148866
000040 fa 94 90 3e 5d 56 2a 3d 66 6c 6b be f4 05 9e bc
       0.2823866 0.04158627 -0.2299057 -0.019289948
000050 b7 5e d5 3d 57 ef 30 be 90 33 52 3e f5 d2 7a 3e
       0.10418456 -0.17278801 0.20527482 0.24494536
000060 10 23 34 3c 4d 46 96 3e 5f fd 1d 3e 46 05 30 3f
       0.010994688 0.2935051 0.15428685 0.68758047
000070 2a e6 0b bd ba d6 f9 be c9 47 53 be 69 be 05 3e
       -0.03415505 -0.48796636 -0.20632853 0.13060917
000080 b2 da 07 3f b0 da f4 3d 52 e7 0e 3f 21 cb 82 3f
       0.5306808 0.11955774 0.55821717 1.021824
000090 33 bf 4e 3e 73 06 91 3c bc 6a 58 3c e0 ec 7d bc
       0.20190124 0.01770327 0.013209041 -0.01549837
0000a0 b4 5e 3c 3c 2c da 2a bd db fc 87 3e ba 26 64 3e
       0.011497188 -0.04171197 0.265601 0.22280398
0000b0 aa 28 c6 3a 48 57 a1 bb 4d d3 d9 bb f3 7e 6c bd
       0.001511832 -0.004923735 -0.0066475035 -0.057738256
0000c0 ce ed 96 3e df b4 54 3e 5f 57 e3 bc 6b cf 0b 3d
       0.29478306 0.20772122 -0.027751623 0.034133356
0000d0 f8 5d d9 bd a3 20 07 be b5 cd 3e 3d a8 4e 09 be
       -0.10613626 -0.13196044 0.046582896 -0.13408911
0000e0 ac 89 18 be e0 ea d6 3e 9a 6d 18 3e e4 98 b1 be
       -0.14896268 0.4197607 0.1488556 -0.3468696
0000f0 08 34 d2 bd 38 ba da 3d a9 96 ed be a7 71 3a bf
       -0.102638304 0.1068005 -0.46404007 -0.7282967
000100 d0 c4 dc bd 5c 3e 20 3f ed 22 81 bf b5 c5 d5 bb
       -0.107797265 0.6259515 -1.0088784 -0.0065238127
000110 d2 06 f3 bd 07 ed cd 3d a8 61 6e bc 59 dc a1 bd
       -0.11866535 0.10054975 -0.01454965 -0.07903356
000120 7a de 1a bd 11 b1 db bc 19 56 58 3d a0 11 8b 3c
       -0.037809826 -0.02681783 0.052816484 0.016976178
000130 94 9f 9d bd 2e 00 99 bd 53 4a 95 bd 37 04 68 be
       -0.07696453 -0.074707374 -0.07289567 -0.22657858
000140 96 7f 57 bd 29 5b 09 3f 66 13 d8 be aa 2f c8 3e
       -0.05261191 0.53654724 -0.422023 0.39098865
000150 b4 c7 24 3e a8 95 b7 be 24 90 d2 be dd 31 41 be
       0.16091806 -0.35856366 -0.41125596 -0.18866678
000160 87 c6 bf 3e d8 8c 1f 3d 2b 41 87 bf 3c 03 92 3f
       0.37456152 0.03895268 -1.0566763 1.1407237
000170 ba cf bd 3e 42 82 5f 3f ef 40 42 bf 4c e6 8c bc
       0.37072545 0.8730813 -0.7588033 -0.017199658
000180 55 3d f7 bb b6 cd a7 bb 48 8d 2a be 56 4e b4 3d
       -0.007545153 -0.005120958 -0.16655457 0.08804004
000190 2e 5b 43 3c 4b be 2b bc 81 e1 03 bd be 3e 0c 3c
       0.011923594 -0.010482381 -0.03219748 0.008559881
0001a0 86 1a 32 bd 0e 88 16 bd 77 a4 44 bb c8 f5 87 bd
       -0.043482326 -0.036750846 -0.0030005255 -0.06638676
0001b0 9b 9b 39 be f3 15 3f bd 24 da cb bb 3a e0 70 be
       -0.18125765 -0.04665179 -0.0062210727 -0.23523036
0001c0 8d 8d 1d bd f7 4e 81 3d ac 7a 9b 3d 12 20 51 bc
       -0.03846507 0.063138895 0.07591757 -0.012763994
0001d0 10 ff 38 be fb 62 9f 3e fb fd 59 3e a8 81 e1 3d
       -0.18066049 0.31130204 0.21288292 0.11011058
0001e0 ac a7 04 be 6b 31 5e 3e 2a 41 c3 3e 5e 8d 0f bd
       -0.12954587 0.21698539 0.38135654 -0.035046928
0001f0 9f 00 4c bc cc fe 3b 3d 0d ba 42 3f cd 2c 0e bf
       -0.01245132 0.04589729 0.7606514 -0.5553711
000200 c9 4f ec 3e 46 84 0f bd c3 bc f9 bb d0 1c d9 bb
       0.4615462 -0.035038255 -0.007621379 -0.006625749
000210 b5 06 25 3f 3c a8 0f bf 63 bd 00 3f e2 09 ff bd
       0.6446336 -0.5611608 0.5028898 -0.12453057
000220 47 a7 a7 3b 0b 70 8a 3d 49 b3 11 3e 8c b9 0c bd
       0.0051163766 0.06759652 0.14228548 -0.03435664
000230 94 f6 23 bf 9c eb 4a 3e 90 6a 66 be 74 a7 02 3e
       -0.64048123 0.1981644 -0.22501588 0.12759191
000240 1b c9 24 be 5c 6f c4 be ea 7c 4a 3f 81 1c 32 bf
       -0.1609234 -0.3836621 0.79096854 -0.69574744
000250 f1 a8 dc 3d ae d9 82 be d7 8e 54 3e 42 f1 21 3d
       0.107744105 -0.255567 0.20757614 0.039536722
000260 36 5d 84 3c 4c 9a 02 bc 9c 2a 94 3d 24 20 f4 3d
       0.016157728 -0.007971358 0.072346896 0.11920193
000270 54 9a 3a be 80 fb 4f 3c 41 b9 36 bd ed 48 bf bc
       -0.18222934 0.01269424 -0.044610266 -0.023350203
000280 12 37 9a 3c 25 6c c5 3d 9c 94 0c be af fc ab 3d
       0.018825088 0.096397676 -0.13728565 0.08397805
000290 30 e4 1a bd e0 e7 04 3f b2 e3 f8 bc c1 30 c5 be
       -0.037815273 0.51916313 -0.030382011 -0.3851376
0002a0 91 36 d5 be fd 6b ab 3e 23 14 50 bd dd 47 38 bf
       -0.41643193 0.33480826 -0.050800454 -0.71984655
0002b0 61 e6 04 3f 31 43 a8 be 51 14 a5 be b2 90 7f 3e
       0.5191403 -0.32863763 -0.32242063 0.2495754
0002c0 2d dc b7 bd 5a 98 d5 be 72 2f e5 3e 81 c6 ab bc
       -0.08977542 -0.41717798 0.4476276 -0.020968677
0002d0 96 1a a8 3c 7f 5e 91 3c 3f 09 62 3b bf 64 12 be
       0.02052049 0.017745255 0.0034490374 -0.14296244
0002e0 fd f7 ca bd 93 92 2c bc d0 f8 3b 3d d9 e9 b2 3a
       -0.09910581 -0.010532993 0.045891583 0.0013650014
0002f0 6e fc 84 3d ff 66 e0 bd 2b 35 9c bd 9f 7f d8 3d
       0.0649346 -0.10957145 -0.076273285 0.10571217
000300 c5 d5 f9 bc 70 59 94 3f 3b a4 54 bf be 0c 83 be
       -0.030497441 1.1589794 -0.83063096 -0.2559566
000310 04 71 14 3f d4 9f 9f be fb 12 59 3c 75 57 66 3f
       0.5798495 -0.31176627 0.013249154 0.899772
000320 36 ea f6 be ed 12 7c 3e 88 03 0b 3f ac 8e a5 be
       -0.48225564 0.24616595 0.54302263 -0.32335413
000330 30 c0 fc 3b 68 98 d6 3e 4a 29 44 be 90 35 08 ba
       0.00771334 0.41913152 -0.19156376 -0.000519597
000340 15 ae 00 bc 3f ce 43 bc 82 67 90 3e 08 4e 1b be
       -0.007854004 -0.011951028 0.2820397 -0.15166485
000350 12 fb d3 3c ff e8 c5 3c 34 18 01 3c d8 b7 30 bc
       0.025876556 0.024158953 0.007879306 -0.010786019
000360 d0 a1 9b 3e 2f 32 1b be 54 1a 4a 3d ae ee 4e bd
       0.3039689 -0.15155862 0.049341515 -0.05052059
000370 99 da 07 bd bc 6f c1 bf 8f 08 44 3f 76 36 96 3d
       -0.033167455 -1.5112224 0.7657556 0.07334606
000380 fa bf 4a 3e 3e 1c 62 3d ca 5b 34 be a7 50 61 be
       0.19799796 0.055202715 -0.1761314 -0.22003423
000390 75 bf 3d be a2 c5 bc be b2 5a 89 be bb 33 32 bf
       -0.18530066 -0.36869532 -0.26827008 -0.69610184
0003a0 40 82 41 be 0a 39 9e be 4d b7 30 3f 36 f8 80 be
       -0.18897343 -0.30902892 0.69029695 -0.2518937
0003b0 d4 b1 2d 3e 79 fb 23 bd 2e 2a 17 be 44 29 f5 bd
       0.16962367 -0.040034745 -0.14762184 -0.119707614
0003c0 b3 a4 8a 3d 25 09 b5 39 90 a8 76 bd 1f 6f 10 bd
       0.06769695 0.00034529823 -0.060219347 -0.035262223
0003d0 2e 35 01 be 33 6c e9 bd 22 fc 22 3d 24 0b 9e 3d
       -0.12617943 -0.113975905 0.039791234 0.07716969
0003e0 22 3c 80 3d df e5 07 be 2b 04 83 3e c6 f0 4b 3e
       0.062614694 -0.13271283 0.25589117 0.19916067
0003f0 3f 29 e0 3e ab 51 6f be 49 f4 02 3e be 7f 33 3e
       0.43781468 -0.23370998 0.127885 0.17529199

fc1.bias f4 [256]
000000 e0 99 88 bf c1 0a 6f bf 6a 5e 74 bf 45 df 40 bf
       -1.0671959 -0.93375784 -0.95456564 -0.7534068
000010 28 08 c5 bf 32 6e 69 bf f9 e2 2f be 28 40 a7 be
       -1.5393114 -0.9118377 -0.17176427 -0.32666135
000020 33 be 6a bf 1b 97 3b bf e5 54 46 3d cc cd 62 bf
       -0.9169647 -0.73277444 0.048420805 -0.8859527
000030 45 35 44 bf e0 34 b1 be 9f a9 3e bf 7f 37 75 bf
       -0.7664378 -0.34610653 -0.7447757 -0.95787805
000040 e1 0a 29 be b1 56 81 bf 4b a3 ec be a4 5d 6f bf
       -0.16508056 -1.0104581 -0.46218333 -0.9350226
000050 94 b7 81 bf 85 8a 30 bf ac 12 6b bf a4 dd 77 3e
       -1.0134149 -0.68961364 -0.91825366 0.24205643
000060 2c 94 7f bf 0d d2 09 3f ec c0 66 bf 78 03 de be
       -0.9983547 0.5383614 -0.90138125 -0.4336202
000070 8a 1c 62 bf f0 ff 59 3e 05 1e cc bd 00 7d 0d 3f
       -0.883248 0.21289039 -0.09966663 0.5526886
000080 30 2a c4 be c1 da 9d bf 07 71 e6 bf 30 87 8e bf
       -0.38313437 -1.2332383 -1.8003243 -1.1135006
000090 2c 25 82 bf d6 4c 92 bf 55 3a 53 bf 42 2b 97 bf
       -1.0167594 -1.1429698 -0.8251088 -1.1810076
0000a0 bf d3 88 bf fb 79 18 be 63 37 88 bf 4e 93 78 bf
       -1.068962 -0.14890282 -1.0641903 -0.9709977
0000b0 8e c4 69 bf 11 21 60 3f 3b a8 a5 3d 49 ac 6a 3f
       -0.91315544 0.87550455 0.08088728 0.91669136
0000c0 0a 89 76 bf 28 f9 77 bf 53 19 8d be e0 47 7b bf
       -0.96302855 -0.9686456 -0.27558383 -0.9815655
0000d0 15 71 5f bf 2e 92 63 3e 92 bb 8f bd aa 0b 97 be
       -0.87281924 0.22223732 -0.07018198 -0.29501086
0000e0 7f d3 b1 be 4c db 23 bf d5 aa ff be f1 23 3c bf
       -0.3473167 -0.64006495 -0.49935022 -0.7349234
0000f0 fc cb 0c bf a8 74 8e bf bd 5c 8a be a0 bd 3d bf
       -0.54998755 -1.1129351 -0.2702388 -0.7411747
000100 0b ae 00 be 51 e1 17 bf ca 62 e5 bf 75 80 5d bf
       -0.12566392 -0.5932818 -1.7920773 -0.86524135
000110 4b 14 60 3f 64 11 9b bf 4e c6 82 bf be bf 8a bf
       0.87530965 -1.2114682 -1.0216768 -1.0839765
000120 3d c1 80 be 9f 77 13 3e c4 5e 8e bb 2b 42 81 bf
       -0.2514743 0.144011 -0.004344793 -1.0098318
000130 6f f7 9f bf 93 57 9d bf 7d f6 86 bf 44 02 91 bf
       -1.2497386 -1.229235 -1.0543972 -1.1328816
000140 0b d7 64 bf 4d 5d 95 bf 85 08 93 be 94 38 fc be
       -0.8939063 -1.1669098 -0.28717437 -0.49261916
000150 79 13 cb bf 7a 34 5b bf 63 ec 8c bf 40 43 c5 be
       -1.5865318 -0.8562695 -1.100964 -0.3852787
000160 f7 32 33 bf f8 be 80 bf d8 12 b1 bf f0 12 93 bf
       -0.6999964 -1.0058279 -1.3833876 -1.1490154
000170 8e 24 85 bf 3c 5a c7 be bb bc 12 3f 1a c9 ac bf
       -1.0401781 -0.3893603 0.5731923 -1.3498871
000180 e8 5a 91 bf a1 7b c1 be 48 75 65 bf 92 e1 59 bf
       -1.1355867 -0.37789634 -0.8963208 -0.8510982
000190 c2 4d 7c bf 64 3c 8e be 41 59 8d be d9 ab a0 be
       -0.9855615 -0.2778045 -0.27607158 -0.3138111
0001a0 b7 a2 8c be cc b9 1b bf 08 64 da be 83 8c 70 bf
       -0.27467892 -0.6083038 -0.42654443 -0.93964404
0001b0 87 aa 27 bf f9 25 a8 be 1e 97 86 bf ea d9 51 bf
       -0.6549458 -0.3284147 -1.0514867 -0.81973135
0001c0 86 4e 3b bf 87 b8 6e bf f0 0d da bf 3e 6b 48 bf
       -0.7316669 -0.93250316 -1.7035503 -0.7828864
0001d0 ab 6f 62 bf 35 b6 1e bf d4 41 e4 3e 46 d8 1e bf
       -0.8845164 -0.61996776 0.44581473 -0.6204876
0001e0 24 f0 bd be 41 be c9 be 43 0f e8 3d d8 84 7c bf
       -0.37097275 -0.39402965 0.11331036 -0.98640203
0001f0 14 02 88 bf 72 3f 14 bf c9 20 26 bf 9d 7a 7c bf
       -1.0625634 -0.5790931 -0.64893776 -0.98624593
000200 1c 2c 99 bf da 46 8d bf 2a 0f b6 3e 9b 6e 7b bf
       -1.1966586 -1.1037247 0.35558444 -0.98215646
000210 ec 5c 06 be 2c a9 40 bf 36 ba 6c bf 73 c1 46 bf
       -0.13121384 -0.75258136 -0.92471635 -0.7763893
000220 37 58 b4 be b0 d3 21 bf a9 22 1c bf 5b 2d ef 3e
       -0.35223553 -0.63213634 -0.6099039 0.4671429
000230 d4 68 7a bf ad f4 83 bf 4b 71 3f 3f 79 87 43 bf
       -0.97816205 -1.0309044 0.74782246 -0.7637859
000240 3f 47 6a bf 4c 43 66 be 94 cb c4 3e fb 9a 3a bf
       -0.9151496 -0.22486609 0.38436568 -0.7289273
000250 d4 f7 05 3f ed 90 c6 be f3 32 59 be 31 53 99 bf
       0.5233128 -0.38782445 -0.21210842 -1.1978513
000260 65 92 ac bf 60 18 62 bf 25 99 0e bf 77 b0 31 bf
       -1.3482176 -0.88318443 -0.5570243 -0.6940989
000270 06 7d 24 bf a8 e8 7e bf f0 7a 77 bf 36 fe 25 be
       -0.6425327 -0.99573755 -0.9667196 -0.16210255
000280 a4 b5 10 bb 04 16 41 bf 8c bf be be 23 59 48 bf
       -0.0022080922 -0.7542422 -0.37255514 -0.7826101
000290 65 74 34 bf c6 ce 49 bf 26 86 88 bf 6a a7 f2 be
       -0.70490104 -0.78831136 -1.0665939 -0.47393352
0002a0 44 2d 7e bf 01 21 56 bf c8 ee a7 bf 37 89 08 bf
       -0.9928782 -0.8364411 -1.3119745 -0.53334373
0002b0 e9 f0 7e bf 88 88 48 bf 86 66 af be df ed 9d bf
       -0.9958635 -0.7833333 -0.34257907 -1.2338217
0002c0 85 6c ae 3e 8f 7a 78 bf 01 20 19 bf 0e cc 3d 3e
       0.3406717 -0.9706201 -0.5981446 0.18534872
0002d0 6c 35 b3 be c3 dc 9d be 4c 14 0c bf 52 9a a6 bf
       -0.35001695 -0.3083249 -0.5471847 -1.3015845
0002e0 b7 f6 d6 3e 60 e7 dc be 40 dc 48 bf 94 72 81 bf
       0.41985103 -0.43145275 -0.78461075 -1.0113091
0002f0 66 d1 7d bf 5c ab 85 bf 07 53 37 bf 1b 24 03 bf
       -0.9914764 -1.044292 -0.71611065 -0.5122697
000300 51 a6 6e be e6 a6 7c bf 64 08 72 bf 46 93 31 bf
       -0.23305632 -0.98692167 -0.94544053 -0.69365346
000310 72 2b a6 be dc b6 69 bf 8c 95 79 bf 5d 34 6a bf
       -0.3245502 -0.91294646 -0.97493815 -0.9148615
000320 ce 1f ad bf d3 7a a7 be 26 4f 8f be e6 62 d1 3e
       -1.3525331 -0.32710895 -0.27990073 0.40895766
000330 11 0f 11 bf f9 a6 33 bf 00 8a 15 bf e1 11 8c be
       -0.56663615 -0.70176655 -0.58413696 -0.2735739
000340 a0 54 6a bf 69 e7 c4 bf 4f 35 bd be aa e2 dc 3e
       -0.9153538 -1.5383121 -0.36954734 0.4314168
000350 23 42 b2 be 69 0b b2 bf 2d 98 28 bf 55 0c 61 be
       -0.34816083 -1.3909732 -0.658572 -0.2197736
000360 35 63 99 bf 1e 84 5e bf 64 d2 26 3f 33 aa 8c bf
       -1.19834 -0.86920345 0.6516478 -1.0989441
000370 14 ed 5b bf 85 63 b0 bf 37 67 80 bf ee 37 6a bf
       -0.8590863 -1.3780371 -1.0031499 -0.9149159
000380 16 73 59 bf b6 85 4f 3f 77 54 83 be db 21 ba be
       -0.8494123 0.810634 -0.2565038 -0.36353955
000390 6b 99 5c bf 54 d8 81 bf a3 4e 2a bf a0 b8 d3 be
       -0.861716 -1.0144143 -0.6652624 -0.41351795
0003a0 ee 13 81 bf 10 e7 dc 3e e6 05 3c bf 4b 1e 3c bf
       -1.0084207 0.43145037 -0.734465 -0.73483723
0003b0 c2 58 82 bf 74 55 45 bf 54 8a 33 bf f9 70 9a bf
       -1.0183337 -0.77083516 -0.70132947 -1.2065727
0003c0 d3 6a 70 bf 81 49 71 bf db f8 33 bf 4b 65 66 be
       -0.93913 -0.94252783 -0.703016 -0.22499578
0003d0 44 cd 9d bf f0 a6 61 bf f3 af 7b be 94 a5 35 bf
       -1.2328267 -0.8814535 -0.24578838 -0.7095578
0003e0 78 60 4c 3e 58 44 99 bf e3 eb 94 bf 94 65 49 bf
       0.19958675 -1.1973982 -1.1634487 -0.7867062
0003f0 c7 32 e9 3d f7 f5 4c bf 88 d7 94 bf 8f c0 57 3f
       0.11386638 -0.8006281 -1.1628275 0.84278196

fc2.weight f4 [256, 256]
000000 4b 4c 1b 3c 6f 37 91 be 47 65 13 bf cb 9b 8b bf
       0.009478639 -0.28362605 -0.5757641 -1.0906919
000010 31 4b 3b be 58 bd 33 be 19 f0 1b 3e 3c 11 32 3e
       -0.18290402 -0.17552698 0.15228309 0.17389387
000020 39 24 b3 3d c4 60 18 bf 7e 7d 03 bf 13 0d 81 3e
       0.08747143 -0.5952265 -0.5136336 0.25205287
000030 42 6a 9d 3d c5 0d 92 3d 3a d8 ab be c1 40 6e 3e
       0.07686283 0.071315326 -0.33563405 0.23266889
000040 cd a2 86 3d 26 7b de 3c dd 5b 83 3d 86 e3 25 be
       0.065740205 0.027158331 0.06414006 -0.16200075
000050 f3 8c 03 bd a6 2b 3a 3d cb 0b 35 3d 19 f0 dc be
       -0.03211684 0.045451783 0.0442007 -0.4315193
000060 10 0a 03 bf 62 26 ea bd 3f c8 41 3c 27 bb a8 be
       -0.5118723 -0.11433102 0.011827528 -0.32955286
000070 d6 f2 3e bf a5 ab cf be cd ec 78 be 1b 0a c7 bd
       -0.7458929 -0.40560642 -0.24309082 -0.09718724
000080 8a 9a 9f be 59 7c 83 be 02 c4 30 3f 5b b1 7b be
       -0.3117259 -0.25680807 0.69049084 -0.24579374
000090 f0 a5 93 bd 11 e1 e9 3d 22 0d 6a be 70 4f 71 be
       -0.072093844 0.11419881 -0.22856572 -0.23565459
0000a0 9a 69 50 3d cd e1 68 3d 65 e1 08 3f f7 88 48 bd
       0.05088196 0.056855965 0.53468925 -0.048958745
0000b0 10 8c 96 be e1 0c 68 3d ab e7 8a 3e 41 42 e9 3d
       -0.29403734 0.056652907 0.27129874 0.1138959
0000c0 2c 08 b9 be ac 81 c6 3d df 41 4e 3e b9 b5 ff bc
       -0.36139047 0.09692702 0.20142315 -0.031214582
0000d0 cc 2d 9f be 01 88 19 3e 8b 0a 15 bf 12 93 2e 3e
       -0.31089628 0.14993288 -0.5821921 0.1704829
0000e0 04 de 29 3e 85 f2 65 be 60 08 32 bf ed f6 97 be
       0.16588598 -0.22455795 -0.6954403 -0.29680577
0000f0 b0 94 76 be 04 a3 0c be a3 44 7b 3b e1 b3 9d bb
       -0.24080157 -0.1373406 0.0038340471 -0.004812703
000100 7f 07 8e bc 05 d4 d0 be ae b4 70 bd d9 38 87 be
       -0.017337559 -0.40786758 -0.05876606 -0.2641056
000110 d4 92 cf 3e 4a 61 10 bd a7 c1 a5 bd aa 44 6e be
       0.40541708 -0.035249032 -0.08093577 -0.23268381
000120 7c c5 e8 3e 4a 57 b5 3d af 7b 70 bf 22 2d 47 be
       0.4546317 0.0885454 -0.93938726 -0.1945081
000130 03 48 5a be bf c7 fe be f5 d5 b6 be de a6 88 be
       -0.21316533 -0.4976177 -0.3571011 -0.2668981
000140 c0 17 54 3e a5 89 4a be 46 eb 8c be 94 42 9c 3e
       0.20712185 -0.1977907 -0.2752325 0.30519545
000150 dd ad 47 3e 61 79 9c bd e1 21 b4 3e e4 a4 a2 be
       0.19499917 -0.07640339 0.35182098 -0.31766427
000160 37 b4 1f bf fd b1 f2 3d 15 cf de 3e 6c f8 4f 3e
       -0.6238436 0.11850355 0.43517366 0.20309609
000170 45 df 24 bf f3 91 01 3e 5a 01 34 bf 51 46 22 be
       -0.6440318 0.12653331 -0.7031456 -0.15847136
000180 e1 c4 32 be b6 ae 31 3e d8 50 09 be 15 7a 92 be
       -0.17457916 0.17351803 -0.13409746 -0.28608766
000190 65 42 29 bf c6 f3 eb 3d c5 36 97 3e 24 bc 1d 3e
       -0.66116935 0.115211055 0.29533973 0.15403801
0001a0 a7 9c 98 be 95 b5 32 3e 97 60 8e bd 65 9f f7 bf
       -0.29807016 0.1745208 -0.06952017 -1.9345518
0001b0 6c 7f 34 3d ea f4 a2 bd 9b 52 1b bf 84 f4 67 be
       0.04406683 -0.0795687 -0.6067292 -0.22651869
0001c0 fb 96 f8 3d 8d 13 e4 be 35 f7 b6 be d8 43 ca 3c
       0.12138172 -0.44546166 -0.3573548 0.024690554
0001d0 c1 1c b7 3e 04 d6 54 bd 2c 01 92 3e 1e 10 e4 be
       0.35764125 -0.051961914 0.2851652 -0.44543546
0001e0 ff f8 2e be ee 35 f4 3c 66 e7 a7 be bb 70 e6 bd
       -0.17087172 0.029810872 -0.3279373 -0.112519704
0001f0 46 cb 70 3e b5 fe d8 3d 61 0b 2f 3e e2 41 93 be
       0.23515043 0.105954565 0.17094184 -0.28761202
000200 c7 1b 62 3d b9 25 d0 bd 1b d5 07 be 69 c3 92 3e
       0.05520227 -0.10163445 -0.13264887 0.2866471
000210 d9 94 12 3e 31 21 76 3e 7d b5 65 be db 09 36 be
       0.14314593 0.24036099 -0.22432514 -0.17777197
000220 ba 2d eb bd 8a 52 ef 3e c8 8a 92 bc 91 59 d8 be
       -0.11483331 0.4674266 -0.017888442 -0.42255834
000230 8e d8 d4 3d fb 38 77 3e fc 8d b0 3d b9 20 42 3e
       0.10392867 0.2414283 0.08620831 0.18957795
000240 72 2f 2e bd a4 c9 36 be e6 4c 6e be a2 86 e6 3c
       -0.042525716 -0.17850357 -0.23271522 0.02814037
000250 23 d8 3b 3e d6 cd 25 3d 8a 52 9f 3d 6d d0 89 be
       0.18344168 0.040479504 0.07779415 -0.2691683
000260 d8 d5 f2 3d 04 c2 0d 3e 23 d6 9a be e6 93 27 bf
       0.11857194 0.13843542 -0.30241498 -0.6546005
000270 cb 36 af bd 27 21 bf 3d 58 af 62 bf 68 53 b9 3d
       -0.08555373 0.09332495 -0.88548803 0.090491116
000280 1d 6f 10 bf 87 e5 ef be ba f2 81 3e 12 ec 95 3e
       -0.56419545 -0.46854803 0.25380498 0.2928167
000290 2f d3 40 be 0d 2b f8 3c 43 c9 27 3e 90 a9 a1 be
       -0.1883056 0.030293966 0.16385369 -0.31574678
0002a0 48 5e 92 bd 4b da 74 bd c5 43 ad 3f 63 8a 8f bd
       -0.07146889 -0.059778493 1.3536307 -0.07008817
0002b0 36 31 c0 bd b3 99 28 3c 7d af b9 3e fd 6a 51 be
       -0.09384386 0.010290551 0.362667 -0.20450969
0002c0 59 19 0b 3e 8e be d3 3e d4 16 b6 3e 21 3e 4c 3e
       0.13583888 0.4135632 0.3556429 0.19945575
0002d0 0c fd 1b 3e 6b 7f 8b be ae 31 d4 be 47 66 52 be
       0.15233248 -0.2724565 -0.41444153 -0.20546828
0002e0 43 43 bc bd 59 dd ad 3d b6 59 f9 be eb f6 fa be
       -0.09192517 0.08489484 -0.48701257 -0.49016508
0002f0 32 0e af 3e bb ff 0c be 17 3e 01 3e 24 77 1f bf
       0.34190518 -0.13769428 0.12621342 -0.6229117
000300 90 b5 1c 3e 30 0a 90 3c 4b f0 bd bc 87 ab a4 3d
       0.15303636 0.017582983 -0.02318587 0.08040529
000310 e3 2f 72 bd c0 d3 a6 be 71 fc 28 3e 3f 6a d7 bc
       -0.0591277 -0.32583427 0.16502549 -0.02629578
000320 02 58 91 3e 1c b8 60 3e e6 34 6c 3c 1e c4 7e 3e
       0.28387457 0.21945232 0.014416909 0.248795
000330 81 d4 3b 3d 29 13 d4 3e d6 b1 70 be e7 0d 00 3e
       0.045856956 0.41420868 -0.23505339 0.12505303
000340 ce 1c 44 3e 9a ee 0d be 8c 4f cc bd cf 0d 3a 3e
       0.19151613 -0.1386055 -0.0997611 0.1816933
000350 e1 47 bd 3d b1 ec ad 3e f8 db ab be 55 06 96 3e
       0.092422254 0.33969644 -0.3356626 0.29301706
000360 ad 43 5f 3c c1 83 62 3e e5 07 85 3e 20 e4 34 bf
       0.013626975 0.22120573 0.25982586 -0.7066059
000370 85 27 33 3d 2e 5f fc bd 55 a1 44 bc 76 90 20 bd
       0.04373886 -0.123228416 -0.012001355 -0.03920027
000380 d5 14 2e bf 74 51 27 3e c6 d7 a6 bd b1 c2 8f 3e
       -0.6800054 0.16339666 -0.08146624 0.28078225
000390 ba b4 0b be 88 89 58 bb 54 fd e1 bd 00 dd e1 3d
       -0.1364316 -0.003304096 -0.11034647 0.110284805
0003a0 fd 35 5a 3d 9c 39 45 3e 49 fa 22 bf 91 3a df be
       0.053274143 0.19260257 -0.63663155 -0.4359937
0003b0 a8 0e 08 be 6d f8 ec bd 7c d5 79 3c e5 d7 f1 bd
       -0.13286841 -0.11570821 0.015248653 -0.11808757
0003c0 21 ed 97 3e a3 74 f8 be ea 3f f6 3d e3 63 f4 bd
       0.29673102 -0.48526487 0.120239094 -0.119331144
0003d0 a4 82 86 3e f2 c6 80 3e 6b da f9 be ac 0a 37 be
       0.26271546 0.25151783 -0.48799452 -0.17875165
0003e0 05 42 67 be ed a1 20 be 65 9f 06 3f 80 8c 11 be
       -0.22583778 -0.1568677 0.52586967 -0.14213753
0003f0 a4 64 e1 3d 74 e8 40 be 66 11 40 be ff cb 30 3e
       0.11005524 -0.18838674 -0.18756637 0.17265318

fc2.bias f4 [256]
000000 ff 36 f3 3e 41 8f 1b be c7 50 64 bd 84 22 a3 3d
       0.47502896 -0.15191366 -0.055741098 0.07965568
000010 d2 81 85 3f cb 7c e6 be 67 25 c8 3e 71 0f aa be
       1.0430243 -0.45017084 0.39091036 -0.33214906
000020 f9 60 9c 3e a3 8d da 3d 2a f0 3d be 8e e3 04 bf
       0.30542734 0.10671546 -0.18548647 -0.5190972
000030 6c b1 a7 3e 88 bd de 3e ca ce 0e 3e 1a 02 b2 bd
       0.3275255 0.43503976 0.13946071 -0.08691807
000040 3e 9f 3b bf d3 26 0d 3f cb 2f c4 be 82 0f 9b 3e
       -0.7328986 0.55137366 -0.38317713 0.3028527
000050 6b 19 8e 3e cd 29 7c 3e c5 c1 a4 bc 6d af 5d 3e
       0.27753767 0.2462532 -0.020111928 0.21648951
000060 84 9c ba 3e 0b e5 ea 3d 79 dd c4 bd b9 7e 55 bd
       0.36447537 0.11469468 -0.09612555 -0.052122805
000070 2c e5 18 bf c5 9f 68 3f e6 8e 97 be 7f 60 45 bf
       -0.5972469 0.9086879 -0.2960121 -0.77100366
000080 f3 59 fd bd 50 d7 37 3e cb 9f 09 3e 92 3d 1e bd
       -0.12370672 0.17953229 0.13439862 -0.038632937
000090 1d ec 86 be a0 7c fb 3c b5 f6 a8 3c c2 a9 b6 bc
       -0.26352015 0.030699074 0.020625452 -0.022297744
0000a0 63 0e ee 3e dd b4 a9 be e3 03 a0 bb 0c 46 03 3f
       0.4649535 -0.331458 -0.004883276 0.5127876
0000b0 07 b0 72 3f 12 ee f8 bd dc 51 cc be e5 21 33 3f
       0.94799846 -0.12154783 -0.39906204 0.69973594
0000c0 72 d9 a3 bc a2 67 f8 be 46 ad b2 bd f7 0e b7 3e
       -0.020001147 -0.48516566 -0.087244555 0.35753605
0000d0 9a 80 75 bf ee 05 b5 3e c5 6d 85 bd 09 a5 86 be
       -0.95899355 0.35356086 -0.065150775 -0.26297787
0000e0 05 39 a7 3e 0f ba b6 3e a8 1a ec 3e a0 d1 86 3e
       0.3266069 0.35688826 0.46114087 0.26331806
0000f0 63 4b 90 bf 00 e3 83 be 72 b3 c5 3e de 4b 32 be
       -1.1273006 -0.25759125 0.38613468 -0.17411754
000100 cb a1 d3 bd 84 68 00 bf e4 0d 27 3f 32 d9 8c 3f
       -0.10333594 -0.5015948 0.6525557 1.1003783
000110 a7 3c c3 3e c7 98 dc 3e 5f 8b 03 bd d1 5c e3 bd
       0.38132212 0.4308531 -0.032115337 -0.11101688
000120 4b 82 e2 be fb 7c f2 3e e4 d3 d5 be 5a fe 86 3e
       -0.4424003 0.47360978 -0.41763222 0.2636593
000130 15 f7 d3 3e f7 2f 88 3e 06 0e 6c be cd 49 ac be
       0.41399446 0.26599094 -0.23052225 -0.33650056
000140 ba 22 35 bd 33 4e e8 be 0c 51 9d bd 84 fd 39 bc
       -0.04422257 -0.4537216 -0.07681474 -0.011351947
000150 ad 0f 88 bc 3c b2 7d 3e 54 08 91 bf da 8c 23 3e
       -0.016609037 0.24775022 -1.1330667 0.159717
000160 61 d5 66 bf 78 e8 34 be fb a3 91 bf cf 21 b5 3c
       -0.9016934 -0.17666805 -1.1378168 0.022110848
000170 a9 8b ae bd 4f 14 9d 3e d6 25 27 bf f6 30 dd 3e
       -0.08522732 0.30679557 -0.6529211 0.43201417
000180 77 0a 6c bd 76 7d 3e bb b3 be 4d bd 8d 4e 96 3e
       -0.057627168 -0.002906648 -0.050230693 0.29356804
000190 8b ff 36 bf c8 8c 54 3d 29 a3 c4 be f4 ae 18 bf
       -0.7148368 0.051892072 -0.3840573 -0.5964196
0001a0 b7 9c 63 3e e8 80 38 be 22 d0 b3 be 40 ee e8 bd
       0.2222775 -0.18017924 -0.3511973 -0.113735676
0001b0 26 0e b4 3e 5e 16 ea bd 6b d3 01 39 2e 2b f7 3c
       0.35167044 -0.114300475 0.00012381158 0.030171957
0001c0 7e 3d 7e bd 6c d0 48 bd 92 4e 33 be 40 41 19 bd
       -0.062070362 -0.04902689 -0.17510441 -0.037415743
0001d0 46 4a 71 bb 56 35 b8 be 46 72 b0 3d 48 b6 d6 bc
       -0.0036817952 -0.35978192 0.08615546 -0.026209965
0001e0 7a df ad 3c 6d 64 ce bc a7 28 2c bd a5 c3 49 be
       0.021224726 -0.025194371 -0.042030957 -0.19703539
0001f0 d7 a7 3c 3e b8 db 5f 3e b8 3a db be a2 11 a6 3e
       0.18423401 0.2186116 -0.42818236 0.32435328
000200 d1 ce b8 3e d2 72 98 bd 2b d1 b1 bd 6f 1b d1 be
       0.36095288 -0.07443775 -0.08682474 -0.40841243
000210 ae a2 b4 be 37 81 18 3d ad 73 48 3d 2c 9a ad 3e
       -0.35280365 0.037232604 0.048938442 0.33906686
000220 dd 58 95 be 2a 3d 90 3e 02 2a 9a be a5 60 a1 3e
       -0.2916936 0.28171664 -0.30110174 0.31519046
000230 7c f8 21 bc ab c8 2a be ac 51 4e bc 4a 73 cf be
       -0.009885903 -0.16678111 -0.012592714 -0.40517646
000240 57 68 41 3d 0d ea 56 be 5a a0 bc bb e4 d5 90 bf
       0.047218647 -0.20987721 -0.00575642 -1.1315274
000250 8a 19 e3 3e 3b 80 f5 be cb 0a 0e be 12 61 cc bd
       0.44355422 -0.47949395 -0.13871305 -0.09979452
000260 5d 34 19 3f 4e eb 3d bf e0 71 58 be 57 22 a8 bd
       0.59845525 -0.7418717 -0.2113719 -0.08209675
000270 2b 54 a8 bf 8a 2f d0 3e a5 ff a3 3e 39 6f 0e be
       -1.3150686 0.4066127 0.3203098 -0.13909616
000280 75 2f 87 bd f1 f7 56 bf 76 e1 82 bf f2 50 c3 3e
       -0.066008486 -0.8397208 -1.0225055 0.38147694
000290 73 dc b6 3d c3 42 d8 3b 01 d2 b6 3e d4 d8 b7 be
       0.08928766 0.0065997555 0.35707095 -0.35907614
0002a0 44 5e 26 3f 0a 93 14 be 46 32 b5 bc 40 88 67 3e
       0.6498759 -0.14509216 -0.022118699 0.22610569
0002b0 08 5c c8 bc 2e 59 af 3d f6 db 0a be 8f 3d 6d 3d
       -0.024457946 0.085619316 -0.13560471 0.057920035
0002c0 6a 30 03 3e 0e 4e 0f bc 4f 7e eb bd bd f7 23 be
       0.12811437 -0.008746637 -0.11498701 -0.16012473
0002d0 e4 ff 41 3c a6 ac 97 3e 80 e1 9c 3c ce 12 16 bd
       0.011840794 0.29623908 0.019150496 -0.036639027
0002e0 94 cc 80 bd 91 0b 3b be 90 5f 42 bc 25 0d 95 3e
       -0.0628902 -0.18266131 -0.011863604 0.2911159
0002f0 d1 51 0a bf c5 5d 8a be 6a ff 2b 3d 3a 87 99 3d
       -0.5403109 -0.27024665 0.04199163 0.074964955
000300 a5 86 49 be 66 8b ed bc 75 fa 86 be be bf 0c 3e
       -0.19680269 -0.028997134 -0.2636296 0.13745019
000310 aa ab 38 bf 89 c1 2a bf b8 a8 aa bd 8d 78 28 be
       -0.7213694 -0.6670156 -0.08332962 -0.16452236
000320 fa c0 9c bd a3 a0 af 3e 86 cc f9 be e8 d5 81 bd
       -0.07653995 0.34302244 -0.48788851 -0.063396275
000330 9f 02 16 3d 49 78 89 bd 20 ab 9e bd cd bc 20 3f
       0.036623593 -0.06712396 -0.07747483 0.6278809
000340 99 e2 82 3d 59 e4 31 3e 96 e8 80 bc 04 95 57 bf
       0.06390876 0.17372264 -0.015735906 -0.84211755
000350 fd b6 11 bf bb 9c 3b 3d 38 72 e6 3e 79 3b 51 3c
       -0.5691984 0.045803767 0.45009017 0.012770527
000360 0b ef 58 3c 46 2b 30 3f 7d 24 31 3d b7 7c c6 be
       0.013240586 0.6881603 0.04324769 -0.38767025
000370 5f 19 57 be 3d 99 23 bf 8f b0 5f 3e dc 35 af 3c
       -0.21005772 -0.639057 0.21844696 0.021387987
000380 2a 89 bf 3d b0 f1 eb 3e 9e 32 7f 3e 38 54 e9 3e
       0.09352334 0.4608283 0.24921653 0.45572066
000390 3c 26 12 3d 61 64 78 bc 32 89 05 3f d0 8f f8 3e
       0.035680994 -0.015160651 0.5216247 0.4854722
0003a0 56 d2 d2 3e db ab f3 3c 8c 9b 99 3d bb 18 9a be
       0.411761 0.029745033 0.07500371 -0.30096993
0003b0 73 af 19 3f d5 30 bd 3e ce 20 f2 bc 06 7e 58 be
       0.6003334 0.36951318 -0.029556658 -0.21141824
0003c0 cc 12 64 3e 52 00 9c 3d 5a 34 f8 3e 20 2c 92 bd
       0.22272795 0.076172486 0.4847744 -0.071373224
0003d0 ea 49 24 3d 08 c6 ce be 66 a6 52 bf 33 46 1d 3e
       0.040109552 -0.4038546 -0.82285154 0.1535881
0003e0 06 4a ae bd 9b 92 a7 3e b5 28 a2 be ab 43 b9 3e
       -0.085102126 0.3272904 -0.31671682 0.3618444
0003f0 c6 38 ae bd 1d f3 3b 3f 54 31 51 be 37 40 57 bd
       -0.085069224 0.73417836 -0.20428973 -0.052551474

fc3.weight f4 [256, 256]
000000 d6 ad 76 3e c7 c5 da be 3f 7e 01 bd 07 b2 e1 3e
       0.2408975 -0.42729017 -0.03161454 0.44081137
000010 4f bc 1b bf fb d5 bb bd 43 cb 0b be e5 b6 c0 bd
       -0.6083421 -0.09171673 -0.13651757 -0.09409884
000020 b4 43 b7 be d5 f2 10 3e 6c a5 66 be 77 d0 92 bd
       -0.3579384 0.14155133 -0.22524041 -0.07168668
000030 17 89 77 be d2 56 a3 bf f4 0a 8a bd 09 43 1d be
       -0.2417339 -1.276087 -0.067403704 -0.15357603
000040 37 0a 14 3e b4 2d ef be 05 c0 4f be cf 99 37 3e
       0.14457022 -0.46714556 -0.20288093 0.17929767
000050 ea dd 3b 3c e5 c4 5e 3e 4e a3 45 bd 4b b6 45 3e
       0.011466483 0.21754797 -0.048251443 0.1930782
000060 9f f2 2d 3e 94 ef e8 3e 69 ba 15 bd a6 b3 8d 3d
       0.16987084 0.45495284 -0.036554728 0.06919031
000070 23 ae 36 bf ae f9 dc bf 17 81 80 3c 3b 63 2e bf
       -0.7135946 -1.7263696 0.015686555 -0.68120164
000080 ae 44 b2 3e e6 90 1a be bc e9 7f 3d d1 91 63 3d
       0.34818023 -0.15094337 0.062478766 0.055558983
000090 aa 4e 4a 3e 2e b7 0c 3e e4 15 8e be 2c 8e a5 3d
       0.1975657 0.13741753 -0.27751076 0.08083758
0000a0 43 ff 56 be db 96 21 be e7 4c 38 3d 0f b9 83 be
       -0.20995812 -0.15780203 0.044995215 -0.25727126
0000b0 d8 a7 d2 3e fc d8 d3 bd 78 5a ff bd 15 36 0b be
       0.4114368 -0.10344121 -0.124684274 -0.1359485
0000c0 9c 93 04 be 0b fa 14 3e d0 9a b7 3d b1 2d 99 3c
       -0.12946934 0.14548509 0.08965075 0.018698545
0000d0 fb a6 b9 bf 08 b4 b0 bd c9 24 d0 3e fb 15 0a be
       -1.4504083 -0.08628088 0.40653065 -0.13484947
0000e0 52 6e a2 3c 9a 09 a4 bd 86 ef a6 be 87 67 f6 be
       0.019827995 -0.08009644 -0.32604617 -0.4812586
0000f0 a5 96 30 bf 43 e9 c0 bd bf 45 02 bf f7 9b ad be
       -0.68979865 -0.09419491 -0.50887674 -0.33908054
000100 45 64 68 3d ca d4 8c be 46 1a 70 3e 24 65 7e 3e
       0.05673625 -0.27506095 0.23447523 0.2484327
000110 e8 cf 03 3d 4d 4f 24 be 75 a8 47 3d f8 ec e6 bc
       0.032180697 -0.16045876 0.048744638 -0.028189167
000120 05 97 05 be 82 70 07 bf 6e a7 4a be a5 37 46 bf
       -0.1304589 -0.5290605 -0.19790432 -0.77428657
000130 20 d0 51 be 03 33 41 bf 22 fd 92 be c9 33 9d 3d
       -0.2048955 -0.7546846 -0.2870875 0.07675893
000140 3d 94 42 3c 24 c4 f7 be f8 90 c2 bc 27 db a5 bc
       0.011876163 -0.4839183 -0.023750767 -0.020246102
000150 5a 72 b0 bb 7e d9 a9 be ba 94 92 be 44 08 1e bd
       -0.0053847255 -0.33173746 -0.28629094 -0.0385821
000160 5f ee c6 bd 6a 56 4f bf ac a6 04 bf 14 26 bc 3c
       -0.097134344 -0.8099123 -0.5181682 0.022967376
000170 50 e6 55 be b5 7a 30 bf 8c c1 a0 3e 3f 02 95 3e
       -0.20888638 -0.68937236 0.31397665 0.29103276
000180 e2 70 f0 bd 56 49 51 be 5c 06 d9 ba df 6a f3 be
       -0.11740281 -0.20438132 -0.0016557681 -0.47542474
000190 d4 b0 c1 be 25 38 bd bd ba 80 80 3e 55 83 20 bf
       -0.37830222 -0.09239224 0.2509821 -0.62700397
0001a0 65 ad 84 be b0 b7 d4 3e 51 fd db bd 65 30 0f bf
       -0.2591354 0.41546392 -0.10741676 -0.5593322
0001b0 6f 8a 11 bf ac e3 6c bd 47 c9 30 3d 53 ec 19 bd
       -0.5685186 -0.057834312 0.043160703 -0.037578892
0001c0 e2 c2 66 3c 82 07 d4 be b4 24 d3 bb ef 0b 21 3e
       0.01408455 -0.41411978 -0.0064435843 0.15727209
0001d0 1c ea 2a 3d bd e7 7b 3e bf db ce be 12 84 84 bc
       0.04172717 0.2460012 -0.40402028 -0.016176257
0001e0 cf 94 09 bf 89 62 2d be e9 48 aa 3d f7 7c ef be
       -0.5374269 -0.1693212 0.08314688 -0.46775028
0001f0 73 e4 1f bd c0 4c ea 3d c6 02 8d be c2 ff 77 3d
       -0.039036226 0.1144042 -0.27541178 0.060546644
000200 d6 b2 9d bd a7 1c 22 be 8f da b8 3c d3 e9 63 bd
       -0.07700126 -0.15831243 0.022565154 -0.055642914
000210 bf bb 20 bf 66 05 a8 be f5 65 e6 3c 6b 1f f4 be
       -0.6278648 -0.3281662 0.028124789 -0.4768022
000220 2e bc 84 be ad f6 9e bd 69 5c 6c bc 85 bc 16 bf
       -0.2592482 -0.077618934 -0.014426329 -0.5888141
000230 64 c3 b2 bf ee 27 da be 89 a2 d4 3e 1a cf 0b bf
       -1.3965878 -0.4260859 0.41530254 -0.54612887
000240 ef 9f cc be 45 22 f8 bd 02 e6 5d 3c c6 96 28 3d
       -0.3996577 -0.121159114 0.013543608 0.041159414
000250 5b 71 d8 be 31 8c 88 be d5 e2 97 bd 6c 18 a2 3d
       -0.42273983 -0.26669458 -0.07416312 0.07914814
000260 fc aa 06 bf ce 6b 0c be 11 a8 a0 be 76 ba 04 bf
       -0.5260465 -0.13712999 -0.31378224 -0.51847017
000270 21 90 de bd af 29 bb be 33 95 97 3e c5 bb 83 be
       -0.10867334 -0.3655524 0.29606017 -0.25729194
000280 45 8b 3a bd 24 2a 27 bf 66 77 90 bd c1 5e 8d 3e
       -0.045542974 -0.65298676 -0.070540234 0.27611354
000290 43 7d 4f 3d c3 c7 c4 bd 08 6c 9d 3d ee 35 71 be
       0.05065657 -0.09608414 0.07686621 -0.23555729
0002a0 8c ed 1d 3e 57 e4 61 be c8 1e 7e 3d 5c 27 da bc
       0.15422648 -0.22059761 0.062041074 -0.026630096
0002b0 35 69 4b 3d cd 35 52 3e 0e 71 df bd fe a7 66 bc
       0.04966088 0.20528336 -0.10910235 -0.014078138
0002c0 82 63 80 3e ec 1e 5a bd 34 3b ab 3e a7 bc 19 bd
       0.25075918 -0.053252146 0.33443606 -0.03753343
0002d0 05 7f 79 3d 58 aa a8 3e db 03 44 bf 8e 65 05 be
       0.06091215 0.32942462 -0.7656838 -0.13027021
0002e0 4a 2b 1c 3f 29 1c c9 be 16 3c af bd 43 a2 0a 3d
       0.61003554 -0.39279297 -0.08556382 0.03384615
0002f0 e6 b0 f3 bd cf 47 52 bc ea d7 d6 be d3 0f 92 3c
       -0.11898975 -0.012834503 -0.41961604 0.017829811
000300 0f 8e 23 3e bb 6d c7 3d 1e a9 61 be 11 b0 7e 3e
       0.1597216 0.09737726 -0.2203717 0.24871852
000310 d8 dc 66 3e aa 46 82 be 87 99 48 3c c4 0a 2b 3d
       0.22545183 -0.25444537 0.012243635 0.041758314
000320 09 4c c7 be 81 53 01 be b0 38 a5 be d4 31 15 3d
       -0.38925198 -0.1262951 -0.32269812 0.036424473
000330 e2 8e 21 bc da eb 19 bf 7c 3b c1 3b 72 7a 1e bf
       -0.009860726 -0.60125506 0.0058969837 -0.61905587
000340 72 bf a4 3d 4d 3a de bb a7 1d 85 3a a2 ab 37 3e
       0.08044328 -0.0067818523 0.0010155932 0.17936566
000350 0c 89 6e bf 02 8c 22 3d 56 a8 93 be 5c 3a 29 be
       -0.93177867 0.039684303 -0.28839368 -0.16526169
000360 19 79 39 bf 62 12 dc 3c d9 6d d8 be af fb c7 3e
       -0.72450405 0.026864234 -0.42271307 0.39059207
000370 e3 99 31 be 97 60 37 bf 75 f9 75 be 02 08 3b bd
       -0.1734386 -0.7163176 -0.24020942 -0.045661934
000380 15 ce 51 bf 48 8f e6 be d7 f5 96 be bb 2f 33 3e
       -0.8195508 -0.4503119 -0.29484436 0.17498676
000390 83 0b af bc 9c 37 5a bf 75 c5 6d 3e 26 01 02 3f
       -0.021367794 -0.85241103 0.23219855 0.50783
0003a0 57 29 0e 3e 65 08 64 3e ea 6b af 3e 92 68 90 be
       0.13882957 0.22268827 0.3426202 -0.2820478
0003b0 69 05 0f 3d 8d 31 b5 3e 21 42 3c be 41 5d 85 3d
       0.03491727 0.35389367 -0.18384601 0.065119274
0003c0 cc d3 25 3d 14 27 4f bf 68 71 4c 3e a7 1c 1f bd
       0.04048519 -0.80919003 0.19965136 -0.038845684
0003d0 c3 af 2d be 4e 5c 1c be f4 89 0c be 4f e9 82 3e
       -0.16961579 -0.15269586 -0.137245 0.25568625
0003e0 34 f2 2e bd bd 45 71 3e e0 f3 84 3e 21 70 0f bf
       -0.04271145 0.2356176 0.25967312 -0.5603047
0003f0 9e 30 41 3e d5 b2 5b c0 d4 ba 01 bf 14 dc cc bd
       0.18866202 -3.43279 -0.506757 -0.10002914

fc3.bias f4 [256]
000000 16 8f 54 be ec 2d 2c be 0b d7 9b be 59 36 48 be
       -0.20757708 -0.16814393 -0.30437502 -0.19551982
000010 d2 4d 09 be 38 03 91 be 9b 73 7f bc 97 be 4a 3b
       -0.13408592 -0.28322768 -0.015591527 0.0030936354
000020 11 c3 f1 be 3e 59 b4 be 8a 6f 3d be 87 f3 6d be
       -0.47219136 -0.35224336 -0.1849958 -0.2323743
000030 11 b6 c9 bd 66 8a f0 3e 8e 86 c3 be d8 d5 c8 3e
       -0.098491795 0.4698059 -0.38188595 0.3922565
000040 7f 64 ff bd 1a b7 dc be d7 19 db bd 7a c0 53 be
       -0.1247034 -0.43108445 -0.10698288 -0.20678893
000050 5b b1 48 bf f2 2d 25 3c 83 e9 7d 3d 85 ff 27 be
       -0.7839562 0.010081755 0.061990272 -0.16406067
000060 6c c7 ba 3e ce 2e 45 bf 8e de 30 3e 29 ef ba be
       0.36480272 -0.77024543 0.17272398 -0.3651059
000070 1c 62 c3 be f8 7b 57 bd 8b 67 39 be 58 7a db be
       -0.3816079 -0.05260846 -0.18105905 -0.42866778
000080 6e ea 39 3e ad 01 d1 be cc 9d fe 3e 3f 17 81 3e
       0.18155834 -0.4082159 0.49729764 0.25213048
000090 c5 de 5b be 6f c3 8a be f7 3a 6a 3f 84 b4 fa bd
       -0.21471699 -0.2710223 0.91496223 -0.12241462
0000a0 48 27 ac 3e 3b 45 cd bd c8 d8 66 be 91 d8 06 3e
       0.3362372 -0.1002297 -0.22543633 0.13168551
0000b0 e0 00 43 3e e4 84 bd be 51 f3 66 bd b8 e1 68 be
       0.19043303 -0.3701545 -0.05638439 -0.22742355
0000c0 11 62 45 bb a6 93 94 3e bd 69 0d bf 37 52 5b be
       -0.0030118267 0.29018897 -0.5523947 -0.21418081
0000d0 df da bb 3d 8c 7b 80 3e d7 f6 2a 3e 53 d3 86 be
       0.09172606 0.2509426 0.16695724 -0.26333103
0000e0 b4 0c dd bd ef a6 90 be f2 fe 37 3d c8 e4 da 3e
       -0.107934386 -0.2825236 0.04492087 0.4275267
0000f0 1a 97 66 be 2e 55 11 be 8b 66 a5 3e 84 a2 7e bd
       -0.22518578 -0.1419265 0.32304797 -0.062166706
000100 e6 c1 bb be 49 df 03 3f 0c 66 c2 bc 3f 21 80 be
       -0.3667137 0.5151258 -0.0237303 -0.25025365
000110 31 3f 18 be b0 27 fa be db 2b 81 3e 5e ae 03 be
       -0.14867856 -0.48858404 0.25228772 -0.12859485
000120 16 16 8a be 05 7c 09 be 66 f8 b2 be 94 80 19 be
       -0.26969975 -0.13426216 -0.34955138 -0.14990455
000130 b9 c7 06 3f 5f a7 b8 be fe e5 1c 3d d4 5b 01 be
       0.526485 -0.36065194 0.038305275 -0.12632686
000140 e7 fa d3 bc d8 98 88 3e 08 a1 4d be f2 37 eb bd
       -0.025876475 0.2667911 -0.2008096 -0.1148528
000150 c6 b5 41 be 80 46 de 3d bf 15 71 be 87 5a 2e 3d
       -0.18916997 0.108532906 -0.23543452 0.042566802
000160 e3 78 4f be 13 09 cc be d2 ed 0b 3f 63 21 a3 be
       -0.20260958 -0.39850673 0.5465976 -0.3186141
000170 11 fb 22 be 76 d7 8a 3e 3e b7 6c be 46 c0 20 bf
       -0.15916087 0.2711751 -0.23116776 -0.62793386
000180 9a 17 48 3e c1 8a f8 3d ce 68 04 be eb e7 f3 bd
       0.19540253 0.1213584 -0.12930605 -0.11909469
000190 e8 06 49 be d3 77 5c bf 2d f5 fd bd 35 11 27 3e
       -0.19631541 -0.8612034 -0.12400279 0.16315158
0001a0 64 f8 15 be 2a 87 34 be f2 c9 e5 3d d0 c1 c8 bd
       -0.14645535 -0.17629686 0.11220159 -0.09802592
0001b0 24 21 19 bd 79 c5 26 3f 9b 80 5b be 8c 07 e2 3b
       -0.03738512 0.6514507 -0.21435778 0.0068978723
0001c0 23 6f aa 3e 74 e7 f6 be a0 4f 2e 3d 8a fe c6 3e
       0.33287916 -0.4822346 0.042556405 0.38866073
0001d0 9f 0d 3e be 30 f3 2d 3e 57 89 52 3f 92 34 2b be
       -0.18559884 0.169873 0.82240814 -0.16719273
0001e0 c2 05 9d be d0 ec 98 be 5c e0 93 be f6 e6 be bd
       -0.30668455 -0.29868174 -0.2888211 -0.09321396
0001f0 d6 07 31 3e 46 cf 54 be f6 70 ae 3e e1 10 34 be
       0.17288145 -0.20782194 0.34070557 -0.17584564
000200 b6 a3 6f be a0 e1 19 be f0 76 93 3d 6d 9f 17 be
       -0.23402295 -0.15027475 0.0720042 -0.1480691
000210 61 94 2e be ec 9f ac 3e ae 67 3f be 5a 26 6a 3d
       -0.1704879 0.3371576 -0.18691894 0.05716548
000220 dc 9c b1 3d 6a 5c 57 be 50 f0 08 3f 99 09 0d 3e
       0.08672497 -0.21031347 0.5349169 0.13773192
000230 eb ee fd 3e bb 23 07 be 7a 27 48 3d ef 21 1a be
       0.49596342 -0.13197224 0.048865773 -0.15052007
000240 e3 48 dc bd af 54 9b 3c df 4b 07 be 91 16 d6 3d
       -0.107560895 0.018961279 -0.13212536 0.10453523
000250 6b f4 8c be 8d 53 38 bd 0a 03 a7 3c 14 99 05 be
       -0.27530226 -0.045001555 0.020387191 -0.13046676
000260 ae 69 df 3c 31 3d f2 3e 94 ab c0 3c e9 bd 12 3c
       0.027272072 0.4731231 0.023519315 0.008956411
000270 82 a2 01 3f a9 f2 3f 3d e5 24 49 be 5c 70 61 be
       0.5063859 0.046862278 -0.1964298 -0.22015518
000280 65 4b 81 3e f8 89 a4 be 6e 2d 8d 3e c4 75 78 be
       0.25252834 -0.32136512 0.27573723 -0.24263674
000290 b1 07 8c be c4 0e 3f 3e b9 6b 02 be cd 7d b2 3e
       -0.27349618 0.18657976 -0.12736405 0.34861603
0002a0 14 b8 10 be 6c df 28 3e 32 0c 28 3c d8 79 2f 3d
       -0.1413272 0.16491479 0.010256814 0.04284081
0002b0 b1 7c ab be 83 68 48 be 1b 27 8f 3e 15 93 28 be
       -0.3349357 -0.19571118 0.27959523 -0.16462357
0002c0 a6 9c a6 be ed 12 32 be 05 01 07 be 5a 59 2f bf
       -0.32541388 -0.17390032 -0.13183983 -0.68495715
0002d0 13 dd 39 3e 86 5f 8a 3d 27 9b b1 be b7 bb 40 bd
       0.1815074 0.06756501 -0.34688684 -0.04705402
0002e0 d4 19 ce 3e 0a f7 13 bf b4 8d ef be 09 e4 da 3c
       0.4025408 -0.57798827 -0.46787798 0.026720064
0002f0 02 3a 1e be da eb c3 3d 9f df 07 bf 74 ec 56 be
       -0.15451816 0.095664695 -0.53075594 -0.20988637
000300 a1 fb c4 be f3 bc ef be e4 e4 a2 be 6a 11 87 bc
       -0.38473228 -0.46823844 -0.31815255 -0.016487796
000310 1e 5b b5 3d 93 40 42 bd 20 41 70 be 12 07 8a be
       0.0885527 -0.047424864 -0.23462343 -0.2695852
000320 77 13 89 be a8 21 6b bc 11 03 9b 3d 0c 41 c0 be
       -0.26772663 -0.014351286 0.07568944 -0.37549627
000330 9c 32 4b be ff 09 a7 3e aa ac ae 3e 38 5b 84 be
       -0.19843525 0.32624814 0.34116107 -0.25850844
000340 9f b0 8a be 11 b4 68 be ad 59 82 3e a8 4a 09 3f
       -0.27087876 -0.2272494 0.25459042 0.5362954
000350 e4 b0 b8 3e d9 7f 6b 3e 25 0f 68 3e 98 a2 62 3e
       0.36072457 0.22997989 0.22662027 0.22132337
000360 63 4c 95 3d 30 fd b9 be af 8e c6 be ac a5 8f be
       0.0728996 -0.3632598 -0.38780734 -0.28056085
000370 f8 29 25 3d f9 62 b1 bd e0 5d fc 3e 56 2c d4 be
       0.040323228 -0.08661456 0.4929037 -0.41440076
000380 c4 0d c5 bd e5 17 d7 be b9 1a 31 3e f4 73 6c bf
       -0.09621766 -0.42010418 0.1729535 -0.9236443
000390 ad cf fb 3d 15 49 b6 be 88 d3 86 3e 6d 5b a9 be
       0.122954704 -0.35602632 0.2633326 -0.33077565
0003a0 3d 8b 40 be 13 d4 fc bc bc a8 18 be be 96 e9 bd
       -0.18803115 -0.030862844 -0.14908117 -0.11405705
0003b0 80 97 38 be 39 34 24 be c9 f2 c3 bd 03 5a ba bd
       -0.18026543 -0.16035546 -0.09567792 -0.090991996
0003c0 1a f3 ad be c9 9f 86 be b9 ce 3b be 07 2f 2f be
       -0.33974534 -0.2629378 -0.18340577 -0.17107783
0003d0 af 36 90 bd 3c 46 f2 ba 4c 6a 46 3e 7b 9f 21 be
       -0.0704168 -0.0018484066 0.19376487 -0.15783493
0003e0 98 cb 09 3e 9c 24 35 be ac 9e 86 3e 59 04 e1 be
       0.13456571 -0.17689747 0.26292932 -0.4394863
0003f0 22 ce 84 3d fd 27 e7 3e 40 ea 04 bf 3a 39 07 3e
       0.06484629 0.45147696 -0.5191994 0.13205424

action_out.weight f4 [4, 256]
000000 b9 3e 97 bb 33 40 eb 3d 8d 12 b4 3d 73 7d 17 be
       -0.0046156314 0.114868544 0.08792601 -0.14793949
000010 b0 17 81 be 53 5f 74 bc 6f bd cd 3c 78 fb 52 bb
       -0.25213385 -0.014915305 0.025114743 -0.0032193344
000020 be 97 97 3a ff c0 01 3d 86 86 fb be 96 3e 1e 3c
       0.0011565608 0.031678196 -0.4912607 0.009658476
000030 7b ad 9a 3e 14 b4 3e bd 92 e1 a0 ba 74 fb 4c 3d
       0.3021048 -0.046558455 -0.0012274256 0.050044492
000040 97 ec 67 bd bb 2e 42 bb 3b 80 00 3d 27 fe b4 bd
       -0.056622114 -0.0029629904 0.03137229 -0.08837538
000050 86 dc 48 be 64 12 f4 bc 22 0e c8 be 50 22 6a 3f
       -0.19615373 -0.029793926 -0.39073282 0.91458607
000060 b8 0b 0d 3d 30 f6 ac ba 62 5a 11 3d cc 94 eb 3a
       0.034435004 -0.0013195928 0.035486586 0.0017973422
000070 d3 c9 fb bf db 09 da 3e 1a b9 8d 3e 3e 29 3f bc
       -1.9670967 0.42585644 0.27680284 -0.011667548
000080 30 f3 b8 bd 78 f3 fe bc e7 bc 7c bc 92 c3 56 ba
       -0.09030759 -0.031121954 -0.015425897 -0.00081925944
000090 d6 26 8c 3d 02 01 0c 3d d5 4e 03 bd 25 3f c5 3c
       0.06843345 0.03418065 -0.032057602 0.024077961
0000a0 7b 97 30 be ff f4 b9 bd e2 2f b5 3d a3 46 d3 bc
       -0.17245285 -0.090799324 0.088470235 -0.025790518
0000b0 c2 64 d9 3c e8 73 8b bc a4 13 ce bc a7 98 51 3e
       0.026537303 -0.017023042 -0.02515585 0.20468388
0000c0 4d 39 fe bb da 59 1e 3e 66 f4 11 40 10 23 66 3d
       -0.0077582956 0.15463963 2.280542 0.056185782
0000d0 76 82 b0 3c 16 bf 77 3d f7 f7 60 bd 0b a5 6d 3f
       0.021546584 0.060484968 -0.054923978 0.9282996
0000e0 54 8f d6 3d 17 55 df 3b 0f 5f 8b be a3 e5 31 bd
       0.104765564 0.0068155634 -0.2722096 -0.04343189
0000f0 01 9f aa 3c 41 bd de bc c7 6d 41 bb 3a d9 ea 3c
       0.020827772 -0.027189853 -0.0029514895 0.028668035
000100 5e 59 07 bf 12 2b 85 3d 25 7e 0f 3d 48 e5 34 be
       -0.5287074 0.06502356 0.03503241 -0.17665589
000110 74 cf 00 3e c5 a6 33 be d0 b2 62 3d a4 37 02 3f
       0.12579137 -0.17544086 0.05534631 0.5086615
000120 cf 0e 81 3e f1 0d a1 bc 5f 59 2c 3b 9f 40 8b be
       0.2520661 -0.019659968 0.0026298387 -0.2719774
000130 a0 b5 11 bd c1 19 25 3e 64 38 d6 bb 44 49 c2 bd
       -0.0355736 0.16123106 -0.006537484 -0.094866306
000140 f4 94 7b bc 50 4b 98 3c 1b 8c b9 bc b1 63 13 be
       -0.015355337 0.0185906 -0.022649815 -0.14393498
000150 ba b5 b3 bc 96 b7 5e bc 38 c6 29 3d 59 68 27 bd
       -0.02193724 -0.013593575 0.0414488 -0.040870998
000160 70 00 4f bc a0 72 0a 3a a7 22 3f ba 50 6b f9 3d
       -0.012634382 0.00052813627 -0.00072912354 0.12178671
000170 eb 85 b3 bc ee 21 7c 3c 75 b5 a1 bd 4d 9a 80 bf
       -0.021914443 0.015388949 -0.07895938 -1.0047089
000180 cb c8 02 bd 77 f3 2c bd f8 1f 3b bf 06 50 2f 3f
       -0.031929772 -0.042224374 -0.73095655 0.6848148
000190 f0 26 cd 3d 49 2d 13 3d 6a 49 6a bd 0d 6e e5 3c
       0.10017192 0.03593186 -0.05719892 0.028006578
0001a0 73 e2 19 bc 23 3a 8e 3e 56 6c a2 3d bc 1a 87 be
       -0.009392369 0.2777873 0.0793082 -0.26387584
0001b0 ad b5 5a be 55 21 9d 3d e9 6e 00 3e fd 09 b8 bc
       -0.21358366 0.07672373 0.12542309 -0.0224657
0001c0 da 2e 94 bd bf 79 8f 3d 01 a4 f2 3a e4 f3 b2 3a
       -0.07235499 0.07005643 0.0018512012 0.0013653007
0001d0 26 1b dd bd bb a9 75 bd 8b 6e ac bd e8 74 76 bd
       -0.10796194 -0.05997632 -0.08419522 -0.060170084
0001e0 22 3f 8c bd ec 11 5c bd 1e ca 36 bf b7 01 0c 3f
       -0.06847979 -0.05372803 -0.71402156 0.54690117
0001f0 94 e8 d6 3c f1 dd 94 3c a4 b5 87 3c 32 88 49 bf
       0.026233949 0.018172236 0.016566105 -0.7872344
000200 f4 1b 41 3c 12 f6 ee 3c 94 b4 63 be 9a b1 25 be
       0.01178645 0.02917007 -0.22236854 -0.16181031
000210 ed 00 74 3d 31 fb 2d 3e 94 27 12 3c 9b e4 db bd
       0.059571195 0.16990353 0.008920569 -0.107369624
000220 c0 ea 09 bc db 82 ea be c3 76 29 3d ba f4 23 bd
       -0.008417785 -0.4580296 0.041373026 -0.04002831
000230 44 de 2a 3d a4 96 e5 3c eb 8d a9 3e 3d 5d 3b bd
       0.041715875 0.028025933 0.33116087 -0.045743216
000240 a3 cf 06 bc 3a a3 99 3d d6 fe d0 be d1 e2 14 bc
       -0.008228215 0.07501836 -0.40819424 -0.00908728
000250 d8 13 56 bd ab 2f 19 bd 43 62 80 bb 78 0a 1f 3e
       -0.05226502 -0.037398975 -0.0039179637 0.15531337
000260 11 d0 cb bb cf bc 20 bd 33 4f 37 3e db 35 80 3d
       -0.006219872 -0.039242562 0.17901306 0.06260272
000270 d4 07 c7 3c 3a b2 19 bc c5 00 63 3e 91 cb ab 3e
       0.024295725 -0.009380871 0.22168262 0.33553746
000280 21 04 0a bd 20 4f 2a be 0b 87 53 bd 37 18 bf bc
       -0.033695344 -0.16631746 -0.05164246 -0.023326976
000290 5e c9 2a 3c 71 48 1b 3d d2 4a 57 3d d4 0d 3b 3d
       0.010423986 0.037910882 0.05256159 0.045667484
0002a0 42 86 f9 3c a2 cf 0a bc 58 fd b7 3d dc 7d b2 3c
       0.030459527 -0.008472355 0.08983868 0.02178853
0002b0 4b ba f9 bd f3 36 95 3e 37 7a 13 3d 57 64 38 be
       -0.12193736 0.29143485 0.036005225 -0.18007027
0002c0 37 67 19 3d 97 a5 8f 3e 1e 08 b4 bd 13 c5 29 be
       0.03745195 0.28056023 -0.08790611 -0.16579084
0002d0 cc 95 43 3d ab 51 2d 3d bb 77 fe be c6 19 ae 3c
       0.04775028 0.042314213 -0.49700722 0.021252524
0002e0 68 e1 49 bb 01 11 92 3d f7 28 92 bf 75 6e f9 be
       -0.0030804519 0.071321495 -1.1418751 -0.48717085
0002f0 e7 6e fa 3a 91 cc cb bc 5d 8e bb bb 0a 6c b0 3c
       0.0019106538 -0.024877818 -0.005723758 0.021535892
000300 7c a6 c2 bd 5f ee 41 3d e9 c3 32 bd 02 28 94 bc
       -0.095044106 0.04734647 -0.043643866 -0.018085483
000310 2f 47 e2 3b e0 c9 38 bc f9 e6 3b 3d 6e 2e 12 be
       0.0069054584 -0.0112785995 0.04587457 -0.14275524
000320 26 9a 49 be c4 f6 3a 3c 5e 0f 2c bf a8 00 01 be
       -0.19687709 0.011411373 -0.6721095 -0.12597907
000330 e8 d2 d2 3d 32 19 1c bd 68 0d de bd be fe 10 bf
       0.102941334 -0.038109966 -0.10842401 -0.56638706
000340 b4 e3 4f 3e ff 66 4c 3c b0 81 03 be d4 07 a8 bd
       0.20301706 0.012475728 -0.1284244 -0.08204618
000350 e7 18 9e be 4c e9 e2 3d 1e 50 1b bd 1c ff 03 b8
       -0.30878374 0.11079654 -0.037918203 -3.1470423e-05
000360 0d 06 fa be a1 ec 5b bd 7f 68 29 c0 30 2c 30 3f
       -0.4883274 -0.053692464 -2.647003 0.68817425
000370 e0 27 c2 bd f6 83 a5 3c e5 e7 17 be f3 5c 58 3e
       -0.09480262 0.020204525 -0.14834554 0.21129207
000380 a5 e3 f3 bd 62 bb 22 bf 9b 11 63 3d b0 fc e9 bb
       -0.11908654 -0.63567173 0.05543671 -0.0071407184
000390 fa 9d 75 3d 0f 06 dc be e2 00 21 3e 62 80 4e 3a
       0.05996511 -0.42973372 0.15722993 0.0007877407
0003a0 14 e6 73 bc 50 b7 82 3d a0 7f e6 3c 54 f0 36 3d
       -0.014886398 0.0638262 0.028137028 0.04466279
0003b0 62 67 e3 bc ec 48 95 bd 11 41 8e 3e 4a 52 13 3c
       -0.027759258 -0.07289299 0.27784017 0.008991787
0003c0 0e 96 3a 3c b7 ac ce 3c d2 62 ef 3d 93 bd 14 bd
       0.011388315 0.025228841 0.1168877 -0.036313605
0003d0 dd 3a dd bd b5 03 37 bb 50 71 ef bc 4e 0b 1a bd
       -0.10802243 -0.0027925794 -0.029228836 -0.037608437
0003e0 03 09 a3 3d a2 a0 18 3d 06 fa d7 3d ab 7d 08 3d
       0.07960703 0.037262566 0.10545735 0.03332297
0003f0 7f 75 58 bd e9 e1 01 3e fb 59 de 3a 96 0f 50 3c
       -0.052846428 0.12683834 0.0016964072 0.0126990285

action_out.bias f4 [4]
000000 51 c7 4f bc dc 88 8f bb 8a da 6e 3b b2 57 52 ba
       -0.012681798 -0.0043803286 0.0036446177 -0.0008023932
