mujoco_project/saved_models_baseline/FetchSlide-v1/model.pt (torch_old, 562022 bytes, 8 tensors)

fc1.weight f4 [256, 28]
0.54984605 0.25194058 -0.21850847 -1.2331474 -0.42557833 -0.26649976 -1.8097253 -0.55531776
-0.13005844 -1.4310428 1.498149 0.04343065 0.046589747 0.010522585 -0.054537486 -0.085680835
-0.22075287 0.03109815 -0.051644098 0.018800534 0.026344202 -0.087428026 -0.15364857 0.104044676
-0.012792088 -0.085930765 0.13542692 -0.07532845 -0.1018195 -0.050161995 0.15373352 1.1212779
0.087865725 -0.062969625 1.3886198 -0.16758506 -0.066056654 0.10527786 -0.30289653 -0.2651269
-0.036828037 -0.0005494105 1.3616885 -0.15669581 0.024751814 0.007886945 0.019412063 -0.013136432
1.0958242 -0.09436094 0.013949566 0.0044157426 0.044687714 -0.018663507 0.12808558 -0.12532075
0.03958809 0.057943553 -0.25508285 -0.06954546 0.09739402 -2.1040578 -0.20471488 -0.13609739
-0.3423678 0.26687187 -0.29211456 -0.12986548 -0.07138879 -0.0034300315 0.016051648 0.14029652
-0.12663196 0.06823058 -0.057512358 -0.074617505 0.08548061 0.19839288 -0.100968584 0.075872764
-0.15662129 -0.48495346 0.8536139 -0.20282117 0.25501585 -0.3017887 -0.25087655 0.26820067
-0.16801576 -2.4916275 -0.28573617 0.2708594 -0.50578785 -1.8753647 2.2032409 0.33192253
0.10938429 -0.043926314 -0.19854398 0.101016566 -0.29371417 0.14810959 -0.04784624 0.1488348
-0.1748953 -0.09995638 -0.14524898 -0.28793737 0.28764653 -0.29289824 0.6556346 -1.9879915
0.14367272 -0.17791381 -0.2190003 0.64144856 -0.39927936 -1.1506411 0.83447444 0.0049020587
-0.13329192 -0.7615978 1.2365702 -0.09989069 0.026316313 0.11529374 1.0013871 -0.6494281
-0.50747377 -0.14698157 0.06697981 0.0362313 0.88623196 -0.5317971 -0.4209025 -0.09859441
0.1214338 0.10904341 -0.05130176 -1.2182455 0.28098947 0.08544963 0.37203416 -0.04472953
0.6165704 -1.1316848 -0.73174816 0.55812263 -0.64274025 -1.6816639 1.2388362 -0.24418394
-0.18980208 -0.039515052 -0.23581026 0.8614139 -0.27709696 0.064415306 0.0013607693 -0.09795522
-0.23379873 0.7127882 -0.27115506 0.27098987 -0.14689055 0.49536833 -0.16811672 -0.15184273
-0.03762034 -0.005112899 -0.1580347 -0.058494966 -0.07248744 -0.7416276 0.27532086 0.18699344
-0.16106156 -1.0199322 1.1025052 0.017446626 0.06679923 0.057822213 0.26490322 -1.0416203
-0.09016464 0.009036783 -0.047901973 0.0388039 0.2058495 -1.0108185 -0.120934516 -0.03469007
0.050366133 0.3173019 -0.036693845 -0.11215117 0.69975674 -0.31949627 0.40052763 0.69066757
-0.4690162 -0.47576347 0.06972903 -0.40236172 -0.36673728 -0.37536067 0.60849226 0.27790457
-0.48117664 0.011099061 0.5950982 -0.7883054 -0.12961236 0.0024352618 -0.11869914 -0.04942389
0.50882787 -0.80891716 -0.08986271 -0.16648832 -0.15578404 -0.28423825 0.5433889 -0.24175613
0.74942523 -0.16113083 0.0040307543 0.19408278 0.659452 -0.9241803 -0.19582753 1.3457395
-0.37530047 0.37923193 -0.81050235 -0.13283485 0.3656271 -0.06408676 -0.30151072 0.052331466
0.04004961 -0.14321098 -0.005617546 -0.07239561 -0.2559204 0.058488652 -0.022597918 0.054629058
0.06891726 0.1995317 -0.42258227 -1.0542269 0.27450585 0.2579185 -0.08822518 0.83399516
00000000: b6c2 0c3f 5bfe 803e afc0 5fbe c6d7 9dbf
00000010: 67e5 d9be a872 88be 14a5 e7bf 4e29 0ebf
00000020: 0a2e 05be 692c b7bf 59c3 bf3f 56e4 313d
00000030: e4d4 3e3d ec66 2c3c b362 5fbd 6f79 afbd
00000040: 0a0d 62be 8cc1 fe3c c388 53bd 9403 9a3c
00000050: cccf d73c 770d b3bd 0d56 1dbe 6015 d53d
00000060: e895 51bc 78fc afbd 5bad 0a3e cd45 9abd
00000070: be86 d0bd aa76 4dbd 526c 1d3e 0986 8f3f
00000080: f2f2 b33d 38f6 80bd 4bbe b13f 6b9b 2bbe
00000090: b648 87bd eb9b d73d 4115 9bbe b7be 87be
000000a0: ffd8 16bd 5106 10ba cf4b ae3f de74 20be
000000b0: 51c4 ca3c 3f38 013c 0c06 9f3c 303a 57bc
000000c0: f843 8c3f 4f40 c1bd b88c 643c efb1 903b
000000d0: 770a 373d 36e4 98bc de28 033e 1554 00be
000000e0: 1f27 223d 3856 6d3d 389a 82be da6d 8ebd
000000f0: 8476 c73d e2a8 06c0 c7a0 51be 1d5d 0bbe
00000100: d54a afbe 6ea3 883e 0a90 95be 75fb 04be
00000110: 4934 92bd 61ca 60bb bf7e 833c e4a9 0f3e
00000120: cfab 01be 79bc 8b3d 1492 6bbd 10d1 98bd
00000130: 7510 af3d 8127 4b3e 9ec8 cebd 2e63 9b3d
00000140: 5561 20be d24b f8be 7186 5a3f 5ab0 4fbe
00000150: 7091 823e 0c84 9abe e472 80be 9951 893e
00000160: 530c 2cbe d376 1fc0 034c 92be 15ae 8a3e
00000170: 507b 01bf f30b f0bf e601 0d40 c0f1 a93e
00000180: df04 e03d 14ec 33bd 1d4f 4bbe c6e1 ce3d
00000190: b461 96be 0aaa 173e 6bfa 43bd 2668 183e
000001a0: c117 33be eeb5 ccbd 26bc 14be 876c 93be
000001b0: 6846 933e c2f6 95be abd7 273f 8176 febf
000001c0: f11e 133e 0a2f 36be 9d41 60be f935 243f
000001d0: 586e ccbe 3548 93bf 1ea0 553f 73a1 a03b
000001e0: ad7d 08be 13f8 42bf ef47 9e3f 7d93 ccbd
000001f0: 4f95 d73c 201f ec3d 742d 803f ec40 26bf
00000200: cde9 01bf 5682 16be b62c 893d 4667 143d
00000210: 19e0 623f db23 08bf 8880 d7be deeb c9bd
00000220: 49b2 f83d 2752 df3d cb21 52bd 78ef 9bbf
00000230: dadd 8f3e 3700 af3d 437b be3e 5036 37bd
00000240: 8fd7 1d3f 0cdb 90bf d953 3bbf 20e1 0e3f
00000250: a08a 24bf c340 d7bf 2f92 9e3f 5b0b 7abe
00000260: 7a5b 42be 89da 21bd 3f78 71be 9f85 5c3f
00000270: a7df 8dbe 2cec 833d d75b b23a bf9c c8bd
00000280: ef68 6fbe 4a79 363f d6d4 8abe 2fbf 8a3e
00000290: 7a6a 16be eba0 fd3e ca26 2cbe a97c 1bbe
000002a0: c917 1abd 1b8a a7bb d9d3 21be 6b98 6fbd
000002b0: 4c74 94bd 4edb 3dbf dbf6 8c3e 357b 3f3e
000002c0: 52ed 24be 238d 82bf e41e 8d3f 3aec 8e3c
000002d0: 09ce 883d fcd6 6c3d 65a1 873e d053 85bf
000002e0: 3da8 b8bd 040f 143c dc34 44bd d7f0 1e3d
000002f0: 36ca 523e 8062 81bf 84ac f7bd 2d17 0ebd
00000300: b84c 4e3d 6575 a23e 494c 16bd 83af e5bd
00000310: 4223 333f 0495 a3be f511 cd3e 97cf 303f
00000320: e422 f0be 4597 f3be 18ce 8e3d 5b02 cebe
00000330: fdc4 bbbe 462f c0be 26c6 1b3f 8249 8e3e
00000340: c95c f6be d6d8 353c 5b58 183f 62ce 49bf
00000350: 1ab9 04be ea98 1f3b 8918 f3bd b470 4abd
00000360: 8b42 023f 3215 4fbf f109 b8bd ea7b 2abe
00000370: da85 1fbe ad87 91be 891b 0b3f eb8e 77be
00000380: 55da 3f3f 7bff 24be 6b14 843b a3bd 463e
00000390: d9d1 283f 1597 6cbf 0387 48be 3141 ac3f
000003a0: 6227 c0be b02a c23e 157d 4fbf dc05 08be
000003b0: 7a33 bb3e eb3f 83bd 9d5f 9abe 8559 563d
000003c0: 0f0b 243d e6a5 12be 6413 b8bb 2644 94bd
000003d0: 0008 83be cc91 6f3d 451f b9bc b8c2 5f3d
000003e0: 7e24 8d3d 0a52 4c3e b45c d8be e8f0 86bf
000003f0: 088c 8c3e e50d 843e 67af b4bd b580 553f

fc1.bias f4 [256]
-2.8850462 -0.07447161 -1.6973515 -1.9333093 -1.1716851 -1.4899746 -1.1953524 -1.1307244
-1.4482467 -0.39954567 0.5220645 -1.7096115 -2.0203054 -1.1115834 -2.3762152 0.43485156
-0.13571995 -1.0871155 -0.87669235 -2.4832888 -0.64859635 -0.7625385 -0.79465353 -2.275085
-0.7182999 -1.1105858 -0.44686657 -1.0114659 -2.540274 -0.9262376 -1.1309319 0.03499593
-1.528974 -0.92632717 -1.2933023 -0.4234179 -1.7716807 -2.5310957 -1.3486104 -1.4669185
-1.1023612 -0.0129270395 -0.9561274 -2.6627674 -1.3229988 0.99279857 -1.558049 0.22028923
-0.96264625 0.5636474 -0.54561126 -1.7779936 -1.0959269 -0.45699334 -1.5100387 -2.1695356
-1.5333285 -1.1177336 -1.5470767 -2.7491288 -1.8568784 -1.5928338 -1.4370208 -2.2400725
-1.02473 -2.502317 -1.2849109 -1.5274818 -0.5020309 -1.6034064 -2.1527321 -1.3977708
-0.94011885 -0.5572444 -0.56322324 -2.049757 -1.1709032 -1.5580641 -1.1976848 -1.4573165
-1.3598877 -1.6583521 -1.8701317 -1.7190228 -0.667433 -1.6654375 -0.3879088 -2.1145005
-0.7673097 -1.633683 -1.3127366 -1.2437663 -1.6456168 -1.1820256 -1.1230657 -0.22427852
-2.2717838 -1.139358 -1.6362725 1.4828272 -0.9653896 -1.9033453 -1.22912 -1.5177449
-1.1734058 -1.5817345 -0.34082913 0.021361275 -1.2220024 -0.5521809 -2.632412 -1.6723199
-0.9510689 -3.70751 -0.2649248 -0.79769003 -1.5858803 -0.48837337 -1.0297723 -2.3195882
-1.0478604 -1.1247945 0.27215582 -2.0264812 -1.5368843 -1.7360286 -0.88664335 -1.5509942
-0.99805254 -0.23925479 -2.2644565 -0.1354791 -1.1663687 0.52642983 -1.0971053 -1.9066848
1.3942981 -2.0644057 -0.46580064 -1.190482 -2.068421 -1.2924817 -0.7466012 -0.53255296
-0.14652516 0.3628264 -1.5008526 -0.7030826 -1.09497 -1.1607985 0.19562611 -1.0456678
-1.3840983 -1.467152 -1.4609975 -0.8849185 -0.5963124 -0.784611 -2.631707 -0.4739216
-2.3666377 -0.32543465 -1.7100837 -0.46307686 -0.80747885 -1.3510021 0.08852514 -1.3985857
-1.8857002 -1.00783 -0.9863846 2.1119025 -1.5283126 -1.0159175 0.016936872 -1.564574
-0.74602365 -2.0849426 -0.42449984 -1.1962825 -2.3280272 -0.52339834 -0.4559654 -1.2978429
-1.7087963 -2.227569 -1.649591 -1.6406701 -0.49967906 -1.624952 -1.306643 -2.0836194
-1.0263717 0.033806484 -2.9939005 -1.6437668 -2.1619394 -3.211702 -0.17805506 -2.0048912
-1.1986134 -0.5684592 -0.6174963 -0.9971999 -1.8452487 -2.8909404 -0.44313848 -1.1360346
-1.7963198 -1.8270239 -0.99507356 -1.3787075 -1.3376908 -0.56599545 -1.051964 0.14580455
-0.84555125 -1.599037 -1.5992761 -1.3098853 -1.3505648 0.3425662 -1.0341972 0.07500045
-1.1953403 -1.0076748 -0.834575 -0.14050688 -0.04368572 -1.1756501 -0.7369043 -1.6781865
-1.5400797 -1.1773646 -1.0726742 0.36432633 -1.3768786 -1.7541515 -0.779111 -1.7918261
0.48694527 -1.7893629 -0.8439669 0.41067338 -1.3051838 -1.0907428 -0.13116516 -1.4860868
-1.0498757 1.3634644 -1.3225137 -1.5861393 -1.1502727 -1.8454922 -2.5546303 -1.1448269
00000000: 99a4 38c0 9284 98bd d042 d9bf ae76 f7bf
00000010: c7f9 95bf 7db7 bebf 4f01 99bf 94bb 90bf
00000020: 2660 b9bf 4091 ccbe 05a6 053f 8dd4 dabf
00000030: af4c 01c0 5d48 8ebf e913 18c0 dda4 de3e
00000040: 2cfa 0abe 9a26 8bbf e96e 60bf 34ee 1ec0
00000050: 690a 26bf b935 43bf 6a6e 4bbf fe9a 11c0
00000060: 81e2 37bf ad27 8ebf b2cb e4be b777 81bf
00000070: d993 22c0 e81d 6dbf 60c2 90bf e457 0f3d
00000080: 6cb5 c3bf c723 6dbf ee8a a5bf 3bca d8be
00000090: 6fc6 e2bf 79fd 21c0 449f acbf fcc3 bbbf
000000a0: 2c1a 8dbf efcb 53bc c4c4 74bf c86a 2ac0
000000b0: 0658 a9bf 0c28 7e3f 266e c7bf 8093 613e
000000c0: fc6f 76bf 324b 103f 2ead 0bbf 4b95 e3bf
000000d0: 5547 8cbf 08fb e9be f348 c1bf acd9 0ac0
000000e0: 1c44 c4bf e511 8fbf 9c06 c6bf baf1 2fc0
000000f0: 31ae edbf fae1 cbbf 4cf0 b7bf 595d 0fc0
00000100: 5a2a 83bf f625 20c0 f677 a4bf 8684 c3bf
00000110: 1985 00bf 6c3c cdbf 5dc6 09c0 27ea b2bf
00000120: a1ab 70bf 92a7 0ebf 662f 10bf 382f 03c0
00000130: 28e0 95bf a56e c7bf bc4d 99bf 5989 babf
00000140: cd10 aebf e244 d4bf 7a60 efbf f008 dcbf
00000150: e4dc 2abf 0e2d d5bf fb9b c6be fa53 07c0
00000160: 696e 44bf 861c d1bf c107 a8bf bc33 9fbf
00000170: 92a3 d2bf 9d4c 97bf 9ec0 8fbf 45a9 65be
00000180: e864 11c0 7cd6 91bf 6171 d1bf 48cd bd3f
00000190: c623 77bf d2a0 f3bf ce53 9dbf 7745 c2bf
000001a0: 2932 96bf 4776 cabf 2881 aebe d7fd ae3c
000001b0: 936a 9cbf ba5b 0dbf 7079 28c0 940e d6bf
000001c0: 4079 73bf d847 6dc0 39a4 87be 6a35 4cbf
000001d0: 20fe cabf 130c fabe 94cf 83bf 2274 14c0
000001e0: 4a20 86bf 44f9 8fbf 0258 8b3e deb1 01c0
000001f0: a0b8 c4bf 2f36 debf 0ffb 62bf fa86 c6bf
00000200: 5f80 7fbf 35ff 74be dbec 10c0 08bb 0abe
00000210: 924b 95bf 1bc4 063f f26d 8cbf 3f0e f4bf
00000220: 5c78 b23f 391f 04c0 6c7d eebe b761 98bf
00000230: 0261 04c0 0a70 a5bf 4221 3fbf 6455 08bf
00000240: b10a 16be 62c4 b93e f01b c0bf 39fd 33bf
00000250: fa27 8cbf 0c95 94bf 3652 483e 71d8 85bf
00000260: 222a b1bf a3cb bbbf f701 bbbf 058a 62bf
00000270: eea7 18bf 44dc 48bf e36d 28c0 daa5 f2be
00000280: fe76 17c0 5f9f a6be 06e4 dabf 6918 edbe
00000290: efb6 4ebf a3ed acbf ab4c b53d db04 b3bf
000002a0: a05e f1bf 9300 81bf b383 7cbf 6929 0740
000002b0: bf9f c3bf 9609 82bf 32bf 8a3c f643 c8bf
000002c0: 68fb 3ebf b36f 05c0 0b58 d9be c91f 99bf
000002d0: 66fe 14c0 6ffd 05bf 4c74 e9be b71f a6bf
000002e0: d6b9 dabf 7e90 0ec0 cc25 d3bf 7a01 d2bf
000002f0: efd5 ffbe 6dfe cfbf 1440 a7bf 055a 05c0
00000300: 2660 83bf ab78 0a3d 119c 3fc0 f366 d2bf
00000310: 375d 0ac0 878c 4dc0 1154 36be 2350 00c0
00000320: 2a6c 99bf 8b86 11bf 3d14 1ebf 7e48 7fbf
00000330: 1c31 ecbf 2b05 39c0 0ce3 e2be 9569 91bf
00000340: cfed e5bf ebdb e9bf 24bd 7ebf 7d79 b0bf
00000350: 7439 abbf 14e5 10bf c2a6 86bf ca4d 153e
00000360: 0c76 58bf 3fad ccbf 14b5 ccbf 52aa a7bf
00000370: 4fdf acbf d664 af3e 9360 84bf d699 993d
00000380: e900 99bf 7dfb 80bf b5a6 55bf 09e1 0fbe
00000390: ccef 32bd b47b 96bf c3a5 3cbf d1ce d6bf
000003a0: 5521 c5bf e2b3 96bf 634d 89bf fb88 ba3e
000003b0: 8f3d b0bf 0988 e0bf d273 47bf 8f5a e5bf
000003c0: e450 f93e d809 e5bf 370e 58bf c843 d23e
000003d0: 4310 a7bf 769d 8bbf 2950 06be 1838 bebf
000003e0: 5462 86bf 0086 ae3f 2148 a9bf 9d06 cbbf
000003f0: 233c 93bf 1739 ecbf 107f 23c0 b089 92bf

fc2.weight f4 [256, 256]
-1.41828 0.057217084 -0.049753144 -0.10526873 0.16518947 0.041684445 0.31065446 -0.1576318
0.118048094 0.33865407 -0.0029857347 1.1688306 -0.04900153 -0.5248521 0.5643928 -0.1121069
-0.5193372 0.02843913 -0.11629232 0.8258907 0.06247169 0.6560114 0.28001466 -0.62406594
0.12066177 -1.61174 0.0056046024 0.1332937 -0.81416446 0.32956523 0.16636494 0.009163435
0.65372413 -0.07723389 -0.19544528 0.14515758 0.23037961 -0.67050284 0.61788505 0.2910527
-0.20559515 -0.19907969 0.08244326 -0.25262278 -0.4048724 -0.016047044 0.4816841 0.41118687
-0.14867005 -0.5674902 0.0651676 -1.2857659 0.34109408 1.2908562 -1.0152613 -1.0997802
-0.12147187 0.61710876 -0.57497174 -0.2339021 -0.6352249 0.45672703 -1.0202332 0.1363724
-0.46776593 0.16657157 0.1509275 -0.17624557 -0.067079686 0.36121652 -1.288542 0.40690407
0.5691929 -0.10985544 0.22673635 -0.37800762 -0.62474304 -0.5894361 -0.772665 0.195735
-0.632351 0.18337858 -0.532954 0.7048182 0.18714832 0.11550593 0.23784754 -2.3080525
-0.6758654 -0.27221048 -0.6745204 -0.7512926 1.0047995 0.2633601 -0.017669618 -0.8407758
0.6082333 -1.0518377 0.009911307 -0.26489556 0.8428976 0.27363354 0.42165703 0.28681847
-0.26719403 -0.6300464 0.0069624945 -0.10260862 0.23192407 0.6510382 0.71429574 0.5215574
0.13958205 1.1893026 0.5672791 0.16263789 -0.22401369 0.21851152 -0.6506084 -0.50049144
0.76257557 -0.009036095 -0.5133665 0.7124331 0.1501535 1.0712166 -0.4624581 -0.5349871
0.0038226203 -0.028598784 -0.30767727 -0.27675834 -0.07240588 -0.02019699 0.09056724 -0.29622608
0.2867742 -1.8277855 0.42333472 0.14590903 -0.8850321 0.4275997 -0.59260184 0.10902439
-1.0406262 -0.24999163 -2.1697228 0.3702563 0.5239905 -0.27857852 -0.010869234 -0.11611904
0.0013513914 0.008968029 0.0014603616 0.70816064 0.061637133 -0.08221284 0.90434164 -0.6776601
-1.1938761 -0.70867527 -2.527196 -0.8301716 0.9487898 0.39251646 -0.16257505 0.55785245
0.528811 0.050222803 0.036804505 -0.1686541 0.07054854 0.5562964 -0.39944166 -0.2467676
0.46001908 0.7670122 -0.3143452 0.3073085 -1.1437901 0.32882646 -0.32082084 0.08536578
0.6392286 -0.13056985 -1.2970262 0.19658895 0.10185538 -0.45644543 0.13998756 0.45411977
-0.3152735 -0.4740227 -0.9170199 -0.2636438 0.5145879 -1.7587503 0.46262226 -0.57092476
0.73534465 -0.97968304 0.24810517 0.32857817 0.23310567 -0.47378358 0.18867375 -0.4044082
-0.5111765 -0.21592626 -0.38000143 -0.045865174 -0.17162701 -0.039678004 0.5312376 -0.28695172
-0.092742674 0.005056019 0.81928706 0.3995726 -0.064979576 0.3636352 -0.18070447 0.57825965
0.27777877 0.005145709 -0.33400705 -0.05158662 -0.43032396 -0.5913465 0.055316932 0.713081
-0.5220201 -0.14189571 0.35998857 -0.17366748 0.2261017 -0.7331945 -0.1182987 0.6902253
-0.58173704 -1.404439 -0.017528126 0.20024225 -0.086772114 1.4274403 0.25523198 -0.13241903
-0.08425894 -0.044827495 0.08287728 0.04562729 -0.26238036 1.0286261 0.103942 0.32099116
00000000: 338a b5bf 765c 6a3d f4c9 4bbd 2297 d7bd
00000010: 6e27 293e 4fbd 2a3d 1a0e 9f3e 3b6a 21be
00000020: 33c3 f13d 1164 ad3e 51ac 43bb 3e9c 953f
00000030: d4b5 48bd b55c 06bf 0c7c 103f 4d98 e5bd
00000040: 48f3 04bf 2ef9 e83c ab2a eebd 936d 533f
00000050: 51e2 7f3d 5df0 273f 155e 8f3e c9c2 1fbf
00000060: 851d f73d 7f4d cebf d0a6 b73b 257e 083e
00000070: 156d 50bf c6bc a83e 925b 2a3e 3b22 163c
00000080: 775a 273f cd2c 9ebd cf22 48be 30a4 143e
00000090: a2e8 6b3e 13a6 2bbf b72d 1e3f dc04 953e
000000a0: 8987 52be 8cdb 4bbe 03d8 a83d c657 81be
000000b0: 6f4b cfbe 1775 83bc 4c9f f63e 1687 d23e
000000c0: f63c 18be 0a47 11bf 9776 853d fa93 a4bf
000000d0: e2a3 ae3e c73a a53f 15f4 81bf 99c5 8cbf
000000e0: 3ec6 f8bd d7fa 1d3f 5931 13bf 0884 6fbe
000000f0: 199e 22bf 20d8 e93e 0097 82bf 35a5 0b3e
00000100: 047f efbe bd91 2a3e bd8c 1a3e b879 34be
00000110: 1361 89bd 5ff1 b83e f2ee a4bf bb55 d03e
00000120: a0b6 113f e4fb e0bd 932d 683e 378a c1be
00000130: 29ef 1fbf 49e5 16bf 60cd 45bf c16e 483e
00000140: c1e1 21bf 98c7 3b3e ac6f 08bf f76e 343f
00000150: cfa3 3f3e 5f8e ec3d 4e8e 733e 22b7 13c0
00000160: 8405 2dbf 2c5f 8bbe 5ead 2cbf b654 40bf
00000170: 459d 803f 23d7 863e e0bf 90bc 153d 57bf
00000180: 2db5 1b3f 9ea2 86bf 0963 223c 64a0 87be
00000190: 23c8 573f b219 8c3e 6ee3 d73e dfd9 923e
000001a0: a8cd 88be b94a 21bf a325 e43b 7824 d2bd
000001b0: 817d 6d3e 71aa 263f 16dc 363f c984 053f
000001c0: 99ee 0e3e 113b 983f 3439 113f 8c8a 263e
000001d0: d863 65be 7cc1 5f3e 468e 26bf 3520 00bf
000001e0: 2738 433f 210c 14bc fd6b 03bf 0462 363f
000001f0: d7c1 193e a01d 893f 4fc7 ecbe eaf4 08bf
00000200: ed84 7a3b ff47 eabc e087 9dbe 45b3 8dbe
00000210: 8949 94bd 2874 a5bc 517b b93d f2aa 97be
00000220: 11d4 923e e0f4 e9bf 54bf d83e 2d69 153e
00000230: 7791 62bf 59ee da3e c1b4 17bf 2e48 df3d
00000240: 3d33 85bf cefd 7fbe bddc 0ac0 3c92 bd3e
00000250: 3e24 063f d8a1 8ebe df14 32bc d2cf edbd
00000260: 2c21 b13a a4ee 123c 9b69 bf3a 044a 353f
00000270: 3877 7c3d 355f a8bd ef82 673f 227b 2dbf
00000280: efd0 98bf be6b 35bf 94bd 21c0 2086 54bf
00000290: e3e3 723f ebf7 c83e 137a 26be 6bcf 0e3f
000002a0: 2860 073f 6db6 4d3d 52c0 163d a9b3 2cbe
000002b0: c17b 903d 7169 0e3f 9e83 ccbe a5b0 7cbe
000002c0: 9f87 eb3e e95a 443f dbf1 a0be 8a57 9d3e
000002d0: b767 92bf f15b a83e a142 a4be 41d4 ae3d
000002e0: 7ca4 233f 1ab4 05be f404 a6bf 9d4e 493e
000002f0: 8e99 d03d 37b3 e9be e658 0f3e 6382 e83e
00000300: 876b a1be 1ab3 f2be d1c1 6abf 52fc 86be
00000310: 08bc 033f bb1e e1bf d3dc ec3e 2028 12bf
00000320: 8c3f 3c3f 82cc 7abf 480f 7e3e 663b a83e
00000330: 41b3 6e3e c393 f2be b133 413e 970e cfbe
00000340: 77dc 02bf c61b 5dbe 8c8f c2be 1fdd 3bbd
00000350: febe 2fbe 6785 22bd 30ff 073f 56eb 92be
00000360: dfef bdbd f6ac a53b ccbc 513f c894 cc3e
00000370: 0314 85bd 652e ba3e 980a 39be d308 143f
00000380: 0539 8e3e 569d a83b f902 abbe 7e4c 53bd
00000390: 6c53 dcbe 7c62 17bf 0294 623d 7a8c 363f
000003a0: 1ca3 05bf 1c4d 11be 6c50 b83e e3d5 31be
000003b0: 3487 673e a2b2 3bbf 9746 f2bd 9bb2 303f
000003c0: b8ec 14bf a8c4 b3bf 2597 8fbc 4e0c 4d3e
000003d0: 94b5 b1bd 5db6 b63f c4ad 823e db98 07be
000003e0: f38f acbd 099d 37bd 90bb a93d aee3 3a3d
000003f0: b856 86be 05aa 833f 8bdf d43d f458 a43e

fc2.bias f4 [256]
0.15318754 0.024286313 2.2998998 -1.0722437 0.18268664 0.43860036 0.71678126 -0.013136712
-0.007533152 0.1108435 -0.09655974 -1.1206001 -0.73126376 -0.967345 -0.6054043 -0.562277
-0.5460351 1.2459885 0.6233031 0.33896446 0.24999136 -0.024270847 -0.23442498 0.2826859
0.04117596 0.13553567 -1.5106813 -0.06975806 0.36180824 -1.1625847 -0.9837694 1.7719724
0.4189717 0.4782954 -0.93936723 -1.2568492 0.39120895 -0.012235955 -1.4968845 -0.21895942
0.503367 -0.115017295 1.0944376 -0.10254085 0.4540349 -0.8439177 -0.34297886 0.037035912
1.1654282 -1.1252477 1.6789012 -0.039594144 -0.49743435 -0.5537673 1.5234553 -1.1687886
-0.08568976 -0.1434784 -0.05255022 -0.0314813 -0.052741833 -0.6433159 0.47948077 -0.6681534
-0.555781 1.8961136 -0.84067583 -1.4305401 -0.5712479 -3.0882764 -0.036458712 0.83615
-1.1092416 0.48513055 0.9170385 -0.45414662 -0.042370684 -0.33397385 0.60853875 -0.013606606
1.5641801 -1.1639956 -0.98556954 -1.3353473 0.2706472 0.6972771 -0.6845351 -0.18246488
-0.08132481 0.49724132 0.83915174 -0.99354917 -0.06135924 1.0174496 -1.2843268 0.14569056
0.40512198 0.18937036 -0.48936164 0.04464667 -0.47705942 -0.019004907 -1.1556113 -0.3077437
-0.6865991 -1.5606711 -0.07025729 1.3744982 -0.06440505 -1.2682997 -0.46835423 -2.6927161
-0.109315634 0.0044108056 0.6761296 1.7343638 0.56134975 0.5841989 0.13383739 0.42739168
-0.4233662 -0.00723218 0.75171906 -0.6051795 -0.41026017 -1.2539341 -1.271624 -0.3398351
-1.581884 -0.2412074 -0.10228888 -0.14592472 1.6824733 -1.183644 1.8325477 -1.2293696
0.032081038 -0.23673902 -0.08597664 -0.69897825 -1.0759777 0.043324295 -0.04568291 -2.3902385
0.6323082 -1.0834143 0.356592 -0.28535298 0.8870032 0.30511782 -0.13445655 -0.12548491
-2.0182993 -0.5777878 -0.120547295 0.03410896 0.40050837 -0.6523705 0.4284553 1.7875297
-0.52849805 -0.52442324 0.040176433 0.83136994 -1.888814 0.19007534 -0.90365684 -0.458177
-0.36946467 -0.59251785 -0.4893272 0.447961 -0.06328027 0.35395995 0.58905196 -0.03205754
-0.7237855 -0.25730234 1.5142725 0.35814703 0.8797512 0.1950572 0.106354214 0.8112349
0.28780296 -0.89695436 0.46130937 1.4303738 -0.5423662 -0.3572843 -0.27383876 0.08614938
-0.26889083 1.0090925 -0.1370007 -0.94835365 0.93007565 -0.16031913 -0.7485771 -0.033551194
0.012062615 -1.6998358 -0.03848392 -0.08378548 1.5706458 -0.49602127 -0.12030508 0.22925068
-0.32959518 0.3054777 -1.1268699 0.29693604 -0.38201666 -0.47209316 -0.014251856 0.42353493
-0.25164515 0.45891327 1.2473458 -1.1059134 -1.1168602 1.2353871 -0.14853905 -0.3948394
0.6909771 0.5840345 -0.7887794 -0.0857853 -0.006106273 0.05186713 -0.03082865 0.4887168
1.3202755 -1.9358811 1.5821661 0.21031128 0.9830236 -0.098121494 0.39408 -0.26701316
-0.16977976 0.5171113 -2.9634206 -0.75682425 -0.762728 -2.4252448 -0.90624416 -1.0538187
-0.034117498 0.42854515 -0.7070557 1.2779903 -0.5508611 0.043350797 -1.1677634 -0.76158184
00000000: 32dd 1c3e 17f4 c63c 8f31 1340 483f 89bf
00000010: 3512 3b3e 3a90 e03e fa7e 373f 5d3b 57bc
00000020: a9d8 f6bb eb01 e33d 1dc1 c5bd d36f 8fbf
00000030: 1a34 3bbf eca3 77bf c7fb 1abf 63f1 0fbf
00000040: f5c8 0bbf 8d7c 9f3f cb90 1f3f c08c ad3e
00000050: bcfd 7f3e a8d3 c6bc 1a0d 70be 35bc 903e
00000060: 20a8 283d ddc9 0a3e 015e c1bf 50dd 8ebd
00000070: ee3e b93e 93cf 94bf 50d8 7bbf fecf e23f
00000080: 7583 d63e 22e3 f43e 5f7a 70bf 6fe0 a0bf
00000090: 8a4c c83e 5179 48bc e999 bfbf e636 60be
000000a0: a9dc 003f 308e ebbd 8816 8c3f f000 d2bd
000000b0: 4377 e83e fe0a 58bf ed9a afbe f8b2 173d
000000c0: c02c 953f 1e08 90bf 3ce6 d63f 782d 22bd
000000d0: b7af febe b2c3 0dbf 9500 c33f dd9a 95bf
000000e0: 1d7e afbd 00ec 12be e63e 57bd 89f2 00bd
000000f0: d207 58bd 5ab0 24bf 817e f53e 1a0c 2bbf
00000100: aa47 0ebf dab3 f23f 8836 57bf f01b b7bf
00000110: 4d3d 12bf 52a6 45c0 bb55 15bd ed0d 563f
00000120: a1fb 8dbf 0863 f83e 09c3 6a3f e885 e8be
00000130: e28c 2dbd 9ffe aabe 32c9 1b3f 3eee 5ebc
00000140: 0e37 c83f cffd 94bf 494e 7cbf a9ec aabf
00000150: 4592 8a3e c180 323f b13d 2fbf 13d8 3abe
00000160: 9f8d a6bd 6a96 fe3e a6d2 563f 3d59 7ebf
00000170: d453 7bbd ca3b 823f d264 a4bf e82f 153e
00000180: 266c cf3e 4eea 413e 9c8d fabe 6ddf 363d
00000190: 2241 f4be 2eb0 9bbc 12eb 93bf 9590 9dbe
000001a0: f5c4 2fbf 12c4 c7bf 0ee3 8fbd 8fef af3f
000001b0: cbe6 83bd a557 a2bf 20cc efbe 7655 2cc0
000001c0: e0e0 dfbd 8588 903b d416 2d3f a2ff dd3f
000001d0: 9eb4 0f3f 0f8e 153f ab0c 093e 15d3 da3e
000001e0: 74c3 d8be ecfb ecbb a970 403f 0bed 1abf
000001f0: 9f0d d2be ea80 a0bf 93c4 a2bf defe adbe
00000200: 2d7b cabf 13ff 76be d57c d1bd 4a6d 15be
00000210: 495b d73f a681 97bf ec90 ea3f fc5b 9dbf
00000220: 6867 033d b76b 72be 8514 b0bd 3df0 32bf
00000230: a3b9 89bf d174 313d 011e 3bbd abf9 18c0
00000240: f3de 213f 52ad 8abf 3a93 b63e c919 92be
00000250: a412 633f 6738 9c3e faae 09be 1e7f 00be
00000260: d12b 01c0 e7e9 13bf 80e1 f6bd d6b5 0b3d
00000270: 6f0f cd3e c101 27bf 7e5e db3e c6cd e43f
00000280: a64b 07bf 9a40 06bf 0b90 243d a9d4 543f
00000290: a8c4 f1bf 1ca3 423e 0e56 67bf 2d96 eabe
000002a0: 792a bdbe 40af 17bf 1889 fabe 255b e53e
000002b0: 1699 81bd 3d3a b53e 1ccc 163f c44e 03bd
000002c0: 024a 39bf 22bd 83be aed3 c13f 0c5f b73e
000002d0: 6037 613f 13bd 473e 3dd0 d93d 17ad 4f3f
000002e0: e95a 933e cd9e 65bf be30 ec3e 7d16 b73f
000002f0: 83d8 0abf f8ed b6be 9834 8cbe 166f b03d
00000300: 0fac 89be f129 813f e949 0cbe 4ec7 72bf
00000310: 7019 6e3f b32a 24be c0a2 3fbf fa6c 09bd
00000320: 46a2 453c 3894 d9bf 51a1 1dbd b997 abbd
00000330: ec0a c93f 80f6 fdbe 8362 f6bd b1c0 6a3e
00000340: b3c0 a8be 9367 9c3e 463d 90bf 0008 983e
00000350: b097 c3be 32b6 f1be 9e80 69bc 92d9 d83e
00000360: a2d7 80be aef6 ea3e 07a9 9f3f 928e 8dbf
00000370: 46f5 8ebf 2a21 9e3f 9f1a 18be 6428 cabe
00000380: e0e3 303f 4983 153f 72ed 49bf 34b0 afbd
00000390: 2117 c8bb a172 543d 5d8c fcbc 1739 fa3e
000003a0: cafe a83f f4ca f7bf 6b84 ca3f d75b 573e
000003b0: 6fa7 7b3f ecf3 c8bd dbc4 c93e f3b5 88be
000003c0: bfda 2dbe 6861 043f afa8 3dc0 3cbf 41bf
000003d0: 2442 43bf 3637 1bc0 9eff 67bf 88e3 86bf
000003e0: cabe 0bbd 456a db3e 9a01 35bf 3095 a33f
000003f0: 3c05 0dbf 9b90 313d 4579 95bf 07f7 42bf

fc3.weight f4 [256, 256]
0.044931218 0.59479797 -0.30086803 -0.3975664 0.1918678 1.0485681 -0.36309075 -0.012862699
-0.064626746 0.19431265 0.07462766 0.19030605 -0.5700347 -0.1202146 0.24691246 0.3794757
-0.16465229 0.19862944 -0.11202639 -0.36385536 -0.36135396 -0.07417056 -0.30301455 -0.16512959
-0.784182 -0.42586946 -1.3679676 0.020409837 -0.16631068 -0.8985776 0.30368084 0.43940082
-0.8789823 -0.28070596 -0.3810041 -0.45888045 -0.62871766 -0.0029641686 -0.1518164 -0.31871176
-0.55016094 -0.29627085 -0.38255054 0.024362935 -0.38525668 -0.31523588 0.06692504 0.07586854
0.26246813 0.446237 0.041221216 -0.026413076 -0.547191 -2.8697388 -0.6070496 -1.4819903
0.025192635 -2.0100992 -0.06770868 -0.37416193 -0.08919419 0.082220234 -0.40125018 0.16776593
-0.06097879 -0.17587173 -0.6988352 -0.5448195 -0.124286056 -0.4287523 0.05351783 1.0746274
-1.2300944 0.18784241 -0.15400976 -1.9157171 -0.026294198 -0.19209935 0.7029918 -0.06745218
0.5470366 -1.8607136 -0.5565587 -1.2606176 -1.4669557 0.10789089 -0.6581615 0.022129375
-0.6893449 -1.4400548 -0.113659166 -0.9093972 0.054342214 0.10517368 0.08656812 -0.30990767
-0.49219385 -1.224873 0.5448347 0.13279475 -0.8065321 0.046922226 0.051395684 -0.05553221
0.3776753 0.34398562 0.016345097 -0.017213607 -0.04406796 0.02280671 -1.1080221 -1.7987146
-0.012796408 0.04773101 -0.23381487 -0.041601315 0.6622317 -0.07949462 -0.39271516 0.55308676
-0.58376575 0.13540767 -0.6153052 -3.412567 -1.2314073 0.02701391 -0.9528918 -3.2704217
0.29466945 0.32346058 0.06964172 -0.46313247 -0.24102631 -0.2455396 -1.1901371 -1.2898055
-0.059516072 -0.18560164 0.5028841 -0.5327079 -0.27141428 -0.056951564 -0.044705227 -0.83960944
0.13764612 -0.20098288 0.8109722 0.121529944 -0.72607225 -0.86507946 -0.10142797 0.02928472
-1.1849036 -0.5782939 0.24774218 -0.18309113 -0.6619064 -0.92533416 -0.8167543 -0.20888022
-0.4344413 0.11129187 -0.06333391 0.031059386 -0.3743473 0.13072045 -0.33369702 -0.29921097
-0.58913916 -0.3798474 -0.38853535 -0.6245886 0.05145834 -2.5048974 -0.40470254 -0.12974942
-0.4943119 -0.8171844 0.035335075 -0.2693211 -0.3700706 0.35548615 0.012271704 0.17911938
0.06431044 0.37935355 0.8891601 -0.41355804 -0.5516221 0.11467841 -0.19005531 -0.13966733
-0.23694117 0.00092346244 -0.055462778 -0.76777124 -0.074072674 0.8257068 -0.73371917 -0.036592476
-0.11730915 -1.2403867 -1.3313017 -0.11474999 0.26989898 0.21739522 0.012090353 -0.25604585
-0.10347715 0.31907967 -0.9136276 -0.28431576 -0.69286126 -0.51791495 -0.5942007 0.9499399
0.038378526 -1.0286509 -0.9301788 -0.5139611 -0.037224136 -0.54855204 -0.77590084 0.21983209
-0.08261321 0.15656684 -0.87758076 0.001952585 0.034781374 -0.29511487 0.06905629 -0.12625262
-1.0363543 -1.572929 -0.556713 -0.129289 0.76369935 -0.8142331 -0.09186793 0.09955485
-0.52085507 -0.22942355 -0.048164353 0.32619324 -0.15719542 -0.65041643 0.022481618 -0.50629354
0.38104206 -0.044864718 0.30277288 -0.6348519 -0.80945647 -0.14654864 -0.5617191 -0.5551023
00000000: cc09 383d ae44 183f 600b 9abe d38d cbbe
00000010: fe78 443e 7b37 863f 08e7 b9be 12be 52bc
00000020: 075b 84bd e5f9 463e 63d6 983d 97df 423e
00000030: cbed 11bf 1233 f6bd 9fd6 7c3e a44a c23e
00000040: 9c9a 28be 8465 4b3e 186e e5bd 404b babe
00000050: 6303 b9be bce6 97bd b924 9bbe bb17 29be
00000060: 27c0 48bf 900b dabe 9019 afbf 8832 a73c
00000070: 594d 2abe 2e09 66bf 0e7c 9b3e 25f9 e03e
00000080: fc04 61bf b1b8 8fbe f812 c3be 61f2 eabe
00000090: a4f3 20bf 7f42 42bb c275 1bbe 302e a3be
000000a0: 59d7 0cbf d0b0 97be aadd c3be c794 c73c
000000b0: 5d40 c5be 9966 a1be ff0f 893d f760 9b3d
000000c0: 3962 863e 2d79 e43e 94d7 283d 3c60 d8bc
000000d0: b614 0cbf cda9 37c0 9a67 1bbf dcb1 bdbf
000000e0: c960 ce3c 77a5 00c0 d9aa 8abd 2792 bfbe
000000f0: 72ab b6bd 1563 a83d aa70 cdbe d5ca 2b3e
00000100: e5c4 79bd b817 34be dde6 32bf 4a79 0bbf
00000110: b089 febd 6c85 dbbe 8335 5b3d 648d 893f
00000120: bc73 9dbf c359 403e bcb4 1dbe 3836 f5bf
00000130: ee66 d7bc b1b5 44be 45f7 333f 5e24 8abd
00000140: 970a 0c3f dd2b eebf a27a 0ebf eb5b a1bf
00000150: 34c5 bbbf e6f5 dc3d 467d 28bf aa48 b53c
00000160: e878 30bf b753 b8bf 23c6 e8bd 41ce 68bf
00000170: f195 5e3d 4c65 d73d a04a b13d 38ac 9ebe
00000180: d500 fcbe a3c8 9cbf 497a 0b3f 59fb 073e
00000190: e378 4ebf 8531 403d 4884 523d be75 63bd
000001a0: a85e c13e e21e b03e 27e6 853c 8d03 8dbc
000001b0: 9b80 34bd 23d5 ba3c abd3 8dbf 483c e6bf
000001c0: 06a8 51bc 9781 433d 2a6d 6fbe 2466 2abd
000001d0: 0488 293f 13ce a2bd f611 c9be 1897 0d3f
000001e0: ac71 15bf 4fa8 0a3e a484 1dbf 7f67 5ac0
000001f0: c19e 9dbf 464c dd3c b8f0 73bf 974e 51c0
00000200: eade 963e a09c a53e 51a0 8e3d b31f edbe
00000210: 9acf 76be bc6e 7bbe 6a56 98bf 5918 a5bf
00000220: 20c7 73bd 5b0e 3ebe 03bd 003f 8c5f 08bf
00000230: d0f6 8abe 0b46 69bd d41c 37bd a5f0 56bf
00000240: 1bf3 0c3e 75ce 4dbe e09b 4f3f b1e4 f83d
00000250: dfdf 39bf d975 5dbf 78b9 cfbd 82e6 ef3c
00000260: ecaa 97bf 120b 14bf 20b0 7d3e 3e7c 3bbe
00000270: b372 29bf b3e2 6cbf cf16 51bf b2e4 55be
00000280: 176f debe feec e33d 36b5 81bd 4170 fe3c
00000290: 73aa bfbe 95db 053e 56da aabe 2e32 99be
000002a0: d3d1 16bf 5c7b c2be 1bee c6be 0ae5 1fbf
000002b0: fbc5 523d 3d50 20c0 2c35 cfbe 08dd 04be
000002c0: 7316 fdbe ff32 51bf 83bb 103d 75e4 89be
000002d0: e579 bdbe 4802 b63e 420f 493c 126b 373e
000002e0: 31b5 833d a13a c23e ff9f 633f e1bd d3be
000002f0: 1b37 0dbf 84dc ea3d dc9d 42be f404 0fbe
00000300: b5a0 72be 8414 723a f02c 63bd a88c 44bf
00000310: 6ab3 97bd 8561 533f 05d5 3bbf fee1 15bd
00000320: c83f f0bd fec4 9ebf 1868 aabf 0b02 ebbd
00000330: 3330 8a3e da9c 5e3e 9e16 463c 7118 83be
00000340: d4eb d3bd 695e a33e 80e3 69bf d691 91be
00000350: 5b5f 31bf 1396 04bf 891d 18bf 432f 733f
00000360: cd32 1d3d d5aa 83bf 3320 6ebf f492 03bf
00000370: 5678 18bd e86d 0cbf 70a1 46bf aa1b 613e
00000380: 1d31 a9bd 0f53 203e 22a9 60bf e1ed ff3a
00000390: ea76 0e3d 4c19 97be 626d 8d3d 5e48 01be
000003a0: 42a7 84bf bd55 c9bf be84 0ebf 5664 04be
000003b0: cd81 433f 9571 50bf 4125 bcbd 6ae3 cb3d
000003c0: c256 05bf 02ee 6abe fc47 45bd cd02 a73e
000003d0: d6f7 20be b181 26bf 5f2b b83c 749c 01bf
000003e0: f217 c33e 11c4 37bd 0c05 9b3e a785 22bf
000003f0: 8a38 4fbf d910 16be d3cc 0fbf 2f1b 0ebf

fc3.bias f4 [256]
-0.32663482 -0.09440977 -0.015704071 -1.5282896 -0.26692933 -0.20027675 -0.61955434 -0.32306945
-0.5041769 -0.3526967 -0.30133426 -1.860508 0.0028763567 0.15131572 -0.013298838 -0.02319538
-1.0051488 -0.61491036 0.25207862 -0.55429333 -1.1245196 -0.025814505 -0.46143025 -0.47478235
-0.2994388 -1.0423203 -0.43546486 0.43591765 -0.21833527 -0.5619364 0.014573839 -0.47964808
-0.29959336 -0.70649326 -0.437912 -2.5410683 -1.727887 -1.6791362 -0.14191559 2.2684867
0.28292906 -0.49359712 -0.40202826 1.8922912 -0.9761103 -0.51829344 -0.7847848 -0.7737115
-0.2789323 -0.58221364 -0.39131817 0.06645605 -0.2590168 -0.22218433 -0.25887325 0.7581542
0.662518 -0.19921324 -0.92070675 -1.1808611 -0.6648441 -0.18330723 -0.85142857 -1.0096816
-0.40563476 -1.3603826 -0.9866605 -0.901706 0.4781556 0.4212332 0.02198567 -0.64279884
-0.10725353 -0.5902183 -0.08066131 -0.130331 -0.5351493 -0.31746128 -1.3421474 -1.1147931
-0.69370496 0.35720673 -0.39228097 -0.6890028 -0.54471207 -0.17882013 -0.06135532 -0.7621443
-0.191847 -1.5369285 -0.27697957 -0.4071759 0.5036075 -0.97090507 -0.46396393 -1.337798
-0.79739606 -0.0276214 -1.205396 -0.9980397 -0.18526347 -1.2454382 -0.33130977 -0.30625904
0.59270084 -2.1613808 -1.2266824 -1.192221 -0.39143685 -1.3525354 -0.31421384 -2.000113
-0.16495281 0.038012084 -0.9808033 0.11306087 -1.1615613 -1.4799949 -0.0771171 0.06304793
-0.868185 -0.15289907 -0.89167196 0.5179694 -0.28245732 0.49795067 -0.27184454 -0.6537318
-0.8943036 -1.4543544 -0.29445505 -0.6022762 -0.04674956 -1.4471048 0.8306343 -1.7466198
1.4041144 -0.9059586 0.5522711 0.66133666 -1.6495235 -0.48320422 -0.7283726 -0.89900947
-0.33966294 -0.7839428 -0.70149404 -0.34894133 -0.5335419 -0.52209914 -0.8192179 0.14094651
-1.2062205 -0.4031935 -0.56738144 -0.30092803 0.5092114 -1.3579212 -1.0013872 -0.22883677
0.29156125 -0.80890745 -0.046353992 -0.26020473 -0.5888995 0.23730496 0.0075511714 -1.3113345
-0.9355618 0.055228367 0.7321994 -1.049778 -0.050564423 -0.22278963 -0.039904974 -1.0424644
-1.5024608 -0.42992148 -1.2087548 1.3541924 0.15593849 -1.1400292 -1.0417132 -1.2709299
0.020308232 0.11909613 -0.46402958 -0.74963284 -0.44937694 -1.1320454 -0.114631206 -0.07582581
-0.5596097 0.6512511 -0.3476872 -0.84395 -1.4607956 -0.2671309 -0.41160464 -0.026517702
-1.9989433 1.8113196 -1.3859034 -0.38104266 -0.6045021 -0.5087548 -0.659891 -0.63513124
-1.2448497 -0.50741 1.3443334 -0.3501177 -0.72310907 -0.59575397 -1.2953948 0.11012881
-0.2689119 -1.7146437 0.35863838 -1.310229 -0.3282874 -1.9060494 -0.46949095 -1.2941519
-0.1305806 -0.44533134 -0.42023093 -1.7402885 -0.2720053 -0.86581486 -0.574646 -0.99821174
-0.24795263 -0.8542068 -1.412065 -0.7548039 -0.9504051 -0.8100789 -0.49689028 0.29659587
-0.25289476 -1.3779073 -1.3159868 -0.58892167 0.01576143 0.891041 -0.5384488 -0.50393635
0.3953353 -0.15068008 -0.17829175 -0.9135133 -0.19641449 0.06889516 -0.62176627 -0.28744254
00000000: ae3c a7be e959 c1bd d3a5 80bc fe9e c3bf
00000010: f6aa 88be 5915 4dbe 1d9b 1ebf 5c69 a5be
00000020: bd11 01bf a994 b4be 7c48 9abe 2025 eebf
00000030: 4281 3c3b 82f2 1a3e 5fe3 59bc 3d04 bebc
00000040: b7a8 80bf c46a 1dbf 7310 813e 2be6 0dbf
00000050: 42f0 8fbf f178 d3bc 9640 ecbe ac16 f3be
00000060: 0b50 99be c06a 85bf 40f5 debe 9930 df3e
00000070: 4893 5fbe 10db 0fbf 1cc7 6e3c 6f94 f5be
00000080: 4d64 99be bedc 34bf 0036 e0be dda0 22c0
00000090: 672b ddbf efed d6bf 5252 11be e32e 1140
000000a0: 14dc 903e c3b8 fcbe a6d6 cdbe 9936 f23f
000000b0: 5de2 79bf e1ae 04bf a8e7 48bf f511 46bf
000000c0: 37d0 8ebe f40b 15bf db5a c8be 1c1a 883d
000000d0: da9d 84be 4a84 63be 098b 84be 6516 423f
000000e0: c89a 293f 8efe 4bbe 70b3 6bbf 7526 97bf
000000f0: 3933 2abf e4b4 3bbe 39f7 59bf 3f3d 81bf
00000100: 5caf cfbe 0421 aebf c895 7cbf 34d6 66bf
00000110: d0d0 f43e e1ab d73e 4b1b b43c 778e 24bf
00000120: bda7 dbbd 8c18 17bf c231 a5bd 7d75 05be
00000130: 8bff 08bf 498a a2be 7ccb abbf 8ab1 8ebf
00000140: a696 31bf cde3 b63e 0dd9 c8be 7d62 30bf
00000150: 4072 0bbf a01c 37be b74f 7bbd e41b 43bf
00000160: 8a73 44be 13ba c4bf 44d0 8dbe 5c79 d0be
00000170: 6cec 003f 3c8d 78bf ae8c edbe f73c abbf
00000180: 2622 4cbf 4646 e2bc 6b4a 9abf 887f 7fbf
00000190: b5b5 3dbe 856a 9fbf 6fa1 a9be fccd 9cbe
000001a0: 3ebb 173f 1054 0ac0 ee03 9dbf b39a 98bf
000001b0: 696a c8be e11f adbf a3e0 a0be da01 00c0
000001c0: 64e9 28be 8fb2 1b3d ed15 7bbf 758c e73d
000001d0: 0aae 94bf 7970 bdbf 92ef 9dbd 461f 813d
000001e0: 5f41 5ebf 9391 1cbe 9d44 64bf a599 043f
000001f0: 3f9e 90be 64f3 fe3e 352f 8bbe f85a 27bf
00000200: 15f1 64bf 4928 babf d0c2 96be c62e 1abf
00000210: 777c 3fbd bb3a b9bf 73a4 543f 3d91 dfbf
00000220: 05ba b33f e7ec 67bf a461 0d3f 5c4d 293f
00000230: 9623 d3bf 8b66 f7be a076 3abf 7c25 66bf
00000240: 4de8 adbe 7ab0 48bf 1d95 33bf 70a8 b2be
00000250: 3496 08bf 4aa8 05bf 44b8 51bf 4854 103e
00000260: 6f65 9abf 616f cebe e93f 11bf 3d13 9abe
00000270: ae5b 023f 5dd0 adbf 752d 80bf 3054 6abe
00000280: 8447 953e 8f14 4fbf afdd 3dbd 8e39 85be
00000290: 1ec2 16bf 1200 733e d16f f73b cfd9 a7bf
000002a0: fa80 6fbf 2437 623d 6b71 3b3f 205f 86bf
000002b0: a41c 4fbd f722 64be 6673 23bd 796f 85bf
000002c0: a350 c0bf ab1e dcbe 7ab8 9abf 2d56 ad3f
000002d0: 57ae 1f3e 7aec 91bf dc56 85bf d5ad a2bf
000002e0: 735d a63c ace8 f33d 4995 edbe f0e7 3fbf
000002f0: bc14 e6be dde6 90bf c4c3 eabd 904a 9bbd
00000300: 9542 0fbf 64b8 263f 0f04 b2be 1b0d 58bf
00000310: 5afb babf 62c5 88be d8bd d2be a73b d9bc
00000320: 60dd ffbf 52d9 e73f 4865 b1bf 0618 c3be
00000330: a6c0 1abf c13d 02bf 9eee 28bf f697 22bf
00000340: 3c57 9fbf 9fe5 01bf 1e13 ac3f a142 b3be
00000350: ad1d 39bf 5583 18bf 7fcf a5bf 378b e13d
00000360: d2ae 89be 7279 dbbf 739f b73e 95b5 a7bf
00000370: 4915 a8be 6df9 f3bf 1e61 f0be c5a6 a5bf
00000380: ecb6 05be 7802 e4be 8228 d7be c6c1 debf
00000390: 4744 8bbe 0ba6 5dbf 001c 13bf ce8a 7fbf
000003a0: 4be7 7dbe 4cad 5abf 8cbe b4bf d43a 41bf
000003b0: c04d 73bf 5561 4fbf 6768 febe 6adb 973e
000003c0: 6c7b 81be 445f b0bf 4172 a8bf 92c3 16bf
000003d0: 1d1e 813c 431b 643f c8d7 09bf f901 01bf
000003e0: 6369 ca3e e14b 1abe 1d92 36be 02dc 69bf
000003f0: e120 49be e818 8d3d 132c 1fbf ab2b 93be

action_out.weight f4 [4, 256]
-0.12925076 -0.07946814 -0.05798331 0.86793876 0.061110992 0.07108223 5.3287587 0.06440717
-0.073050134 0.06534713 -0.040370397 1.0478901 0.009215301 0.024339527 -0.055427775 -0.07932722
0.04510708 0.20982116 0.030647917 5.657303 4.4021893 0.082784705 -0.08566312 -0.100311235
-0.11816693 0.09606209 -0.25836658 0.0529261 0.025760055 11.21627 -0.02238325 0.10268551
-0.107820265 -0.20631985 0.4926889 0.00223781 3.8347461 0.8768065 0.018861387 0.1362953
0.049949527 1.1171596 -0.37588897 0.12471374 0.00063748396 0.098692685 0.093676046 -0.16609985
0.07430886 -0.02763398 0.055807136 -0.05530381 0.02420367 0.05679177 -0.065038085 0.027947001
0.09621978 -0.4097269 0.11324189 0.1635621 0.29063013 -0.10446221 0.23306349 2.7191904
0.081147544 0.33174092 -0.02894103 -0.046477363 -0.07369915 0.08972081 -0.044401757 0.020315597
0.40989912 -0.0993727 -0.04641935 0.06555253 -0.0046022115 -0.035541777 0.0659196 -0.07309482
-0.17554718 0.008580728 -0.034312308 0.03091245 -0.13641544 -0.009526967 0.63752383 0.21828942
-0.37873408 -0.005928559 -0.26841483 -0.07150249 -0.08617189 -0.10427734 -0.023316134 -0.00056250766
-0.06185387 -0.10674251 -0.7364145 0.14328673 -0.034638338 1.1857902 0.35537368 0.032426838
0.10102875 0.027991919 -0.32734108 0.037550896 0.04221507 0.05018471 0.24478516 -0.00392255
-0.20057374 -0.05922127 -0.006832238 -0.070771925 0.23242289 -0.00417743 0.0565078 0.039870832
0.13854395 -0.054718588 -0.036864307 0.007305985 -0.12151847 0.06955693 -0.056473684 -0.018773142
0.16879374 -0.03062045 0.021156307 0.08221983 0.043008797 1.1080104 0.38145855 0.008864578
0.08461129 0.053044785 0.05339304 -0.102299884 0.046289593 -0.06242624 0.057927657 1.5467107
-0.014985486 0.006039161 0.018993443 0.016251301 -0.06932623 0.24827507 0.013945031 -0.13266684
0.27342469 -0.017413847 0.065338455 -0.06091004 0.021225482 0.45356646 0.23621099 -0.047628477
-0.098604836 0.066228226 0.0004669989 -0.03153241 0.0009834926 0.7461972 -0.019314427 0.1938772
-0.10377082 0.27464217 0.010714267 -0.21028218 0.49774525 0.11451446 0.08002589 0.034757182
-0.24671833 0.05702487 -0.0015402136 0.06840888 -0.01951019 4.5098224 0.08132429 -0.08070861
0.005960471 -0.009191774 0.19106138 -0.047628473 0.026717426 0.5866659 0.006266969 1.2441143
-0.04579987 -0.1484637 0.042216346 0.97614783 -0.081542864 0.022958864 0.049181648 -0.0057728034
-0.00606075 0.09227822 -0.0018732126 0.014882348 -0.010574079 2.4399714 0.034449212 -0.10824433
0.0048880735 -0.15671541 0.21719198 0.05091256 0.09551783 1.3829039 0.59046 -0.09213437
0.0066783684 0.037617143 0.04576203 0.18562531 -0.0026950215 -0.13892394 -0.043188848 1.6298263
-0.27432275 -0.013519021 -0.035227183 -1.1266656 -0.12483217 0.016835803 -0.3658905 0.07921754
0.03579277 0.11329804 0.049715515 0.086378664 0.24461079 -0.1436505 0.03690193 -0.07870246
-0.025638964 -0.15273526 -0.007204262 0.020614289 0.006394513 0.06597203 0.3440394 -0.0025265296
0.045762815 -0.028484872 0.3713776 0.9304096 0.054238655 0.037921976 0.22748677 0.44872138
00000000: 505a 04be 31c0 a2bd e87f 6dbd 3c31 5e3f
00000010: 854f 7a3d 8f93 913d 3185 aa40 e8e7 833d
00000020: 4f9b 95bd b7d4 853d 6e5b 25bd 4321 863f
00000030: c6fb 163c b063 c73c 3c08 63bd 4f76 a2bd
00000040: 34c2 383d 5cdb 563e 5711 fb3c a008 b540
00000050: bcde 8c40 078b a93d 2570 afbd fa6f cdbd
00000060: 8101 f2bd 33bc c43d a048 84be 0ac9 583d
00000070: c006 d33c d875 3341 145d b7bc c84c d23d
00000080: dfd0 dcbd 8345 53be b841 fc3e 39a8 123b
00000090: 7b6c 7540 6476 603f 3283 9a3c ff90 0b3e
000000a0: e097 4c3d 16ff 8e3f 8574 c0be eb69 ff3d
000000b0: d31c 273a 641f ca3d 3ad9 bf3d 1416 2abe
000000c0: 3e2f 983d a860 e2bc 0696 643d 3f86 62bd
000000d0: c646 c63c 7d9e 683d b032 85bd 1cf1 e43c
000000e0: e00e c53d b9c7 d1be 5deb e73d d37c 273e
000000f0: 79cd 943e 48f0 d5bd 32a8 6e3e 3707 2e40
00000100: af30 a63d f2d9 a93e bd15 edbc 0c5f 3ebd
00000110: 94ef 96bd 8bbf b73d 9ede 35bd e56c a63c
00000120: 4cde d13e ea83 cbbd 3722 3ebd 6840 863d
00000130: 26ce 96bb 4194 11bd db00 873d bdb2 95bd
00000140: a4c2 33be 2f96 0c3c 108b 0cbd 1b3c fd3c
00000150: 7db0 0bbe ff16 1cbc c334 233f 4387 5f3e
00000160: 6fe9 c1be 5c44 c2bb ab6d 89be e66f 92bd
00000170: e37a b0bd 5c8f d5bd 7a01 bfbc 4075 13ba
00000180: 7c5a 7dbd d19b dabd a985 3cbf c2b9 123e
00000190: eee0 0dbd f9c7 973f 8af3 b53e 01d2 043d
000001a0: 29e8 ce3d 4f4f e53c 4099 a7be f8ce 193d
000001b0: b6e9 2c3d 7c8e 4d3d f6a8 7a3e bc88 80bb
000001c0: 3463 4dbe 0192 72bd f7e0 dfbb dff0 90bd
000001d0: 4400 6e3e d3e2 88bb b974 673d 994f 233d
000001e0: 77de 0d3e 9920 60bd 07ff 16bd 0b67 ef3b
000001f0: adde f8bd dd73 8e3d f350 67bd 22ca 99bc
00000200: 44d8 2c3e bdd7 fabc fe4f ad3c df62 a83d
00000210: fe29 303d 49d3 8d3f 894e c33e bc3c 113c
00000220: af48 ad3d 7d45 593d a9b2 5a3d 9a82 d1bd
00000230: 289a 3d3d a8b2 7fbd 8d45 6d3d 9efa c53f
00000240: af85 75bc 27e4 c53b 2398 9b3c 7321 853c
00000250: e9fa 8dbd d23b 7e3e b379 643c d1d9 07be
00000260: 52fe 8b3e 7ca7 8ebc 2bd0 853d ce7c 79bd
00000270: 10e1 ad3c dd39 e83e 4be1 713e 1416 43bd
00000280: 55f1 c9bd aaa2 873d 88d7 f439 2128 01bd
00000290: 89e8 803a c806 3f3f 4a39 9ebc bf87 463e
000002a0: cc85 d4bd e69d 8c3e e58a 2f3c 3654 57be
000002b0: 77d8 fe3e 8f86 ea3d 9de4 a33d 8c5d 0e3d
000002c0: bba3 7cbe e992 693d fee0 c9ba f419 8c3d
000002d0: d5d3 9fbc 7750 9040 598d a63d 8e4a a5bd
000002e0: 0e50 c33b 1899 16bc 98a5 433e 1316 43bd
000002f0: 81de da3c bd2f 163f 255b cd3b 233f 9f3f
00000300: a598 3bbd de06 18be 0ceb 2c3d d3e4 793f
00000310: f2ff a6bd 3a14 bc3c b272 493d c929 bdbb
00000320: 4299 c6bb 5dfc bc3d 9686 f5ba 17d5 733c
00000330: e73e 2dbc 7e28 1c40 9e1a 0d3d 34af ddbd
00000340: 222c a03b 017a 20be 9367 5e3e b089 503d
00000350: da9e c33d ff02 b13f 6328 173f f2b0 bcbd
00000360: 37d6 da3b 6f14 1a3d f770 3b3d 9014 3e3e
00000370: f59e 30bb 1442 0ebe cae6 30bd 269e d03f
00000380: 0874 8cbe e27e 5dbc 614a 10bd 9436 90bf
00000390: 02a8 ffbd 3deb 893c 0056 bbbe ce3c a23d
000003a0: 719b 123d ce08 e83d 7fa2 4b3d 4ce7 b03d
000003b0: 407b 7a3e 1e19 13be 7a26 173d c12e a1bd
000003c0: ce08 d2bc a266 1cbe bb11 ecbb 4cdf a83c
000003d0: 1089 d13b 581c 873d ef25 b03e 2294 25bb
000003e0: ca71 3b3d 1b59 e9bc 3425 be3e 532f 6e3f
000003f0: 5a29 5e3d 1354 1b3d 4bf2 683e cfbe e53e

action_out.bias f4 [4]
0.07818389 -0.009564841 0.007248465 -0.0024333785
00000000: e01e a03d dab5 1cbc 8884 ed3b 5179 1fbb
