mujoco_project/outputs/exp_001/FetchSlide-v1/model.pt (torch_old, 562128 bytes, 8 tensors)

fc1.weight f4 [256, 28]
-0.040395442 0.052176744 -0.08887741 0.13018243 -0.24572344 -0.34296012 -0.22331488 -0.15717489
-0.29575264 0.29122263 -0.21703503 0.3928435 -0.060475186 0.078673236 0.39600912 -0.6391432
0.22639075 0.012026083 0.0118191205 0.07531113 0.19100894 -0.55094606 0.25580314 -0.20720288
-0.087699726 0.28432155 0.09073681 0.42397454 0.053981412 -0.16050665 0.08846663 0.20541187
0.51856875 0.03906503 0.5851861 0.6787435 -0.048167694 -0.036280993 0.011292466 -0.13556561
0.07404318 -0.021885999 0.09981344 0.25403464 -0.055941965 0.043492388 0.070771635 -0.122720204
0.12290515 0.1091325 -0.041592874 -0.15032181 0.04210169 -0.22754213 0.08393763 -0.360702
0.28885016 0.2890846 0.01475021 -0.0023428036 -0.002245945 0.121487975 -0.5022242 -0.48732966
-0.053440906 0.74250966 -1.0360403 -0.08081236 -0.09062957 -0.07516371 -0.075339094 0.06290687
0.05327505 -0.01605685 -0.0016487564 -0.035291668 0.06285612 0.09265981 -0.029915545 -0.11021263
0.005297109 0.6711669 -0.12945455 0.20841703 0.029025229 -0.26366234 -0.34816918 -0.11571844
0.32366833 -0.27974448 -0.8921354 0.99899554 0.2519811 -0.19574124 0.47786376 -0.03885648
-0.16377817 0.048322603 -0.13077426 -0.06804929 -0.057315845 -0.008501904 0.012305854 -0.017036587
-0.14997031 -0.05683099 -0.0095291 -0.12881656 0.025223764 -0.003860113 0.039435003 -0.23608011
0.08012313 0.047530655 -0.009108085 0.053183824 -0.18159755 0.18917404 0.22715564 0.1234671
-0.05106718 0.12780623 0.33321074 -0.05961989 -0.022927707 -0.025396267 1.0754044 -1.0195371
0.23230337 -0.010015265 -0.0077206967 -0.016499419 0.89769155 -0.89807826 0.1945358 -0.058491994
-0.02257905 -0.00018082798 0.10186324 -0.1109413 -0.13085058 0.22095184 -0.14141749 0.17765978
-0.048144065 -0.08261533 0.6936504 -0.6031062 0.073395245 -0.009032351 -0.2524004 0.38092908
0.081249684 0.062221676 -0.0062116296 -0.12881985 -0.44893023 -0.0052173487 -0.03008002 0.0061799837
-0.015203867 -0.1790365 -0.4456711 -0.0049302615 0.0035872106 0.3254477 0.29239786 -0.86380833
-0.19070886 0.14522515 0.008960713 -0.6549922 0.37237877 0.038044225 -0.4277468 0.20232992
-0.015286814 0.063356474 -0.09019295 -0.027707776 -0.03130891 0.0058888244 -0.23231122 0.13239184
-0.06601789 -0.0019997363 -0.004792621 -0.0012812698 -0.2086586 0.09126767 -0.060206126 0.0029432294
-0.021131936 1.1894723 -0.67828774 -0.009276815 0.19327252 -0.1861977 0.048310135 0.7952398
-0.3865534 0.21231087 0.5790044 -0.24902174 0.024868593 0.6085524 -0.39434198 0.01772471
0.03070598 -0.009260518 0.9616683 -0.4193885 0.09633805 -0.0007755527 -0.025664898 -0.006932786
0.850016 -0.36972 0.06925122 0.03917602 -0.0031278136 -1.3665642 0.7778214 0.3784398
0.6508836 -0.18042217 -0.11358532 0.35407543 -0.06296929 -0.09922133 -0.13887058 -0.27251047
-0.11602876 -0.083379224 -0.03718557 -0.64662856 0.0809172 0.018210974 -0.3275669 -0.13709505
0.014258416 -0.016981706 -0.051891018 0.064273395 -0.3217173 -0.11455664 0.073794596 -0.15252323
-0.22426918 0.19629565 0.34480894 0.3008347 0.2530801 -0.100193344 -0.21814272 0.32682112
00000000: b175 25bd 48b7 553d 5c05 b6bd 8b4e 053e
00000010: ed9e 7bbe 7898 afbe a8ac 64be 74f2 20be
00000020: e46c 97be 221b 953e 6e3e 5ebe c922 c93e
00000030: d4b4 77bd 6f1f a13d b5c1 ca3e e49e 23bf
00000040: fad2 673e 0c09 453c fca4 413c b93c 9a3d
00000050: d997 433e cd0a 0dbf a1f8 823e fe2c 54be
00000060: ea9b b3bd 9892 913e 38d4 b93d 3113 d93e
00000070: 9d1b 5d3d db5b 24be fe2d b53d 7d57 523e
00000080: ecc0 043f a702 203d c2ce 153f 22c2 2d3f
00000090: 7d4b 45bd 619b 14bd 0904 393c b6d1 0abe
000000a0: f3a3 973d 444a b3bc fd6a cc3d d410 823e
000000b0: 6723 65bd 1325 323d b8f0 903d bb54 fbbd
000000c0: b2b5 fb3d dc80 df3d 4a5d 2abd f6ed 19be
000000d0: d272 2c3d ce00 69be 7ee7 ab3d efad b8be
000000e0: 2be4 933e e602 943e ddaa 713c b989 19bb
000000f0: b430 13bb b0ce f83d c491 00bf 4683 f9be
00000100: dae4 5abd 1d15 3e3f f89c 84bf f380 a5bd
00000110: ff9b b9bd 6eef 99bd 624b 9abd 51d5 803d
00000120: f036 5a3d a889 83bc 161b d8ba ff8d 10bd
00000130: b6ba 803d 6dc4 bd3d 7211 f5bc 29b7 e1bd
00000140: 5f93 ad3b 98d1 2b3f bc8f 04be 466b 553e
00000150: 51c6 ed3c c0fe 86be 3b43 b2be cafd ecbd
00000160: dbb7 a53e ab3a 8fbe fc62 64bf 2cbe 7f3f
00000170: ab03 813e 6470 48be 8faa f43e f927 1fbd
00000180: 77b5 27be eced 453d b0e9 05be 6d5d 8bbd
00000190: 05c4 6abd 924b 0bbc 7e9e 493c 5090 8bbc
000001a0: d191 19be 9dc7 68bd f11f 1cbc 7de8 03be
000001b0: 11a2 ce3c f3f9 7cbb 9986 213d fcbe 71be
000001c0: 9817 a43d 81af 423d 143a 15bc 48d7 593d
000001d0: b5f4 39be d7b6 413e 7d9b 683e 52dc fc3d
000001e0: d22b 51bd a3df 023e 999a aa3e fc33 74bd
000001f0: e3d2 bbbc d50b d0bc daa6 893f 3180 82bf
00000200: efe0 6d3e 1117 24bc e6fd fcbb ca29 87bc
00000210: 1dcf 653f 75e8 65bf 6534 473e 4d95 6fbd
00000220: b3f7 b8bc a49c 3db9 ad9d d03d 3135 e3bd
00000230: b2fd 05be 3341 623e bfcf 10be 72ec 353e
00000240: b632 45bd 3a32 a9bd 1393 313f 2b65 1abf
00000250: 3f50 963d 6dfc 13bc a03a 81be 2309 c33e
00000260: 3c66 a63d 28dc 7e3d ed8a cbbb 5ae9 03be
00000270: 2fda e5be 4bf6 aabb 606a f6bc 7681 ca3b
00000280: a419 79bc 5855 37be 012f e4be 088e a1bb
00000290: 6817 6b3b 15a1 a63e 2cb5 953e 8b22 5dbf
000002a0: 2f49 43be e7b5 143e f4cf 123c 92ad 27bf
000002b0: 6ea8 be3e 43d4 1b3d a101 dbbe 932f 4f3e
000002c0: 8c75 7abc 0ac1 813d 15b7 b8bd 6bfb e2bc
000002d0: c63d 00bd 0af7 c03b fee2 6dbe ba91 073e
000002e0: 6334 87bd 020e 03bb 6b0b 9dbb 48f0 a7ba
000002f0: 9aaa 55be 8bea ba3d b39a 76bd 32e3 403b
00000300: e21c adbc a140 983f 44a4 2dbf c8fd 17bc
00000310: 3be9 453e 9caa 3ebe d9e0 453d d694 4b3f
00000320: 54ea c5be 0568 593e a239 143f 8eff 7ebe
00000330: 38b9 cb3c 17ca 1b3f 31e7 c9be 6933 913c
00000340: 1b8b fb3c 6db9 17bc e52f 763f 17ba d6be
00000350: e24c c53d 764e 4bba 313f d2bc 6d2c e3bb
00000360: a69a 593f f14b bdbe 95d3 8d3d 0977 203d
00000370: 01fc 4cbb 93eb aebf 4e1f 473f ddc2 c13e
00000380: 4fa0 263f 97c0 38be 6c9f e8bd 6049 b53e
00000390: 0bf6 80bd 8d34 cbbd 1734 0ebe 7e86 8bbe
000003a0: 7da0 edbd bac2 aabd e54f 18bd 7389 25bf
000003b0: ebb7 a53d 2e2f 953c d9b6 a7be a562 0cbe
000003c0: 229c 693c 381d 8bbc ad8b 54bd c5a1 833d
000003d0: 21b8 a4be ac9c eabd 9f21 973d 0d2f 1cbe
000003e0: d2a6 65be ba01 493e cc8a b03e 0107 9a3e
000003f0: b793 813e 2b32 cdbd ce60 5fbe 1955 a73e

fc1.bias f4 [256]
-1.2593428 -1.1614609 -1.099903 -1.0867921 -1.4872245 -0.66197526 0.42202538 -0.418079
-0.90952945 -0.86141515 -0.32711157 -1.6598154 -0.91476005 -0.22248682 -1.2390534 -0.76614386
-0.28484884 -1.2264266 -0.6800389 -0.97771937 -1.3529866 -1.0071976 -1.0137426 -0.6191461
-1.3279998 0.1914244 -0.11725266 -0.59866923 -1.2988456 -0.4140067 0.6598433 -0.07624899
-1.0065066 -1.3294154 -1.7381928 -1.1710085 -1.1741554 -1.3939648 -1.0869149 -1.0104989
-0.84470385 -0.05213904 -1.5282618 -1.1452318 -1.006922 0.5825076 -0.09422586 1.2841268
-1.2579582 -0.86305684 -0.4283259 -1.350332 -0.9746525 0.19458196 0.44707677 -0.4393458
-0.2417867 -0.81856275 -0.95795804 -0.921672 -0.83456796 -1.2956616 -0.38564023 -0.9969672
-0.62027806 -0.65020037 -1.9215338 -1.1784325 0.6228468 -0.7786938 -1.4310874 -0.9952763
-0.48133078 -0.13431904 -0.20729001 -0.6534649 -1.3880763 -1.4964708 -1.057587 -1.4538522
-0.44719613 -1.4966376 -0.57020086 -0.7084604 -2.0573447 -1.1054102 -1.4611875 -0.58375984
-0.0931949 -0.7038401 -1.4954814 -1.3575882 -0.90515953 -0.45967945 -0.40046528 -1.252223
-1.1209599 -0.29972616 -0.8171708 -0.737391 -0.5188464 -0.52128315 -0.7030803 0.16608074
-0.4196697 -0.8547281 -0.5881347 -1.7360232 -0.15533502 0.057457075 -1.7156582 -0.60047203
-0.9365537 -1.6366818 -1.7969143 -0.80890477 -0.999981 -0.7420531 0.17895281 -0.96645564
-0.4839006 -0.9957036 -0.030436022 -1.0001829 -1.2222937 -0.10001733 -0.8785689 -1.2143031
-1.1486646 -1.1130704 0.78987324 -0.53416353 -0.07611253 -1.01097 -1.2093151 -1.3084916
-0.37830895 -0.74786174 -0.4156661 0.86993724 -1.1041752 -0.92422974 -0.09349128 -0.7880039
-0.8038822 -0.21244681 0.2903894 -0.43903717 -0.018419215 -0.7635681 -0.45162398 -0.73965824
-0.3529735 -0.30569652 -0.5169578 -1.0649501 -0.8384621 -1.0504827 -1.2478446 -0.19086762
-0.6067714 -0.6689052 -0.25005996 -1.0770016 -0.5271249 -0.59302384 -0.7453304 -0.46269506
-1.1627643 -0.7268716 -1.3874171 -0.5219871 -0.9062555 -1.0334591 -0.5919243 -1.2367692
0.024702951 -0.80557925 -1.4423757 -0.25430298 -0.8116743 -0.271457 -1.0725869 -0.7209992
0.5944624 -0.476843 0.31072953 -1.5875013 -0.66310495 -1.0206645 -0.9164645 0.23460193
0.18535629 -1.0461415 -1.0913656 -0.9025822 -1.0678251 -0.3064657 -0.8659243 -1.249619
-0.6688115 -0.34328514 -0.4199281 0.23092885 -0.9620277 -0.7895993 -0.25610015 -0.82454336
-1.2621839 -1.3111582 -0.43995485 0.092269026 -0.3384371 -1.4034853 -0.4031308 -0.9986908
-1.309163 -1.0133916 0.5371119 -0.7155349 -1.209178 -1.4917295 -0.6458242 -0.8976775
-0.079523295 0.51733 -0.49627912 -0.35451552 -1.0431465 -1.2131604 -0.9762625 -0.35803333
-1.3000354 0.020542268 -0.59256685 -0.60627055 -1.740443 -0.985715 -0.539076 -1.5236357
-0.964865 -1.1150312 -0.6974278 0.27356672 -1.2003316 -0.5172882 -0.4371956 -1.018204
0.11373701 -0.87440664 -1.4421865 -0.8231982 -0.38500565 -0.9191136 -1.1563089 0.65284383
00000000: 2532 a1bf c0aa 94bf 9fc9 8cbf 011c 8bbf
00000010: 5f5d bebf 3677 29bf b613 d83e 730e d6be
00000020: ecd6 68bf b485 5cbf 2b7b a7be d574 d4bf
00000030: b72d 6abf 96d3 63be 4d99 9ebf 0122 44bf
00000040: b5d7 91be 8cfb 9cbf 0817 2ebf d14b 7abf
00000050: aa2e adbf daeb 80bf 51c2 81bf 5c80 1ebf
00000060: e6fb a9bf c204 443e 2a22 f0bd 6342 19bf
00000070: 9340 a6bf b0f8 d3be 7eeb 283f 6e28 9cbd
00000080: 35d5 80bf 492a aabf 1a7d debf 9be3 95bf
00000090: b94a 96bf 706d b2bf 0720 8bbf 0758 81bf
000000a0: 833e 58bf bf8f 55bd 159e c3bf f596 92bf
000000b0: d2e2 80bf 381f 153f 7df9 c0bd 445e a43f
000000c0: c604 a1bf 4bf1 5cbf 884d dbbe aed7 acbf
000000d0: d482 79bf 7e40 473e 3fe7 e43e eff1 e0be
000000e0: ef96 77be 548d 51bf bd3c 75bf b2f2 6bbf
000000f0: 3fa6 55bf 3dd8 a5bf a372 c5be 3e39 7fbf
00000100: 8bca 1ebf 8873 26bf d2f4 f5bf e0d6 96bf
00000110: e372 1f3f 7a58 47bf df2d b7bf 6dca 7ebf
00000120: fd70 f6be ee8a 09be d543 54be 7a49 27bf
00000130: 7cac b1bf 5b8c bfbf 035f 87bf d417 babf
00000140: e4f6 e4be d291 bfbf aff8 11bf a95d 35bf
00000150: 89ab 03c0 157e 8dbf 3108 bbbf 4971 15bf
00000160: f8dc bebd dd2e 34bf ef6b bfbf 73c5 adbf
00000170: 89b8 67bf 1b5b ebbe c909 cdbe d848 a0bf
00000180: 9d7b 8fbf b575 99be 1b32 51bf a8c5 3cbf
00000190: 1ed3 04bf d072 05bf 12fd 33bf 1211 2a3e
000001a0: f2de d6be 76cf 5abf ff8f 16bf 0236 debf
000001b0: 2510 1fbe 1c58 6b3d b09a dbbf 89b8 19bf
000001c0: fcc1 6fbf ca7e d1bf 4a01 e6bf 6214 4fbf
000001d0: c1fe 7fbf 31f7 3dbf 683f 373e a369 77bf
000001e0: d2c1 f7be 6ee6 7ebf f754 f9bc fe05 80bf
000001f0: 1f74 9cbf e3d5 ccbd e4e9 60bf 496e 9bbf
00000200: 7107 93bf 1779 8ebf 2235 4a3f f1be 08bf
00000210: e3e0 9bbd 7767 81bf d6ca 9abf a77c a7bf
00000220: b6b1 c1be de73 3fbf 30d2 d4be 35b4 5e3f
00000230: 9d55 8dbf 529a 6cbf 5b78 bfbd a0ba 49bf
00000240: 39cb 4dbf a88b 59be ebad 943e 7bc9 e0be
00000250: e5e3 96bc 3379 43bf 423b e7be 3e5a 3dbf
00000260: f1b8 b4be 4184 9cbe 5957 04bf 4950 88bf
00000270: 74a5 56bf 3876 86bf 5fb9 9fbf cd72 43be
00000280: 5f55 1bbf 5f3d 2bbf dc07 80be 30db 89bf
00000290: a8f1 06bf 69d0 17bf f9cd 3ebf 5ee6 ecbe
000002a0: 76d5 94bf 4214 3abf e296 b1bf f2a0 05bf
000002b0: 5c00 68bf 6348 84bf 5a88 17bf 744e 9ebf
000002c0: d85d ca3c 713a 4ebf c49f b8bf 0034 82be
000002d0: e3c9 4fbf 69fc 8abe 874a 89bf 6793 38bf
000002e0: b02e 183f c424 f4be f117 9f3e 3e33 cbbf
000002f0: 3fc1 29bf 22a5 82bf 6b9d 6abf 7d3b 703e
00000300: 0ace 3d3e f7e7 85bf deb1 8bbf a10f 67bf
00000310: 7eae 88bf 12e9 9cbe 37ad 5dbf 84f3 9fbf
00000320: 3b37 2bbf 12c3 afbe d100 d7be 9d78 6c3e
00000330: 7347 76bf 2e23 4abf 8f1f 83be 4615 53bf
00000340: 3e8f a1bf 08d4 a7bf c341 e1be 8bf7 bc3d
00000350: a147 adbe 68a5 b3bf 2967 cebe 33aa 7fbf
00000360: a792 a7bf d1b6 81bf 2a80 093f 4c2d 37bf
00000370: 58c6 9abf fef0 bebf bc54 25bf 31ce 65bf
00000380: 1cdd a2bd bd6f 043f 4c18 febe 0f83 b5be
00000390: d385 85bf d748 9bbf 57ec 79bf 2550 b7be
000003a0: 8f67 a6bf 4248 a83c 76b2 17bf 8c34 1bbf
000003b0: d6c6 debf d157 7cbf e200 0abf 7f06 c3bf
000003c0: 6501 77bf 58b9 8ebf a18a 32bf f010 8c3e
000003d0: 77a4 99bf 006d 04bf 1ad8 dfbe 8254 82bf
000003e0: f3ee e83d 1dd9 5fbf 9199 b8bf 1ebd 52bf
000003f0: 761f c5be 074b 6bbf ee01 94bf c620 273f

fc2.weight f4 [256, 256]
0.05898191 -0.070824906 0.07911123 -0.23801696 -0.09722329 -0.7771359 0.2451865 -0.030436167
-0.19620752 -0.88657355 -0.35306543 0.37672025 -0.15530139 0.09061512 -0.4258726 0.4213203
-0.21982402 -0.17520465 -0.47188872 -0.20132375 -0.38002124 -0.013069538 -0.14128146 -0.57717156
-0.49621332 -0.23600964 0.12385053 -0.22684878 -1.2224113 -0.6489762 0.04207055 -0.33649826
-0.42108035 0.30123505 0.6220196 -1.279403 -0.23925231 0.09446785 0.13380632 0.03430321
0.11096547 0.07777602 0.4083684 -0.4135419 -0.48873848 0.147565 -0.16076303 0.40176955
0.033749685 -0.14046362 -0.01001833 0.043817375 -0.061136942 -0.071392015 -0.9729194 0.20515013
0.26954144 -0.111558445 -0.52914655 -0.26378256 -0.49946922 -0.77368224 -0.030902566 0.16478424
-0.39320686 -0.11705156 -0.47888842 -0.64220506 0.36315215 -0.46912187 -0.08290059 -0.12770125
0.26200113 -0.096692786 -1.1877853 -0.5919185 -0.23006979 -0.014060311 -0.47254065 -0.089944035
-0.10229099 0.12019258 -0.08806873 0.10601286 -0.16898009 -0.30432218 0.24829249 -0.041761916
-0.65640974 -0.40321204 -0.06930494 -0.34105605 -0.8778952 0.03718817 -0.9573376 0.35774145
0.1949704 -0.11268905 0.12496683 -0.17779776 -1.2462887 0.15819588 -0.1815358 0.16681913
-0.36117217 0.036075 -0.09663761 -1.792615 0.19098948 0.08338526 -1.0097561 -0.06642158
0.062769845 0.05775175 -0.4147925 0.37499684 0.035982616 0.02438028 -0.43142992 -0.11145529
0.30954066 0.066899545 -0.32069638 0.10285788 0.2017681 -0.5155365 0.052429345 -0.13481495
-0.23392482 0.0698122 0.41169694 -0.09564989 -0.047584645 0.19794011 -0.42478457 -0.10748431
-0.44526714 -0.24491274 0.5189676 -0.6131487 -0.2207438 -0.094979 0.094812304 0.12115221
0.16993074 -0.12374056 -0.5118537 0.39490727 0.17005989 -0.2326622 -0.5888542 -0.7504278
-0.019141719 0.066977575 -0.27475527 -1.2406429 -0.35149834 0.41791293 -0.9003606 0.2777756
-0.60427046 -0.8121436 0.106564805 0.45931754 0.15211645 -0.21711726 0.22214518 -0.58868927
-0.06874158 -0.21617018 -0.31606942 -0.10025694 -0.04390644 -0.042538144 0.28790823 -0.5195004
0.07148162 0.10105419 0.63045126 -0.051755965 -0.16842657 -0.4403374 -0.1297147 -0.49259493
-0.0031738856 0.066144176 -0.09452194 -0.6033804 -0.017959232 -0.123047896 0.2251141 -0.6198609
0.6724323 0.057092186 0.11992688 0.56428605 0.06279239 -0.30968463 -0.16632073 0.016058935
0.12672995 0.119414784 0.05141747 0.17960376 0.20386876 0.09113947 -0.17837276 0.19510727
0.4662024 -0.41111654 -0.3746368 0.18816747 -0.045319024 0.032139387 0.5019171 0.035535473
-0.37176132 0.06958306 0.51358384 -0.2006148 -0.54371357 -0.05142961 -0.60933095 -0.1168788
-0.494031 0.20955905 -0.12346483 0.018199746 -0.3581976 -0.6021741 0.0024059003 0.10351104
-0.16490167 0.0462858 -0.30620116 -0.50032425 -0.2116947 0.036029663 0.100699715 -0.35300225
0.27603993 -0.77628666 -0.15416297 -0.014931326 0.19906728 0.39001745 -0.195973 0.18246189
-0.120192915 -0.56875646 -0.059636157 -0.05594736 0.21419567 -0.33895504 -0.022811214 0.23251988
00000000: 0497 713d a60c 91bd 1205 a23d b8ba 73be
00000010: 011d c7bd 61f2 46bf 2b12 7b3e 4555 f9bc
00000020: a0ea 48be 7cf6 62bf fec4 b4be 7ae1 c03e
00000030: 5407 1fbe 6c94 b93d f90b dabe 4bb7 d73e
00000040: 8c19 61be d968 33be 669b f1be d027 4ebe
00000050: 2592 c2be 9e21 56bc 16ac 10be 84c1 13bf
00000060: ac0f febe 83ac 71be 59a5 fd3d 0c4b 68be
00000070: f977 9cbf 4e23 26bf 2b52 2c3d 8049 acbe
00000080: d897 d7be 7b3b 9a3e ad3c 1f3f 7ac3 a3bf
00000090: 8ffe 74be 5c78 c13d 8604 093e 8681 0c3d
000000a0: dd41 e33d 0949 9f3d aa15 d13e c4bb d3be
000000b0: ee3b fabe 481b 173e 109f 24be bdb4 cd3e
000000c0: 1c3d 0a3d b2d5 0fbe ec23 24bc d979 333d
000000d0: bb6a 7abd fa35 92bd 3f11 79bf e012 523e
000000e0: 5601 8a3e c178 e4bd 2676 07bf 820e 87be
000000f0: 6eba ffbe 0a10 46bf 6127 fdbc 33bd 283e
00000100: 6952 c9be bab8 efbd dd30 f5be 8d67 24bf
00000110: 14ef b93e be30 f0be c9c7 a9bd 1ec4 02be
00000120: 0325 863e de06 c6bd 5909 98bf f987 17bf
00000130: 6a97 6bbe 385d 66bc d9f0 f1be 9434 b8bd
00000140: f07d d1bd 8727 f63d 615d b4bd 451d d93d
00000150: 1e09 2dbe 1ed0 9bbe 6340 7e3e 8b0e 2bbd
00000160: 780a 28bf cf71 cebe c0ef 8dbd e69e aebe
00000170: bdbd 60bf 9f52 183d 1414 75bf e329 b73e
00000180: 52a6 473e 84c9 e6bd 9cee ff3d 9e10 36be
00000190: 6386 9fbf 1afe 213e 85e4 39be a2d2 2a3e
000001a0: 8feb b8be 61c3 133d f0e9 c5bd 6974 e5bf
000001b0: bf92 433e e4c5 aa3d b03f 81bf 0a08 88bd
000001c0: 7a8d 803d 198d 6c3d af5f d4be 96ff bf3e
000001d0: 8262 133d 27b9 c73c 62e4 dcbe ac42 e4bd
000001e0: 1d7c 9e3e a102 893d 5132 a4be 27a7 d23d
000001f0: 4c9c 4e3e 33fa 03bf 27c0 563d ee0c 0abe
00000200: fd89 6fbe b3f9 8e3d f1c9 d23e 17e4 c3bd
00000210: 1ee8 42bd d0b0 4a3e 5d7d d9be bc20 dcbd
00000220: 0efa e3be 68ca 7abe 10db 043f 50f7 1cbf
00000230: aa0a 62be 5a84 c2bd f42c c23d a61e f83d
00000240: 5302 2e3e b16b fdbd d808 03bf 4931 ca3e
00000250: 2e24 2e3e 003f 6ebe 26bf 16bf 091c 40bf
00000260: 18cf 9cbc 8a2b 893d b9ac 8cbe 63cd 9ebf
00000270: 97f7 b3be aff8 d53e 087e 66bf 9a38 8e3e
00000280: 78b1 1abf a5e8 4fbf a63e da3d ab2b eb3e
00000290: 6ac4 1b3e fd53 5ebe 077a 633e 57b4 16bf
000002a0: 63c8 8cbd b75b 5dbe dad3 a1be 8353 cdbd
000002b0: 3dd7 33bd 7a3c 2ebd b568 933e fafd 04bf
000002c0: f564 923d 80f5 ce3d 4165 213f 10fe 53bd
000002d0: 0478 2cbe e773 e1be eed3 04be 6735 fcbe
000002e0: f700 50bb 9976 873d b894 c1bd 2377 1abf
000002f0: 3d1f 93bc 8900 fcbd 5084 663e 34af 1ebf
00000300: 8624 2c3f 7fd9 693d 399c f53d 0d75 103f
00000310: 4c99 803d fc8e 9ebe fb4f 2abe 078e 833c
00000320: 7fc5 013e bd8f f43d 209b 523d 0cea 373e
00000330: f9c2 503e 55a7 ba3d 59a7 36be 33ca 473e
00000340: 15b2 ee3e de7d d2be 65d0 bfbe f9ae 403e
00000350: 71a0 39bd 97a4 033d a47d 003f a58d 113d
00000360: 8057 bebe 9081 8e3d 3b7a 033f f76d 4dbe
00000370: d030 0bbf dba7 52bd 1dfd 1bbf 275e efbd
00000380: a2f1 fcbe a696 563e 21db fcbd a217 953c
00000390: ad65 b7be 1528 1abf 4fac 1d3b 99fd d33d
000003a0: fcdb 28be 2e96 3d3d 66c6 9cbe 4015 00bf
000003b0: 7fc6 58be d793 133d a73b ce3d b6bc b4be
000003c0: 1b55 8d3e b9ba 46bf e6dc 1dbe 85a2 74bc
000003d0: 4bd8 4b3e 5eb0 c73e 25ad 48be 4ad7 3a3e
000003e0: b427 f6bd 069a 11bf 0b45 74bd 0f29 65bd
000003f0: 1c56 5b3e 848b adbe 95de babc b119 6e3e

fc2.bias f4 [256]
0.6891994 -0.18080606 -0.055741098 0.57596034 0.6750307 -0.14046553 0.20791511 -0.23766676
0.002886609 0.01642792 0.120350756 -0.6176183 0.6114992 0.5099831 0.09118725 -0.045135356
-0.97225994 0.38868374 -0.14162847 0.5571953 0.22711322 0.26704627 -0.020111928 0.032433596
0.4332414 0.30119246 -0.09612555 -0.052122805 -0.5787452 0.90303427 -0.011744559 -1.3086714
0.012415615 -0.045076516 0.1529074 -0.038632937 -0.41044512 0.31418866 0.098877616 0.06746925
0.38142982 -0.42453027 -0.004883276 0.45952073 0.73296666 -0.283648 -0.7987711 0.4235534
0.33467233 -0.5878805 -0.33267203 0.25277978 -1.2374773 0.43984234 0.1392666 -0.30015808
0.18672542 0.44004086 0.6592039 0.25930598 -1.284934 -0.15481968 0.5274203 -0.40474543
-0.10333594 -0.49045292 0.6153475 0.9541659 0.48731646 0.28219548 -0.032115337 0.08990403
-0.8830747 0.624429 -0.60697025 0.41916817 0.5603707 0.39421755 -0.28730252 -0.45364395
0.11714273 0.17698568 -0.07681474 -0.011351947 -0.04200796 -0.13701913 -1.3744979 -0.19447437
-0.96595097 -0.3344644 -1.3318714 0.003228221 0.35078126 0.3719428 -0.533601 0.46364638
-0.1537589 -0.31651187 -0.050230693 0.50799125 -0.86099935 0.10679589 -0.7398089 -1.6406456
0.16168974 0.3245337 -0.94774795 -0.09634906 0.53213966 -0.114300475 0.00012381158 0.2161098
-0.062070362 -0.12290575 -0.0012224719 -0.29060265 -0.107332595 -0.4158315 0.3445123 -0.026209965
0.3088727 -0.025194371 -0.042030957 -0.021736585 -0.11207833 0.38548386 -0.5695535 0.12725522
0.14130363 -0.25697622 -0.08682474 -0.089312166 0.04918771 0.16138789 -0.24627708 0.2493318
-0.45156297 0.1197044 -0.5936682 0.030721037 -0.14506026 -0.24475968 0.12673111 -0.3937415
0.21397123 -0.4242648 0.23943482 -1.3826807 0.32055515 -0.4079375 -0.32698223 -0.11111288
0.30456704 -1.0577894 -0.16193438 0.20019922 -1.3967465 0.70368075 0.5174055 -0.24539067
-0.066008486 -1.0005299 -1.2778491 0.25022614 -0.14613748 0.0065997555 -0.05250738 -0.421688
0.5322683 -0.39684775 0.69308764 0.13613285 -0.04299051 0.20461157 -0.24706456 0.04576034
-0.020975938 -0.040224217 -0.1743145 0.16727926 0.011840794 0.044961497 0.33729297 -0.05837704
-0.09662608 -0.026223691 0.2236179 0.048951715 -0.5134278 0.10474844 -0.26523036 -0.09365411
-0.1833498 -0.16784444 -0.5127469 0.20197952 -0.7463405 -0.794178 -0.08332962 -0.21807091
-0.18018307 0.21169819 -0.294406 -0.094986305 0.020467501 -0.20773594 -0.07747483 0.74970436
0.45678046 0.16193558 -0.015735906 -0.7149264 -0.5467247 0.045803767 0.29734412 0.07782992
0.15017995 0.56621385 0.36005354 -0.1988645 -0.30856737 -0.71938723 -0.1321334 0.08496564
-0.015899656 0.40105808 0.23162626 0.54594386 0.0024271896 0.0057700677 0.61144507 0.41876742
0.7082623 0.019136462 -0.32315376 -0.2008929 0.5337103 0.51358664 -0.23277251 -0.4136089
-0.023267128 -0.017220238 0.3643857 -0.071373224 0.014917951 -0.49383363 -0.8998573 0.20724049
-0.085102126 0.34878704 -0.22557656 0.4418707 -0.07161939 0.56318384 -0.23208992 -0.052551474
00000000: 5f6f 303f 3925 39be c750 64bd 2372 133f
00000010: d0ce 2c3f 32d6 0fbe b3e7 543e ea5e 73be
00000020: 432d 3d3b d893 863c 757a f63d 3c1c 1ebf
00000030: 368b 1c3f 418e 023f 62c0 ba3d dadf 38bd
00000040: 07e6 78bf 8e01 c73e 0e07 11be 5aa4 0e3f
00000050: 5e90 683e 4aba 883e c5c1 a4bc 17d9 043d
00000060: d1d1 dd3e e635 9a3e 79dd c4bd b97e 55bd
00000070: a528 14bf 412d 673f 406c 40bc 8b82 a7bf
00000080: dd6a 4b3c 27a2 38bd c293 1c3e 923d 1ebd
00000090: dd25 d2be 56dd a03e 5980 ca3d 512d 8a3d
000000a0: c54a c33e 085c d9be e303 a0bb 4d46 eb3e
000000b0: b4a3 3b3f 503a 91be 437c 4cbf fedb d83e
000000c0: 2c5a ab3e 567f 16bf fd53 aabe 5a6c 813e
000000d0: a865 9ebf 0433 e13e e79b 0e3e 52ae 99be
000000e0: f334 3f3e 094d e13e 96c1 283f c1c3 843e
000000f0: b878 a4bf 0d89 1ebe 0405 073f cb3a cfbe
00000100: cba1 d3bd a51c fbbe 6a87 1d3f 3744 743f
00000110: 8b81 f93e ed7b 903e 5f8b 03bd 9b1f b83d
00000120: 2f11 62bf 94da 1f3f 6762 1bbf 369d d63e
00000130: 7474 0f3f e2d6 c93e 5119 93be 0544 e8be
00000140: 87e8 ef3d bc3b 353e 0c51 9dbd 84fd 39bc
00000150: 8a10 2cbd be4e 0cbe 8cef afbf 4a24 47be
00000160: 9048 77bf eb3e abbe c37a aabf 9090 533b
00000170: 9a99 b33e 496f be3e 139a 08bf 0f63 ed3e
00000180: f972 1dbe d80d a2be b3be 4dbd b70b 023f
00000190: 746a 5cbf ceb7 da3d 1e64 3dbf ad00 d2bf
000001a0: ff91 253e 4829 a63e 9c9f 72bf a852 c5bd
000001b0: 4e3a 083f 5e16 eabd 6bd3 0139 e34b 5d3e
000001c0: 7e3d 7ebd 03b6 fbbd 5a3b a0ba dfc9 94be
000001d0: 31d1 dbbd dee7 d4be eb63 b03e 48b6 d6bc
000001e0: 9024 9e3e 6d64 cebc a728 2cbd ec10 b2bc
000001f0: 5389 e5bd 245e c53e 42ce 11bf 314f 023e
00000200: e6b1 103e 6392 83be 2bd1 b1bd 4ce9 b6bd
00000210: 0d79 493d de42 253e 0f30 7cbe d650 7f3e
00000220: 4333 e7be 9527 f53d a4fa 17bf afaa fb3c
00000230: ad8a 14be 48a2 7abe cdc5 013e 7c98 c9be
00000240: 461b 5b3e 3c39 d9be 672e 753e aefb b0bf
00000250: ce1f a43e 2fdd d0be 376a a7be 268f e3bd
00000260: 36f0 9b3e a565 87bf 20d2 25be 0601 4d3e
00000270: 97c8 b2bf 6c24 343f b074 043f b147 7bbe
00000280: 752f 87bd 5d11 80bf 8f90 a3bf a41d 803e
00000290: 10a5 15be c342 d83b fa11 57bd 7de7 d7be
000002a0: bc42 083f a12f cbbe 316e 313f 6966 0b3e
000002b0: d116 30bd b285 513e 7efe 7cbe 326f 3b3d
000002c0: bbd5 abbc 26c2 24bd 807f 32be 414b 2b3e
000002d0: e4ff 413c 8c29 383d aab1 ac3e c31c 6fbd
000002e0: e5e3 c5bd 11d3 d6bc 17fc 643e 9881 483d
000002f0: 0170 03bf 5a86 d63d 46cc 87be bacd bfbd
00000300: 0dc0 3bbe 6adf 2bbe 6143 03bf b8d3 4e3e
00000310: 2c10 3fbf 404f 4bbf b8a8 aabd fb4d 5fbe
00000320: e981 38be 69c7 583e 62bc 96be 2e88 c2bd
00000330: 76ab a73c bbb8 54be 20ab 9ebd a0ec 3f3f
00000340: 21df e93e 71d2 253e 96e8 80bc 6b05 37bf
00000350: 26f6 0bbf bb9c 3b3d 7d3d 983e 4b65 9f3d
00000360: c6c8 193e 64f3 103f f058 b83e 23a3 4bbe
00000370: 8bfc 9dbe c329 38bf fa4d 07be 7702 ae3d
00000380: ff3f 82bc 7c57 cd3e 6f2f 6d3e fac2 0b3f
00000390: 7c11 1f3b d612 bd3b aa87 1c3f af68 d63e
000003a0: ae50 353f 12c4 9c3c 6974 a5be deb6 4dbe
000003b0: 3da1 083f 6a7a 033f eb5b 6ebe 8cc4 d3be
000003c0: b49a bebc 7511 8dbc c390 ba3e 202c 92bd
000003d0: 6c6a 743c c3d7 fcbe 0c5d 66bf da36 543e
000003e0: 064a aebd 3794 b23e 8bfd 66be e03c e23e
000003f0: 30ad 92bd d12c 103f fba8 6dbe 3740 57bd

fc3.weight f4 [256, 256]
0.41837603 -0.9157894 -0.03161454 0.26282093 -0.3926974 -0.014376817 -0.06884381 -0.40846848
-0.5513753 -0.50726056 -0.41408783 -0.15564226 -0.39348558 -0.71997154 -0.034566578 -0.35850477
0.14457022 -1.0290835 0.33066475 0.15907562 -0.25670338 0.63181275 -0.048251443 0.18429378
0.16204695 -0.11907829 -0.036554728 0.06919031 -0.89037 -1.6369934 -0.4348903 -0.7570412
0.24611376 -0.14568515 0.068801664 0.055558983 -0.0041672317 -0.20336206 -0.5967906 -0.1302394
-0.5216827 -0.12159373 0.044995215 -0.03996277 -0.07259546 -0.10344121 0.41344845 -0.35392413
0.017035231 0.6453911 -0.01014277 0.01019661 -1.192249 -0.6689642 0.13458173 0.19546142
-0.35472152 -0.24772777 -0.22725011 -0.39777943 -1.3544574 -0.7680731 -0.42330053 0.104775906
0.05673625 0.19230743 -0.25654536 0.26518846 -0.220167 -0.7682456 0.048744638 -0.37667096
-0.3826555 -0.41957256 -0.22546557 -0.36353642 -0.2360422 -0.27536926 -0.52002394 -0.61055744
-0.14606912 -0.09272676 -0.023750767 -0.020246102 -0.009735663 -0.109433 -0.28629094 -0.18729123
-0.18767251 -0.6396081 -0.06912233 0.00958132 -0.69912744 -1.1253767 -0.09065102 0.0192751
-0.02550794 -0.32947066 -0.0016557681 -0.16860561 -0.37830222 0.07794858 -0.15646319 -0.46926227
-0.3151062 -0.44467944 -0.36420652 -0.6704843 -1.0094377 -0.057834312 0.043160703 0.1412727
0.01408455 -0.23549505 0.11667268 -0.064629555 0.33742347 -0.102156736 0.21222217 -0.016176257
-0.27586284 -0.1693212 0.08314688 -0.23139648 -0.43340942 -0.35947147 -0.48759294 -0.11307194
-0.04970246 -0.10686678 0.022565154 -0.16084653 0.0002573921 0.13051638 0.56615543 -0.31909373
-0.052052926 0.20271784 0.25150496 -1.1089382 -1.3848293 -0.5884569 0.5638077 -0.816999
-0.25111124 0.06842736 0.64934963 -0.25644666 -0.87830764 -0.13927406 -0.066904165 0.07914814
-0.54071647 -0.16468485 -0.6424342 0.31455547 -0.2653929 -0.56878394 0.19952849 -0.2678117
-0.045542974 -0.46180946 0.09866812 0.12758304 -0.21131477 -0.09608414 -0.18718652 -0.12116543
-0.31167042 0.1619606 0.20368193 -0.07724842 0.07739568 0.47465074 -0.4402955 -0.014078138
-0.123262316 -0.053252146 0.2840411 -0.3132183 0.06091215 0.26470652 -0.22363707 -0.13027021
0.8182306 -0.11732897 -0.11993128 0.5531898 -0.017035821 0.2611861 -0.1625378 0.2319744
-0.65007263 0.20541017 -0.5192104 0.39280593 0.22545183 -0.13804168 0.012243635 -0.0003549809
-0.14170176 -0.36990905 -0.22523591 0.036424473 -0.009860726 -0.5538476 0.0058969837 -0.6550186
-0.032875057 -0.024821129 0.0010155932 0.1675365 -0.9247837 0.039684303 -0.96768355 -0.26551765
-1.0138643 -0.36130187 -0.66058964 0.022425951 0.2176185 -0.27035412 -0.44041714 -0.14641143
0.2796036 -0.5328443 -0.28844875 0.17075841 -0.3435782 0.19761384 0.08008639 -0.5925947
0.029292839 0.22268827 0.4588666 0.027370606 -0.11183109 0.23017718 -0.18384601 -0.3044077
-0.21295956 -0.92590904 0.022055132 -0.038845684 -0.44870573 0.04399351 -0.17662509 -0.5056794
-0.04271145 -0.0426196 0.30470175 -0.41269818 -0.056293152 -2.3219335 -1.2414548 -0.10002914
00000000: 6235 d63e 2d71 6abf 3f7e 01bd 7790 863e
00000010: a20f c9be be8c 6bbc fcfd 8cbd c822 d1be
00000020: ef26 0dbf d4db 01bf 5203 d4be af60 1fbe
00000030: f176 c9be 0e50 38bf af95 0dbd f08d b7be
00000040: 370a 143e 02b9 83bf e44c a93e b8e4 223e
00000050: a06e 83be 7bbe 213f 4ea3 45bd 82b7 3c3e
00000060: a3ef 253e 52df f3bd 69ba 15bd a6b3 8d3d
00000070: 4aef 63bf 0089 d1bf f1a9 debe 74cd 41bf
00000080: 3f05 7c3e 7d2e 15be e3e7 8c3d d191 633d
00000090: 468d 88bb 253e 50be 45c7 18bf 7a5d 05be
000000a0: ff8c 05bf 2206 f9bd e74c 383d 00b0 23bd
000000b0: eeac 94bd fcd8 d3bd 84af d33e 8b35 b5be
000000c0: 788d 8b3c 5a38 253f dc2d 26bc af0f 273c
000000d0: 9d9b 98bf 3d41 2bbf cbcf 093e 0a27 483e
000000e0: 0f9e b5be 59ac 7dbe 41b4 68be bfa9 cbbe
000000f0: dc5e adbf 70a0 44bf d9ba d8be c094 d63d
00000100: 4564 683d 3dec 443e ea59 83be c8c6 873e
00000110: 7573 61be beab 44bf 75a8 473d 04db c0be
00000120: 6ceb c3be 37d2 d6be 72e0 66be 7221 babe
00000130: 0cb5 71be 33fd 8cbe 4a20 05bf 7e4d 1cbf
00000140: 2593 15be 87e7 bdbd f890 c2bc 27db a5bc
00000150: 5582 1fbc 691e e0bd ba94 92be 46c9 3fbe
00000160: 392d 40be 5bbd 23bf 0290 8dbd f8fa 1c3c
00000170: 04fa 32bf 580c 90bf 3ea7 b9bd d1e6 9d3c
00000180: 07f6 d0bc 61b0 a8be 5c06 d9ba f3a6 2cbe
00000190: d4b0 c1be 81a3 9f3d e337 20be 2543 f0be
000001a0: 9a55 a1be 06ad e3be 4779 babe dca4 2bbf
000001b0: 4135 81bf ace3 6cbd 47c9 303d caa9 103e
000001c0: e2c2 663c 9d25 71be 16f2 ee3d 805c 84bd
000001d0: c5c2 ac3e 8d37 d1bd c550 593e 1284 84bc
000001e0: e53d 8dbe 8962 2dbe e948 aa3d 33f3 6cbe
000001f0: d7e7 ddbe a50c b8be c8a5 f9be 4392 e7bd
00000200: cf94 4bbd f8dc dabd 8fda b83c f4b4 24be
00000210: 95f2 8639 16a6 053e 90ef 103f 4160 a3be
00000220: 7335 55bd 4495 4f3e 42c5 803e b0f1 8dbf
00000230: 1642 b1bf 1da5 16bf b455 103f d926 51bf
00000240: a791 80be a523 8c3d c73b 263f fa4c 83be
00000250: c5d8 60bf dc9d 0ebe 0d05 89bd 6c18 a23d
00000260: 656c 0abf 25a3 28be 9176 24bf 6a0d a13e
00000270: 94e1 87be d39b 11bf 3251 4c3e 9d1e 89be
00000280: 458b 3abd 4a72 ecbe 8312 ca3d 21a5 023e
00000290: e662 58be c3c7 c4bd d3ad 3fbe 9525 f8bd
000002a0: 4493 9fbe 00d9 253e ff91 503e 6b34 9ebd
000002b0: a081 9e3d 6c05 f33e 696e e1be fea7 66bc
000002c0: f470 fcbd ec1e 5abd d66d 913e 265e a0be
000002d0: 057f 793d 9d87 873e 1e01 65be 8e65 05be
000002e0: 9077 513f 2c4a f0bd 889e f5bd d99d 0d3f
000002f0: b58e 8bbc 2fba 853e 4f70 26be b28a 6d3e
00000300: 296b 26bf 0b57 523e f9ea 04bf dc1d c93e
00000310: d8dc 663e cc5a 0dbe 8799 483c bb1c bab9
00000320: 441a 11be b864 bdbe 3ea4 66be d431 153d
00000330: e28e 21bc f5c8 0dbf 7c3b c13b 4daf 27bf
00000340: ffa7 06bd ae55 cbbc a71d 853a b08e 2b3e
00000350: a0be 6cbf 028c 223d 1cba 77bf eef1 87be
00000360: 4ec6 81bf 8ffc b8be 671c 29bf a1b6 b73c
00000370: 62d7 5e3e db6b 8abe 5b7e e1be e1ec 15be
00000380: 3428 8f3e 7c68 08bf 8eaf 93be 4bdb 2e3e
00000390: 7be9 afbe 485b 4a3e 5504 a43d 49b4 17bf
000003a0: 89f7 ef3c 6508 643e 90f0 ea3e 5238 e03c
000003b0: b307 e5bd 91b3 6b3e 2142 3cbe 53db 9bbe
000003c0: 1212 5abe 6008 6dbf f7ac b43c a71c 1fbd
000003d0: c2bc e5be 8a32 343d 35dd 34be 3574 01bf
000003e0: 34f2 2ebd e491 2ebd de01 9c3e 2d4d d3be
000003f0: a693 66bd 8f9a 14c0 fee7 9ebf 14dc ccbd

fc3.bias f4 [256]
-0.15246296 0.024019267 -0.5051024 -0.39618254 0.051650915 0.15041228 0.17529674 -0.43711108
-0.3634606 -0.13522586 -0.36946195 -0.4022137 -0.4433563 0.565081 -0.27234948 0.44546765
0.27864513 -0.685016 0.0653603 -0.32422066 -0.8363504 -0.20801821 -0.065840706 -0.4102601
0.18341975 -0.9248586 0.4052361 -0.5932784 -0.65575176 -0.15342867 -0.26206154 -0.4781593
-0.010474949 -0.3377181 0.19636059 0.11727514 -0.16182344 -0.4958114 0.9555385 -0.2691535
-0.0036570693 -0.27999517 -0.18374233 -0.06383139 -0.021097697 -0.3680437 0.13072485 -0.12926114
-0.1382105 0.3064516 -0.83347726 0.0997218 0.058878887 -0.17335632 -0.03621308 -0.67337054
-0.32470495 -0.37298724 -0.31185815 0.36751434 -0.3330256 -0.5328815 -0.13658531 -0.16210116
-0.29835933 0.17103757 -0.3274496 -0.19733177 -0.6193568 -0.07488237 0.104480214 -0.34609887
-0.28996566 -0.16935474 -0.24588907 -0.123781234 0.6538641 -0.28541765 -0.1525291 0.19910876
-0.23116468 -0.20513223 -0.417197 -0.21651198 -0.15670738 0.077017345 -0.35652757 0.11432895
-0.13551408 -0.51456875 0.39889225 -0.2545901 -0.47918266 0.4491899 -0.32449517 -0.9507477
0.022775726 -0.047409445 -0.46930334 -0.4130619 0.08082172 -0.7626608 -0.089806475 -0.19692463
-0.24489184 -0.25347465 0.19138238 0.016981285 -0.03322811 0.7494239 -0.35484302 -0.14103054
0.21486421 -0.76164114 0.22759035 0.2600573 -0.1817214 -0.069110356 0.41139928 -0.41820034
0.13254061 -0.28198546 -0.38712823 -0.23014988 -0.15854216 -0.25304756 0.4589395 -0.26031142
0.19270982 -0.28789705 -0.15435505 -0.2607335 0.096490264 0.2825452 -0.11696596 0.061294775
0.22293064 -0.09412144 0.46424338 0.2396469 0.13786621 0.077350274 -0.18691392 -0.1863932
-0.08918009 0.12963313 -0.20094588 0.29572484 -0.6393013 -0.15487748 -0.032604076 -0.09711981
-0.28476527 0.06436857 0.053502366 -0.27982432 0.4787249 -0.15003712 -0.3198894 -0.36700702
0.30256692 -0.6397429 -0.097104244 -0.42923075 -0.4368876 0.15356982 -0.4488871 0.1124391
-0.12421505 0.46833417 -0.14841217 0.22609171 -0.29052922 -0.30674365 -0.09047799 -0.14017424
-0.31333613 -0.30532458 0.15181525 -0.86977994 -0.0132708885 -0.079050094 -0.42298946 0.0027776994
0.0755227 -0.24727736 -0.8040427 -0.036550675 0.006569733 -0.12901185 -0.812611 0.030416127
-0.3690878 -0.47017673 -0.42212358 0.013941598 -0.021255942 -0.28868663 -0.20423503 -0.5728444
-0.0672455 -0.23020756 -0.3176035 -0.32359862 -0.35400882 0.29937497 0.6015454 -0.39530367
-0.22927275 -0.40251312 0.39341176 0.4659277 0.08154726 0.3610058 0.25806728 0.019949552
-0.10723035 -0.25663435 -0.6077954 -0.5236011 -0.31177318 -0.28726235 0.1445351 -0.5611287
-0.33812174 -0.47312543 -0.29641283 -1.2973849 0.07041743 -0.13890947 0.15898995 -0.610612
-0.42446128 -0.50598204 0.040215157 -0.20086487 -0.23116583 0.08738007 -0.18593171 -0.16128217
-0.1359687 -0.35662502 -0.2640979 -0.5701742 -0.17350502 -0.38427356 -0.068395026 0.28060272
0.42420977 0.03748117 0.46435463 -0.43923855 -0.059659965 0.034562748 -0.6652852 0.17069347
00000000: 401f 1cbe 0ec4 c43c 644e 01bf 70d8 cabe
00000010: e98f 533d ad05 1a3e fd80 333e 06cd dfbe
00000020: 8217 babe a678 0abe 1e2a bdbe f4ee cdbe
00000030: 99ff e2be 26a9 103f 6471 8bbe 5614 e43e
00000040: 93aa 8e3e 355d 2fbf 9fdb 853d 4000 a6be
00000050: 0f1b 56bf ba02 55be 7ed7 86bd 9d0d d2be
00000060: 63d2 3b3e 89c3 6cbf 1b7b cf3e 18e1 17bf
00000070: 59df 27bf 681c 1dbe ee2c 86be 4cd1 f4be
00000080: 1f9f 2bbc 63e9 acbe c012 493e f32d f03d
00000090: 0bb5 25be feda fdbe 2c9e 743f 7dce 89be
000000a0: 71ab 6fbb 875b 8fbe f326 3cbe 08ba 82bd
000000b0: 14d5 acbc 3970 bcbe bcdc 053e 085d 04be
000000c0: 0e87 0dbe 39e7 9c3e c45e 55bf f13a cc3d
000000d0: fd2a 713d 5284 31be 2b54 14bd 0362 2cbf
000000e0: ba3f a6be 2ff8 bebe dfab 9fbe d72a bc3e
000000f0: 5582 aabe ec6a 08bf 05dd 0bbe d9fd 25be
00000100: 8ec2 98be 7924 2f3e 79a7 a7be 5711 4abe
00000110: 2b8e 1ebf ee5b 99bd b9f9 d53d df33 b1be
00000120: 6176 94be 546b 2dbe 58ca 7bbe 0481 fdbd
00000130: a363 273f 4322 92be 9730 1cbe 2be3 4b3e
00000140: 6fb6 6cbe 2f0e 52be d89a d5be 51b5 5dbe
00000150: e677 20be 45bb 9d3d c88a b6be 4c25 ea3d
00000160: 34c4 0abe c7ba 03bf 9b3b cc3e a259 82be
00000170: 6e57 f5be 38fc e53e 3b24 a6be 3464 73bf
00000180: 2994 ba3c 6830 42bd 8748 f0be d97c d3be
00000190: dc85 a53d bd3d 43bf 75ec b7bd 9ca6 49be
000001a0: edc4 7abe 6ec7 81be bef9 433e 561c 8b3c
000001b0: 331a 08bd 3fda 3f3f fcad b5be 4f6a 10be
000001c0: 5d05 5c3e eafa 42bf 720d 693e 3b26 853e
000001d0: 2d15 3abe bb89 8dbd eda2 d23e 5b1e d6be
000001e0: bab8 073e 6660 90be ac35 c6be 69ac 6bbe
000001f0: e058 22be 738f 81be 1efa ea3e 8a47 85be
00000200: b955 453e 3e67 93be 400f 1ebe dc7e 85be
00000210: b09c c53d c4a9 903e d98b efbd 3b10 7b3d
00000220: ee47 643e bec2 c0bd 4fb1 ed3e ff65 753e
00000230: cd2c 0d3e d269 9e3d 5d66 3fbe dcdd 3ebe
00000240: 0da4 b6bd 8cbe 043e c2c4 4dbe 3f69 973e
00000250: 40a9 23bf 3498 1ebe da8b 05bd c0e6 c6bd
00000260: c1cc 91be abd3 833d 4c25 5b3d 2245 8fbe
00000270: 6e1b f53e 55a3 19be 8bc8 a3be 58e8 bbbe
00000280: 0dea 9a3e 31c6 23bf 97de c6bd 22c4 dbbe
00000290: bbaf dfbe 6841 1d3e 88d4 e5be 7946 e63d
000002a0: 7664 febd 7fc9 ef3e 5cf9 17be 9684 673e
000002b0: 3fc0 94be 810d 9dbe 864c b9bd d689 0fbe
000002c0: 986d a0be 8153 9cbe 7575 1b3e e6a9 5ebf
000002d0: 246e 59bc 04e5 a1bd 1392 d8be 100a 363b
000002e0: a5ab 9a3d 4736 7dbe bed5 4dbf 29b6 15bd
000002f0: ea46 d73b af1b 04be 4607 50bf 3e2b f93c
00000300: 13f9 bcbe 01bb f0be 9520 d8be 4d6b 643c
00000310: f120 aebc bcce 93be fd22 51be eea5 12bf
00000320: 02b8 89bd 88bb 6bbe ed9c a2be b8ae a5be
00000330: a540 b5be ad47 993e e1fe 193f 3e65 cabe
00000340: 7ac6 6abe 3316 cebe 446d c93e 138e ee3e
00000350: 4002 a73d c1d5 b83e 6521 843e 3e6d a33c
00000360: 969b dbbd 9465 83be 7b98 1bbf b90a 06bf
00000370: bca0 9fbe 0d14 93be 0201 143e 21a6 0fbf
00000380: 4b1e adbe 7f3d f2be 6cc3 97be b510 a6bf
00000390: 0337 903d 493e 0ebe 43ce 223e 1151 1cbf
000003a0: fd52 d9be 0a88 01bf a6b8 243d 85af 4dbe
000003b0: bcb6 6cbe 52f4 b23d e264 3ebe 2727 25be
000003c0: 613b 0bbe 8e97 b6be d737 87be f0f6 11bf
000003d0: 4dab 31be 81bf c4be b112 8cbd 29ab 8f3e
000003e0: 0632 d93e db85 193d e4bf ed3e e0e3 e0be
000003f0: 025e 74bd ab91 0d3d 2250 2abf 45ca 2e3e

action_out.weight f4 [4, 256]
0.13518098 0.09637839 0.10348712 -0.013584351 -0.059845425 0.15459204 0.103447184 0.42494994
-0.079853505 0.037329834 -0.3641511 0.12557587 -0.31207398 -0.08826851 0.01911844 0.09933004
0.057890594 0.21343452 -0.04082354 -0.13112013 -0.25554502 -0.015415113 -0.047365714 0.4138326
0.02713532 -0.0014728509 0.0448989 -0.06319687 -1.6873418 -0.0053883772 0.29659575 -0.014538286
0.29095936 -0.027242273 -0.01562745 -0.015566665 0.16458212 0.034585547 -0.1484762 -0.023096636
0.020199945 -0.05547128 -0.068117686 0.28410113 -0.11953358 -0.049557455 0.11545104 0.07655162
0.05525433 0.09708013 1.5738196 0.06515519 0.03355914 0.24040644 -0.043084 0.5232461
0.26250002 0.082766175 -0.2686894 -0.2278837 0.102345236 -0.028596375 0.02735575 -0.05773297
-0.24540783 0.044158313 -0.010057267 0.033424467 -0.09000744 -0.48073435 0.08265163 0.07498565
0.38242954 -0.016624244 0.21864049 -0.08379318 0.055996463 0.11367593 0.18418798 -0.38712507
-0.05097763 0.49587095 -0.27838796 0.019652339 0.15470275 -0.11029167 0.3770106 -0.030823655
-0.09603167 -0.34090608 0.02179784 -0.14886472 0.020643035 0.021712609 -0.12145698 -0.60946757
0.05005843 -0.038155314 -0.37409523 0.35410115 -0.11736506 0.015730562 1.0202377 0.0336515
-0.06818459 0.19825348 -0.15604757 -0.06822372 -0.038028076 0.1273109 -0.061060153 -0.098905995
-0.031980045 0.06970738 -0.18237303 -0.07312253 -0.22888845 -0.0643832 -0.060585804 0.054394003
-0.25039816 0.018940026 -0.51793945 0.12054385 0.050045032 -0.0060292315 0.1029329 -0.33882955
-0.13851272 -0.009022263 0.022136215 -0.109432966 0.09649712 -0.061248872 0.045715645 -0.10903901
-0.006483522 0.052802064 -0.056762077 -0.11215965 -0.29941913 0.05680652 -0.1809785 -0.054662213
0.009922326 -0.13920283 -0.3140513 -0.118162885 -0.026160236 0.06712079 -0.045145873 -0.049210787
-0.064179055 -0.05150665 0.062238175 -0.08731017 0.03299972 -0.044792067 0.10859033 0.02478205
0.024756897 0.005225471 0.05069995 0.02096793 0.1758466 0.026885454 0.337568 0.1295915
-0.11066285 -0.15468915 -0.23125364 0.4515227 -0.053185027 0.25410014 0.09040381 -0.11976818
0.0035991732 0.26432046 -0.018331535 -0.015498934 0.02792937 -0.13587502 -0.058853667 0.022434441
-0.049263053 -0.011995494 -0.8743827 -0.112139925 0.1106208 -0.013704607 -0.033606384 -0.07257257
-0.016668728 -0.1084252 -0.14106305 0.345642 -0.18848711 0.035674997 0.52108437 -0.09581622
-0.38120884 0.26278442 -0.3007966 0.032818265 0.0584453 0.38247272 -0.049753394 -0.57117647
0.18253733 0.16831419 -0.21537583 0.055113286 -0.053454027 0.07950199 0.14511268 0.19760694
-0.26333854 0.02817797 -1.2664124 0.5999417 -0.19864461 -0.078211926 0.2667299 0.2089719
-0.39705122 -0.0077175424 -0.87817293 0.17189825 -0.005386567 -0.33406454 -0.05206934 0.14266704
-0.046124786 -0.023004247 0.12181065 0.19301826 -0.017711421 0.027068427 0.24527025 -0.28734255
0.09846895 0.11920247 -0.0039651836 0.08909138 -0.048063878 -0.46947473 -0.034586374 -0.22048168
0.19564079 -0.08818819 0.16903712 0.0033488749 -0.05944501 0.6055394 0.09582402 -0.05849786
00000000: e26c 0a3e 0962 c53d 0ef1 d33d e690 5ebc
00000010: 7a20 75bd 604d 1e3e 1edc d33d 0a93 d93e
00000020: 3c8a a3bd 2be7 183d 0372 babe f696 003e
00000030: 29c8 9fbe 1fc6 b4bd 469e 9c3c 8c6d cb3d
00000040: b01e 6d3d 948e 5a3e 9636 27bd 5b44 06be
00000050: ccd6 82be ac8f 7cbc 8d02 42bd dee1 d33e
00000060: e44a de3c ad0c c1ba e9e7 373d 5c6d 81bd
00000070: d1fa d7bf fc90 b0bb 66db 973e fe31 6ebc
00000080: a0f8 943e 302b dfbc 2305 80bc 530b 7fbc
00000090: 3788 283e 93a9 0d3d 250a 18be 2835 bdbc
000000a0: 5b7a a53c da35 63bd 4981 8bbd b475 913e
000000b0: 06ce f4bd c2fc 4abd 9871 ec3d 19c7 9c3d
000000c0: 5d52 623d f2d1 c63d ec72 c93f 1670 853d
000000d0: 4f75 093d 1b2d 763e d978 30bd 75f3 053f
000000e0: 6766 863e 5081 a93d a891 89be 585a 69be
000000f0: 619a d13d f242 eabc 2a19 e03c 6879 6cbd
00000100: 314c 7bbe 59df 343d 3cc7 24bc 18e8 083d
00000110: d255 b8bd d022 f6be 4245 a93d 1492 993d
00000120: cecd c33e 912f 88bc 4be3 5f3e c29b abbd
00000130: 8c5c 653d edce e83d c69b 3c3e 4235 c6be
00000140: ebcd 50bd cce2 fd3e de88 8ebe f1fd a03c
00000150: 666a 1e3e 99e0 e1bd 8907 c13e e481 fcbc
00000160: 41ac c4bd 3e8b aebe 6291 b23c fe6f 18be
00000170: 951b a93c a4de b13c 70be f8bd 1106 1cbf
00000180: 110a 4d3d bf48 1cbd 6989 bfbe bf4c b53e
00000190: 185d f0bd 61dd 803c 2697 823f 28d6 093d
000001a0: 5da4 8bbd f602 4b3e efca 1fbe e1b8 8bbd
000001b0: 54c3 1bbd ca5d 023e 361a 7abd 3a8f cabd
000001c0: 82fd 02bd bec2 8e3d ffbf 3abe 44c1 95bd
000001d0: bc61 6abe 57db 83bd d228 78bd 3fcc 5e3d
000001e0: 3034 80be 1d28 9b3c ae97 04bf b2df f63d
000001f0: 05fc 4c3d dc90 c5bb 7cce d23d 117b adbe
00000200: 47d6 0dbe 1dd2 13bc 0257 b53c 641e e0bd
00000210: 48a0 c53d 19e0 7abd 5440 3b3d d84f dfbd
00000220: b973 d4bb fa46 583d 5a7f 68bd f5b3 e5bd
00000230: 774d 99be f4ad 683d 6e52 39be 7ce5 5fbd
00000240: 4091 223c 308b 0ebe 55cb a0be 62ff f1bd
00000250: fe4d d6bc a076 893d e1ea 38bd 4091 49bd
00000260: 4f70 83bd a3f8 52bd 75ed 7e3d adcf b2bd
00000270: b72a 073d e377 37bd 9b64 de3d ba03 cb3c
00000280: face ca3c 6e3a ab3b c0aa 4f3d f0c4 ab3c
00000290: 2211 343e e23e dc3c b7d5 ac3e a2b3 043e
000002a0: 34a3 e2bd d566 1ebe c1cd 6cbe fc2d e73e
000002b0: 8bd8 59bd 6a19 823e a225 b93d 0549 f5bd
000002c0: 1be0 6b3b 0355 873e 042c 96bc 3eef 7dbc
000002d0: 22cc e43c d222 0bbe 8b10 71bd 6fc8 b73c
000002e0: 0ec8 49bd c088 44bc 8bd7 5fbf 9ea9 e5bd
000002f0: 288d e23d 4a89 60bc d9a6 09bd eda0 94bd
00000300: db8c 88bc 080e debd d572 10be fdf7 b03e
00000310: c402 41be f21f 123d c965 053f 4b3b c4bd
00000320: ce2d c3be ae8b 863e 0302 9abe 726c 063d
00000330: 5764 6f3d 77d3 c33e 37ca 4bbd 9f38 12bf
00000340: 11eb 3a3e 8e5a 2c3e 7b8b 5cbe 78be 613d
00000350: 9cf2 5abd f0d1 a23d 6b98 143e 7959 4a3e
00000360: 4fd4 86be 7cd5 e63c cd19 a2bf c795 193f
00000370: 7e69 4bbe 932d a0bd d290 883e bbfc 553e
00000380: 4c4a cbbe 70e3 fcbb f1cf 60bf 1806 303e
00000390: cd81 b0bb 820a abbe a946 55bd 4f17 123e
000003a0: 58ed 3cbd 6773 bcbc dd77 f93d 94a6 453e
000003b0: 8b17 91bc 9bbe dd3c 2028 7b3e 901e 93be
000003c0: 17aa c93d 6d20 f43d 5fee 81bb 8b75 b63d
000003d0: a1de 44bd fe5e f0be 71aa 0dbd f3c5 61be
000003e0: 0f56 483e 029c b4bd 1118 2d3e cc78 5b3b
000003f0: 9c7c 73bd a104 1b3f 623f c43d 749b 6fbd

action_out.bias f4 [4]
0.010176706 -0.022642916 -0.01933929 0.012367344
00000000: 33bc 263c a37d b9bc 6e6d 9ebc 67a0 4a3c
