mujoco_project/outputs/exp_001/FetchSlide-v1/model.pt (torch_old, 562115 bytes, 8 tensors)

fc1.weight f4 [256, 28]
-0.24005508 0.12001694 -0.22828913 -0.009179314 -0.31220332 -0.21852174 -0.16296212 -0.2835324
-0.17524365 -0.12472762 0.505957 -0.106294334 -0.30697632 0.066529766 0.1462001 -0.24741831
0.28638923 0.10959122 -0.24453446 0.12468399 0.19747409 -0.25877962 0.17579712 0.27115735
0.2707707 0.30188718 0.13857226 0.60515535 0.26546967 -0.38704762 -0.32275358 0.17656839
0.455192 0.09704568 0.43606198 0.85542023 0.2906309 0.03400417 -0.031006338 -0.034288634
-0.07564265 0.03531255 0.2154416 0.1900892 0.03969999 -0.060234122 -0.043546148 -0.19519219
0.32903463 0.24103807 -0.07035292 0.16955537 -0.12859097 -0.021459911 0.023934457 -0.22099897
-0.020536318 0.5055861 0.22466354 -0.16889949 0.08065484 0.12893859 -0.34454858 -0.61435485
-0.19260247 0.57679653 -0.7511702 -0.0009106876 -0.1624715 -0.027021676 0.013404503 -0.055925258
-0.03970297 -0.02621721 0.08720107 -0.07770744 -0.1257533 -0.025293665 -0.06345574 -0.25404912
-0.19126797 0.7575306 -0.43416238 0.4538954 0.10726407 -0.162977 -0.43403125 -0.085125
0.44305733 0.035069667 -0.9532927 1.0564201 0.38940442 0.8456181 -0.7093804 -0.04781977
0.021710146 -0.19434097 -0.050116815 0.010494768 -0.019878639 -0.017944694 0.08696513 0.021280918
-0.12618344 -0.016785434 0.044465397 -0.0642448 -0.13428842 -0.057346165 0.10767543 -0.19369993
-0.045421608 0.0032664887 0.06250089 -0.047041632 -0.29866838 0.40217403 0.17933467 -0.019976106
-0.08837182 0.21916535 0.340913 0.14382288 -0.0720053 -0.01607306 0.7137202 -0.70577055
0.48958248 -0.16780213 -0.038420223 -0.08291022 0.7157775 -0.6402857 0.55060357 -0.16577277
-0.10935642 0.03101994 -0.06459538 -0.020579657 -0.36361572 0.25014368 -0.13077287 0.028692916
-0.0463456 -0.4895783 0.63231224 -0.59482706 0.024112072 -0.26313233 0.21708256 0.057363372
0.12345571 0.09051555 0.078505926 0.07514685 -0.1916278 0.0058745663 -0.015550265 0.07112133
0.019768478 0.13594636 -0.13909972 0.11224196 -0.0018669599 0.5622209 0.15294655 -0.51177615
-0.15186381 0.13606578 -0.12108373 -0.5205726 0.33149138 -0.189709 -0.26915458 0.18384553
0.0017378725 -0.4747677 0.5244224 0.0180927 0.038488112 -0.021379571 0.03235377 -0.18278737
-0.12323647 -0.060142715 0.03866124 -0.06050279 0.044764034 -0.15426414 -0.09025013 0.07515298
0.07271878 1.3201556 -1.0131086 -0.3806628 0.37331975 -0.22527759 0.02290052 0.8854104
-0.4451513 0.24467131 0.56495434 -0.34296003 -0.009912158 0.48613366 -0.26579145 0.0044472646
-0.015059511 -0.033728343 0.3100461 -0.1930169 0.053977117 -0.0034375533 0.0050029727 0.036059063
0.35014448 -0.17890678 0.026966719 0.0020437539 -0.09872806 -1.6404583 0.82518023 0.13328418
0.32307547 0.10689613 -0.15329327 -0.11159688 -0.09703312 -0.3562039 -0.21879123 -0.6188534
-0.19721664 -0.30165082 0.6282191 -0.26609328 0.13866593 -0.15925299 -0.13365415 -0.08803513
-0.037398614 0.04106982 -0.093700975 -0.038096257 -0.14133589 -0.1541132 0.11403658 0.08973054
-0.032077216 0.041637216 0.33533004 0.13814327 0.060821358 -0.030259153 0.13527143 0.014873344
00000000: 00d1 75be 71cb f53d a0c4 69be d564 16bc
00000010: 1dd9 9fbe 2ac4 5fbe 8bdf 26be 292b 91be
00000020: 1273 33be 3271 ffbd 6686 013f d8b0 d9bd
00000030: 002c 9dbe c240 883d 7bb5 153e 3a5b 7dbe
00000040: 9ca1 923e 5d71 e03d 3e67 7abe 525a ff3d
00000050: a636 4a3e c37e 84be 2904 343e 23d5 8a3e
00000060: 75a2 8a3e f590 9a3e e3e5 0d3e 76eb 1a3f
00000070: a4eb 873e 1b2b c6be f53f a5be 58ce 343e
00000080: ed0e e93e e3bf c63d 8443 df3e d2fc 5a3f
00000090: 93cd 943e f547 0b3d 0101 febc 3d72 0cbd
000000a0: 89ea 9abd e4a3 103d b99c 5c3e bea6 423e
000000b0: 759c 223d 0eb8 76bd 725d 32bd 76e0 47be
000000c0: 3a77 a83e afd2 763e 3115 90bd ec9f 2d3e
000000d0: 5aad 03be b2cc afbc 3212 c43c 8e4d 62be
000000e0: c83b a8bc 176e 013f 330e 663e fdf3 2cbe
000000f0: 5d2e a53d 7a08 043e ac68 b0be 5c46 1dbf
00000100: 9539 45be f0a8 133f b14c 40bf 36bb 6eba
00000110: ee5e 26be 905c ddbc 909e 5b3c e211 65bd
00000120: 959f 22bd 79c5 d6bc 7996 b23d 1425 9fbd
00000130: 79c5 00be a934 cfbc 15f5 81bd ba12 82be
00000140: c0db 43be 87ed 413f 884a debe fa64 e83e
00000150: 44ad db3d 71e3 26be 5839 debe 0456 aebd
00000160: 69d8 e23e 36a5 0f3d fe0a 74bf c638 873f
00000170: 0460 c73e 6e7a 583f f499 35bf aade 43bd
00000180: 7ad9 b13c 5201 47be 4a47 4dbd 3ff2 2b3c
00000190: 87d8 a2bc c000 93bc c61a b23d 5255 ae3c
000001a0: 3b36 01be 9b81 89bc 5921 363d c792 83bd
000001b0: e782 09be d0e3 6abd f084 dc3d 4659 46be
000001c0: 020c 3abd 9612 563b 7700 803d baae 40bd
000001d0: 10eb 98be c1e9 cd3e 82a3 373e eea4 a3bc
000001e0: 49fc b4bd e26c 603e 268c ae3e 4e46 133e
000001f0: 8477 93bd a6ab 83bc 5eb6 363f 61ad 34bf
00000200: 8eaa fa3e 52d4 2bbe 865e 1dbd d5cc a9bd
00000210: 323d 373f c3e9 23bf 5bf4 0c3f 56c0 29be
00000220: 42f6 dfbd 871d fe3c 954a 84bd ab96 a8bc
00000230: d72b babe d512 803e 53e9 05be 680d eb3c
00000240: e2d4 3dbd 02aa fabe 37df 213f 9646 18bf
00000250: ae86 c53c 48b9 86be e44a 5e3e dbf5 6a3d
00000260: 59d6 fc3d 3760 b93d b7c7 a03d 97e6 993d
00000270: 143a 44be 6f7f c03b 8ac6 7ebc 0fa8 913d
00000280: 81f1 a13c 8635 0b3e 2870 0ebe 1ddf e53d
00000290: c7b4 f4ba b5ed 0f3f 059e 1c3e c303 03bf
000002a0: 3082 1bbe d454 0b3e bffa f7bd 3f44 05bf
000002b0: 3db9 a93e 1343 42be a1ce 89be 0142 3c3e
000002c0: 53c9 e33a c114 f3be 8c40 063f 2437 943c
000002d0: b6a5 1d3d 3624 afbc 6385 043d 9d2c 3bbe
000002e0: 6763 fcbd 3558 76bd 405b 1e3d c6d1 77bd
000002f0: 7e5a 373d 6bf7 1dbe 0fd5 b8bd cee9 993d
00000300: 95ed 943d dcfa a83f 8bad 81bf 3ce6 c2be
00000310: c423 bf3e 2baf 66be df99 bb3c 42aa 623f
00000320: dfea e3be 1e8b 7a3e d9a0 103f 7598 afbe
00000330: 9b66 22bc 83e6 f83e d115 88be 5cba 913b
00000340: 2bbc 76bc bb26 0abd 5dbe 9e3e 39a6 45be
00000350: 1c17 5d3d 9348 61bb faef a33b abb2 133d
00000360: 2346 b33e 5733 37be 4fe9 dc3c 80f0 053b
00000370: f031 cabd 8afa d1bf 033f 533f a67b 083e
00000380: 266a a53e 5cec da3d e9f8 1cbe e88c e4bd
00000390: 4db9 c6bd 5c60 b6be cf0a 60be 2d6d 1ebf
000003a0: 29f3 49be fa71 9abe f8d2 203f 613d 88be
000003b0: 71fe 0d3e 3713 23be a2dc 08be c34b b4bd
000003c0: 4a2f 19bd d438 283d 4ce6 bfbd d20a 1cbd
000003d0: 5bba 10be dacf 1dbe 038c e93d a5c4 b73d
000003e0: 6663 03bd c98b 2a3d 61b0 ab3e 6e75 0d3e
000003f0: d11f 793d 0be2 f7bc 9884 0a3e 54af 733c

fc1.bias f4 [256]
-1.060556 -0.94130343 -0.9433468 -0.77038556 -1.4974983 -1.1343726 0.07882578 -0.3330633
-1.0116065 -0.68233466 0.008771309 -0.81414765 -0.86700916 -0.24360023 -0.8279683 -0.9521312
-0.25859094 -0.94931763 -0.6380389 -0.85385215 -1.0333868 -0.8051488 -0.863176 0.092843406
-1.0412465 0.4314784 -0.9330788 -0.5800021 -0.9132558 0.16620134 -0.14658546 0.53294545
-0.41328132 -1.2418987 -1.9457997 -1.1872972 -0.8942158 -1.2349968 -0.86752844 -1.18865
-1.046238 0.024151681 -1.1474532 -0.9528946 -1.0537472 0.83517987 0.07253739 0.9265004
-1.0483975 -0.9578117 -0.2386793 -0.92804015 -0.92750305 0.21996571 -0.07390496 -0.33163807
-0.26698008 -0.47244692 -0.6402351 -0.6181386 -0.60156864 -1.1688304 -0.11434648 -0.68687654
-0.16929577 -0.4128399 -1.7486073 -1.011888 0.826651 -1.1948341 -0.9576618 -1.1287888
-0.264374 0.07749784 -0.16084655 -0.8589085 -1.270744 -1.0610462 -1.0963707 -1.2931746
-0.7986615 -0.9767491 -0.41948718 -0.4824027 -1.659696 -0.97031397 -1.1738374 -0.35142338
-0.6696628 -1.0080718 -1.4521277 -1.1886711 -0.9715862 -0.3058825 0.53257465 -1.3811466
-1.1867669 -0.38259524 -0.89149815 -0.7842506 -1.1559259 -0.12876551 -0.26058355 -0.15005334
-0.1735842 -0.7074302 -0.46023065 -1.1832049 -0.6512854 -0.15746146 -1.0589257 -0.7193783
-0.8317899 -1.0943208 -1.843075 -0.8042914 -0.90239173 -0.5662428 0.3934123 -0.67253625
-0.423169 -0.4509468 0.06427397 -1.0412995 -1.0925459 -0.5931798 -0.68482786 -1.0373921
-1.1105967 -1.1882424 0.24747683 -0.98425466 -0.12378921 -0.7553977 -1.0100411 -0.8446855
-0.37481022 -0.61111295 -0.5227792 0.35242996 -0.7055223 -1.1848569 0.64345586 -0.71184355
-0.6715466 -0.18741412 0.37281516 -0.522448 0.47320333 -0.36615917 -0.25321326 -1.0978316
-1.323975 -0.91135246 -0.61099565 -0.66294247 -0.5738955 -0.96845573 -0.89955515 -0.14644516
-0.08872551 -0.80849224 -0.38308415 -0.72924244 -0.6214952 -0.6237455 -1.0521642 -0.6023872
-1.0566678 -0.61794126 -1.297515 -0.5257588 -0.89922184 -0.81994635 -0.31872138 -1.1093596
0.22592078 -0.9023713 -0.61140895 0.27210504 -0.25418258 -0.28135234 -0.70382106 -1.2604148
0.38900062 -0.48581663 -0.8999523 -1.1490693 -0.8425777 -1.0101613 -0.52233326 -0.7179049
-0.3295017 -1.1008142 -0.8484374 -0.7344426 -0.3095081 -1.0258414 -0.9485263 -0.92998916
-1.147199 -0.28138041 -0.1980602 0.50390714 -0.595539 -0.62137526 -0.57776135 -0.31735054
-0.92650634 -1.5848668 -0.3623505 0.47095925 -0.35738057 -1.4639686 -0.8252185 -0.17511351
-1.1369059 -0.78107035 0.40870816 -0.9733117 -0.89146376 -1.4545536 -1.0258706 -0.81967807
-0.8310007 0.7132075 -0.24179773 -0.32703185 -0.8219735 -1.0710529 -0.72619927 -0.17569871
-1.0405489 0.40211856 -0.620691 -0.81408554 -0.9317082 -0.6053875 -0.6401542 -1.3044297
-0.7397429 -1.0112642 -0.77155185 -0.060830828 -1.1767316 -0.88939494 -0.34818414 -0.6209294
0.16349442 -1.0714523 -1.1481078 -0.78211397 0.013268822 -0.90406895 -1.2283597 0.8994357
00000000: 4dc0 87bf 43f9 70bf 2d7f 71bf fd37 45bf
00000010: 06ae bfbf 1f33 91bf 696f a13d 4687 aabe
00000020: 527c 81bf 7cad 2ebf 89b5 0f3c fb6b 50bf
00000030: 50f4 5dbf 5772 79be bbf5 53bf dfbe 73bf
00000040: 0866 84be 7b06 73bf 8456 23bf 0e96 5abf
00000050: 0546 84bf 3b1e 4ebf 1af9 5cbf af24 be3d
00000060: 9147 85bf bdea dc3e 41de 6ebf 057b 14bf
00000070: 22cb 69bf af30 2a3e 801a 16be 1d6f 083f
00000080: 9c99 d3be 89f6 9ebf f70f f9bf 5bf9 97bf
00000090: 54eb 64bf 6014 9ebf 5816 5ebf af25 98bf
000000a0: 20eb 85bf bfd9 c53c bfdf 92bf e7f0 73bf
000000b0: 30e1 86bf 59ce 553f 7c8e 943d 212f 6d3f
000000c0: e431 86bf 2633 75bf 5968 74be 0a94 6dbf
000000d0: d770 6dbf b13e 613e 7c5b 97bd 77cc a9be
000000e0: 9db1 88be 90e4 f1be 73e6 23bf 553e 1ebf
000000f0: 6700 1abf 3c9c 95bf 7d2e eabd 24d7 2fbf
00000100: df5b 2dbe c05f d3be 5dd2 dfbf 8c85 81bf
00000110: 669f 533f 53f0 98bf 5329 75bf 277c 90bf
00000120: 075c 87be 30b7 9e3d f5b4 24be 6de1 5bbf
00000130: bda7 a2bf 5dd0 87bf e055 8cbf bf86 a5bf
00000140: 1475 4cbf 3b0c 7abf 06c7 d6be 7dfd f6be
00000150: eb70 d4bf 7f66 78bf 4e40 96bf c4ed b3be
00000160: 056f 2bbf 7f08 81bf 52df b9bf 6026 98bf
00000170: e0b9 78bf a29c 9cbe d056 083f 69c9 b0bf
00000180: fae7 97bf 86e3 c3be 3939 64bf a6c4 48bf
00000190: 61f5 93bf 1bdb 03be 356b 85be 95a7 19be
000001a0: 0ec0 31be 251a 35bf 5aa3 ebbe 4273 97bf
000001b0: a4ba 26bf 943d 21be e18a 87bf 2d29 38bf
000001c0: 2ff0 54bf b412 8cbf e2e9 ebbf 0be6 4dbf
000001d0: 2503 67bf 4af5 10bf 566d c93e 562b 2cbf
000001e0: 9ba9 d8be 80e2 e6be 12a2 833d 4d49 85bf
000001f0: 8bd8 8bbf a2da 17bf e150 2fbf 44c9 84bf
00000200: 0828 8ebf 5418 98bf 916a 7d3e 1df8 7bbf
00000210: 3385 fdbd be61 41bf 0749 81bf 4f3d 58bf
00000220: 20e7 bfbe e671 1cbf dcd4 05bf b371 b43e
00000230: 1c9d 34bf 64a9 97bf 86b9 243f 613b 36bf
00000240: 7aea 2bbf 7de9 3fbe a1e1 be3e 27bf 05bf
00000250: b547 f23e 3779 bbbe 2ba5 81be bf85 8cbf
00000260: 0378 a9bf 654e 69bf 366a 1cbf 99b6 29bf
00000270: d1ea 12bf b7ec 77bf 3f49 66bf b8f5 15be
00000280: b8b5 b5bd 59f9 4ebf 9b23 c4be a2af 3abf
00000290: 4f1a 1fbf c9ad 1fbf 51ad 86bf 0c36 1abf
000002a0: e440 87bf 6631 1ebf f914 a6bf 2198 06bf
000002b0: 6733 66bf 01e8 51bf 732f a3be 7fff 8dbf
000002c0: c757 673e ce01 67bf 4c85 1cbf 5a51 8b3e
000002d0: 3824 82be 6a0d 90be 9e2d 34bf 4655 a1bf
000002e0: 172b c73e f5bc f8be 4663 66bf b414 93bf
000002f0: 2cb3 57bf f74c 81bf a2b7 05bf 9ec8 37bf
00000300: 72b4 a8be 7be7 8cbf 3233 59bf 6e04 3cbf
00000310: d877 9ebe c54e 83bf 9fd2 72bf c513 6ebf
00000320: 6bd7 92bf 1811 90be 4bd0 4abe 0f00 013f
00000330: 3e75 18bf 7312 1fbf 2be8 13bf c57b a2be
00000340: 852f 6dbf eadc cabf 0186 b9be 9221 f13e
00000350: 96fa b6be 5363 bbbf 8541 53bf f550 33be
00000360: 2286 91bf 3af4 47bf 3242 d13e f52a 79bf
00000370: f836 64bf d02e babf ba4f 83bf 6cd6 51bf
00000380: 76bc 54bf c494 363f d399 77be b870 a7be
00000390: db6c 52bf 4318 89bf 32e8 39bf 5dea 33be
000003a0: b530 85bf 7ce2 cd3e 9be5 1ebf e967 50bf
000003b0: 6e84 6ebf adfa 1abf 25e1 23bf 8df7 a6bf
000003c0: ca5f 3dbf 1b71 81bf 6c84 45bf bf29 79bd
000003d0: 249f 96bf 63af 63bf 3145 b2be 3bf5 1ebf
000003e0: 156b 273e 5925 89bf 32f5 92bf 9f38 48bf
000003f0: 7965 593c 1071 67bf e43a 9dbf 6b41 663f

fc2.weight f4 [256, 256]
0.06754629 -0.10755081 -0.4962289 -0.8534695 -0.02977236 -0.046703935 0.10296372 0.180205
0.0970413 -0.46939766 -0.5557994 0.36693695 0.06814085 0.1831067 -0.4368566 0.4380886
0.059124388 0.03529894 0.27938598 -0.15267438 -0.17074975 0.0055067353 -0.03114886 -0.31430712
-0.45883593 -0.07564333 -0.038656663 -0.36906677 -0.7681447 -0.3391021 -0.1504511 -0.22818433
-0.38389227 0.22714943 0.8192973 -0.2248555 -0.20395908 0.1288942 -0.15197413 -0.26703528
0.05083193 -0.04479165 0.6733539 -0.03281178 -0.11606712 0.09362573 0.27608594 0.17965297
-0.087770574 0.09904826 0.1921877 -0.13262182 -0.47025555 0.26077715 -0.4707209 0.18793629
0.17769216 0.005077986 -0.61267585 -0.2649502 -0.324117 -0.1419303 -0.0045222677 -0.024985591
0.0076125157 -0.26893827 -0.13572457 -0.22080922 0.27638182 0.022921728 0.32845742 -0.4205492
0.3271779 0.07740748 -0.75560725 -0.23671935 0.003010897 -0.6516817 -0.37873262 -0.26114827
0.2277777 -0.09999438 0.00601725 0.3803574 0.30192965 -0.16656536 0.40049347 -0.31069794
-0.63535017 0.054839578 0.48809132 0.24534662 -0.47857055 0.07443377 -0.61384463 -0.36987054
-0.42794862 0.15857522 -0.221057 -0.04215534 -0.4700077 0.18268655 0.22131713 0.14754964
-0.41031072 0.15793921 -0.044230506 -1.9269302 0.21105702 -0.13171653 -0.6089356 -0.26726592
0.10046765 -0.42073503 -0.26538715 0.12385527 0.26049936 -0.12508748 0.27870744 -0.3799409
-0.13262664 -0.010516146 -0.21315914 -0.21357287 0.29835734 -0.010420166 0.0363083 -0.1423099
-0.0885665 -0.15472665 -0.079677776 0.4245491 0.12873691 0.26429182 0.0026733344 -0.24967757
-0.03735879 0.38318288 0.000104223895 -0.45737576 -0.052042857 0.1328581 0.13632499 0.19006027
-0.10520664 -0.24135232 -0.2398703 0.07401748 0.1845612 0.16246712 0.051235273 -0.16939582
0.3353007 0.11754136 -0.43236858 -0.5276429 -0.039973136 0.13489673 -0.836086 0.038032055
-0.45093212 -0.30864787 0.27812755 0.092583135 -0.06056695 -0.08898373 0.2332131 0.012162627
-0.067771055 -0.25093716 1.2348161 0.068099916 -0.052325275 0.11680523 0.42895976 -0.18452112
0.22514917 0.46135515 0.313897 0.2910031 0.24286911 -0.44315425 -0.3947364 -0.23701137
0.011845243 0.18242244 -0.34277174 -0.28610116 0.3091442 -0.35678288 0.024357727 -0.46276474
0.2754154 0.20096627 -0.07606792 0.15851335 -0.17047068 -0.26410672 0.3032169 -0.06743778
0.28878537 0.38035935 -0.10797644 0.1524662 0.030964157 0.34352365 -0.19646078 0.22654657
0.38070902 0.0022625688 -0.028898405 0.09533177 0.20901687 0.23190653 -0.366452 0.37354875
0.0199816 0.17835726 0.32094595 -0.6536827 0.12020942 -0.2026006 0.113036826 -0.0188965
-0.7325905 0.12982741 -0.069618516 0.41143063 -0.15133646 -0.021511674 0.013611777 0.24531353
0.11124664 0.22139387 -0.4677398 -0.5092046 -0.009102001 -0.061182983 0.022388702 0.050682083
0.23086782 -0.28550443 0.1341064 -0.09728549 0.19299056 0.3353564 -0.4118513 -0.2718404
-0.15456297 -0.09242873 0.28631768 -0.17692994 0.20391867 -0.28656885 -0.23043755 0.15386046
00000000: b655 8a3d 9943 dcbd b711 febe fa7c 5abf
00000010: 2ae5 f3bc a04c 3fbd a5de d23d a987 383e
00000020: 97bd c63d e454 f0be df48 0ebf 29df bb3e
00000030: 6e8d 8b3d 5380 3b3e abab dfbe 264d e03e
00000040: 6a2c 723d 9f95 103d ae0b 8f3e ac56 1cbe
00000050: 06d9 2ebe d871 b43b e52b ffbc ddec a0be
00000060: 8bec eabe e4ea 9abd 7356 1ebd 52f6 bcbe
00000070: 22a5 44bf ca9e adbe da0f 1abe 27a9 69be
00000080: 878d c4be dc99 683e 78bd 513f 8540 66be
00000090: a6da 50be d7fc 033e 1b9f 1bbe d9b8 88be
000000a0: 2435 503d 7377 37bd ec60 2c3f a565 06bd
000000b0: 99b4 edbd d9be bf3d 235b 8d3e f3f6 373e
000000c0: 0fc1 b3bd d0d9 ca3d dacc 443e 04ce 07be
000000d0: 56c5 f0be 9584 853e 5402 f1be 5f72 403e
000000e0: eff4 353e 3c65 a63b 53d8 1cbf 8da7 87be
000000f0: aaf2 a5be 2d56 11be 882f 94bb 95ae ccbc
00000100: 6972 f93b 47b2 89be 62fb 0abe d01b 62be
00000110: eb81 8d3e 59c6 bb3c 922b a83e 3a52 d7be
00000120: dd83 a73e d087 9e3d 7a6f 41bf 8f66 72be
00000130: 7852 453b 9dd4 26bf 3ee9 c1be 3ab5 85be
00000140: 8f3e 693e dac9 ccbd 5a2c c53b 35be c23e
00000150: 8696 9a3e 1c90 2abe 7b0d cd3e cd13 9fbe
00000160: 4fa6 22bf 779f 603d 1be7 f93e 253c 7b3e
00000170: 3307 f5be bb70 983d ec24 1dbf ac5f bdbe
00000180: 151c dbbe 8b61 223e c45c 62be 14ab 2cbd
00000190: d9a4 f0be 2f12 3b3e f5a0 623e 4117 173e
000001a0: 3f14 d2be d1ba 213e 0c2b 35bd a6a5 f6bf
000001b0: 551f 583e b3e0 06be 34e3 1bbf 14d7 88be
000001c0: fcc1 cd3d 956a d7be d3e0 87be d5a7 fd3d
000001d0: 2c60 853e ef16 00be beb2 8e3e 9d87 c2be
000001e0: 47cf 07be ea4b 2cbc 6446 5abe d9b2 5abe
000001f0: 4bc2 983e 58b9 2abc 03b8 143d b0b9 11be
00000200: 5a62 b5bd aa70 1ebe 1a2e a3bd 805e d93e
00000210: 9cd3 033e 4251 873e 1c33 2f3b 7aab 7fbe
00000220: 8805 19bd 8c30 c43e c792 da38 282d eabe
00000230: e42a 55bd f40b 083e c798 0b3e 299f 423e
00000240: 9476 d7bd 1025 77be 8fa0 75be 7a96 973d
00000250: 9cfd 3c3e c85d 263e 14dc 513d 1976 2dbe
00000260: 89ac ab3e 86b9 f03d 6a5f ddbe 9b13 07bf
00000270: dfba 23bd 5e22 0a3e bb09 56bf 80c7 1b3d
00000280: 93e0 e6be 1807 9ebe bc66 8e3e 3a9c bd3d
00000290: 0d15 78bd 1a3d b6bd 6acf 6e3e c145 473c
000002a0: 8dcb 8abd d67a 80be 740e 9e3f f877 8b3d
000002b0: 0753 56bd 9537 ef3d 9da0 db3e 1bf3 3cbe
000002c0: 818d 663e be36 ec3e 1cb7 a03e 5cfe 943e
000002d0: aeb2 783e 1de5 e2be e41a cabe 1cb3 72be
000002e0: 8d12 423c f3cc 3a3e c77f afbe da7b 92be
000002f0: 2648 9e3e 3fac b6be db89 c73c 80ef ecbe
00000300: 3f03 8d3e 1aca 4d3e 7fc9 9bbd 5351 223e
00000310: de8f 2ebe ff38 87be 3f3f 9b3e d21c 8abd
00000320: addb 933e 76be c23e c022 ddbd 1920 1c3e
00000330: 8ba8 fd3c 55e2 af3e 042d 49be d3fb 673e
00000340: 4bec c23e 9b47 143b 59bc ecbc 4e3d c33d
00000350: 8508 563e e878 6d3e 999f bbbe c841 bf3e
00000360: 74b0 a33c 49a3 363e 0753 a43e c057 27bf
00000370: 5b30 f63d 8876 4fbe da7f e73d d5cc 9abc
00000380: 0d8b 3bbf 7af1 043e 2794 8ebd 09a7 d23e
00000390: f2f7 1abe 4039 b0bc ee03 5f3c 7833 7b3e
000003a0: 47d5 e33d 13b5 623e 977b efbe 3c5b 02bf
000003b0: 8f20 15bc 029b 7abd 8368 b73c 0498 4f3d
000003c0: 9d68 6c3e a32d 92be 3053 093e 9d3d c7bd
000003d0: 519f 453e d6b3 ab3e 2cde d2be aa2e 8bbe
000003e0: c145 1ebe 464b bdbd 3b98 923e 1f2d 35be
000003f0: 0ed0 503e 27b9 92be d2f7 6bbe 998d 1d3e

fc2.bias f4 [256]
0.5328848 -0.131376 -0.055741098 0.12804645 1.0486658 -0.36503488 0.38035777 -0.33427328
0.16845945 0.2357256 -0.039842393 -0.5780736 0.30417246 0.4206965 0.11994376 -0.08155358
-0.8403847 0.48596975 -0.3387182 0.28884634 0.22738074 0.22918464 -0.020111928 0.18588513
0.29423505 0.28926972 -0.09612555 -0.052122805 -0.55746144 0.876529 -0.29608133 -0.68272966
-0.1840796 0.11184585 0.19461599 -0.038632937 -0.30564442 0.07939958 0.026053607 0.0038185942
0.43449065 -0.41181922 -0.004883276 0.48451024 0.94428015 -0.17365149 -0.3592019 0.6139429
-0.096609056 -0.4710373 -0.041700546 0.34054232 -0.9056259 0.34571868 -0.07884463 -0.23392542
0.297753 0.34765005 0.49768928 0.11256462 -1.1680883 -0.29460502 0.45951015 -0.11987746
-0.10333594 -0.51926315 0.5470689 1.1108272 0.34771347 0.5282066 -0.032115337 0.15177017
-0.59555155 0.5205973 -0.4481923 0.24786645 0.39095965 0.22886512 -0.25042087 -0.35282728
-0.103299424 -0.38413116 -0.07681474 -0.011351947 -0.016609037 0.19895336 -1.2316763 0.105826244
-0.8048606 -0.23839676 -1.1989664 0.022110848 -0.07387571 0.25946447 -0.60814196 0.35326958
-0.06806257 -0.045798995 -0.050230693 0.2902851 -0.7639064 0.053316176 -0.45185405 -0.72229815
0.16610765 -0.18132769 -0.29175663 0.0019092304 0.44331518 -0.114300475 0.00012381158 0.11749208
-0.062070362 0.021583805 -0.23256296 -0.13165332 0.09274244 -0.26684955 0.07841519 -0.026209965
0.13664597 -0.025194371 -0.042030957 -0.18203203 0.21346131 0.2995801 -0.4553609 0.25570422
0.41107076 -0.083539 -0.08682474 -0.31954655 -0.26428264 -0.0335291 0.07304116 0.37226075
-0.3400178 0.2878129 -0.32218853 0.33305717 -0.07235118 -0.19711193 -0.056638155 -0.33510178
-0.035501916 -0.29082903 -0.00575642 -1.1652446 0.40926644 -0.5424609 -0.09561286 -0.11111065
0.5561894 -0.8254521 -0.12987529 -0.049150895 -1.3017737 0.48720244 0.34882793 -0.17881928
-0.066008486 -0.8343 -1.0552651 0.3239095 -0.011712974 0.0065997555 0.3279232 -0.38902768
0.6542409 -0.21319973 0.3054868 0.2864867 -0.024457946 0.041678846 -0.073853314 0.057920035
0.11167639 -0.008746637 -0.09179298 -0.17726408 0.011840794 0.24455568 0.04328754 -0.036639027
-0.06523356 -0.060110882 0.05025525 0.30599588 -0.45455372 -0.02975432 -0.07627304 0.074964955
-0.24086376 -0.043404356 -0.22919634 0.17281368 -0.7238491 -0.6556582 -0.08332962 -0.08245034
-0.1128677 0.37687856 -0.30182847 -0.063396275 0.036623593 -0.04769639 -0.07747483 0.64511204
-0.021238731 0.12153372 -0.015735906 -0.792602 -0.37446997 0.045803767 0.4672313 -0.0032854408
0.08147919 0.6396857 0.05965693 -0.4114459 -0.24400513 -0.6164087 0.19193219 -0.0113624465
0.10269007 0.40293735 0.25976875 0.40516216 0.035680994 -0.017907228 0.4244706 0.47895306
0.4734663 -0.0262414 0.09285962 -0.31095538 0.5723802 0.34276825 -0.10902388 -0.14764883
0.20488761 0.10285084 0.44315076 -0.071373224 -0.023113534 -0.28322068 -0.6802897 0.22550218
-0.085102126 0.23959744 -0.27220035 0.31593105 -0.093519226 0.7595759 -0.11673084 -0.052551474
00000000: 236b 083f 6e87 06be c750 64bd 9c1e 033e
00000010: ae3a 863f dae5 babe 41be c23e de25 abbe
00000020: a280 2c3e 0d62 713e c731 23bd a2fc 13bf
00000030: 7ebc 9b3e 8865 d73e 13a5 f53d 9005 a7bd
00000040: 7423 57bf 07d1 f83e 796c adbe abe3 933e
00000050: 7fd6 683e 61af 6a3e c5c1 a4bc ac58 3e3e
00000060: faa5 963e 291b 943e 79dd c4bd b97e 55bd
00000070: cbb5 0ebf 3464 603f f997 97be 5fc7 2ebf
00000080: 5d7f 3cbe 700f e53d 6a49 473e 923d 1ebd
00000090: 6d7d 9cbe 3f9c a23d 606e d53c 6141 7a3b
000000a0: 8f75 de3e f8d9 d2be e303 a0bb ba11 f83e
000000b0: 58bc 713f b2d1 31be 50e9 b7be 5d2b 1d3f
000000c0: f8da c5bd cd2b f1be 31ce 2abd 905b ae3e
000000d0: 19d7 67bf 0a02 b13e 4b79 a1bd 258a 6fbe
000000e0: 1573 983e 30ff b13e 21d1 fe3e 4888 e63d
000000f0: eb83 95bf 78d6 96be ea44 eb3e 5082 f5bd
00000100: cba1 d3bd 6eee 04bf b50c 0c3f 962f 8e3f
00000110: 8007 b23e 8c38 073f 5f8b 03bd a469 1b3e
00000120: 1176 18bf dd45 053f 7679 e5be b4d0 7d3e
00000130: dd2b c83e 9e5b 6a3e 2a37 80be c7a5 b4be
00000140: a68e d3bd d7ac c4be 0c51 9dbd 84fd 39bc
00000150: ad0f 88bc 6eba 4b3e 92a7 9dbf 6ebb d83d
00000160: 580b 4ebf 481e 74be bb77 99bf cf21 b53c
00000170: 264c 97bd 87d8 843e 31af 1bbf c0df b43e
00000180: 6464 8bbd ba97 3bbd b3be 4dbd 40a0 943e
00000190: 5f8f 43bf 1062 5a3d 6a59 e7be 88e8 38bf
000001a0: 2018 2a3e f7ad 39be 2061 95be 243f fa3a
000001b0: 35fa e23e 5e16 eabd 6bd3 0139 b09f f03d
000001c0: 7e3d 7ebd 85d0 b03c fc24 6ebe 21d0 06be
000001d0: c0ef bd3d 81a0 88be 2598 a03d 48b6 d6bc
000001e0: ecec 0b3e 6d64 cebc a728 2cbd 9b66 3abe
000001f0: 9a95 5a3e 9062 993e 1025 e9be aaeb 823e
00000200: de77 d23e 7f16 abbd 2bd1 b1bd 9b9b a3be
00000210: 0e50 87be cf55 09bd 9b96 953d f698 be3e
00000220: d016 aebe 365c 933e e5f5 a4be 7886 aa3e
00000230: db2c 94bd b6d7 49be 69fd 67bd 7692 abbe
00000240: 756a 11bd 8be7 94be 5aa0 bcbb bc26 95bf
00000250: 5f8b d13e b8de 0abf add0 c3bd fb8d e3bd
00000260: 6e62 0e3f d450 53bf 07fe 04be 7352 49bd
00000270: 85a0 a6bf 9972 f93e 9399 b23e 671c 37be
00000280: 752f 87bd af94 55bf ed12 87bf 77d7 a53e
00000290: c6e7 3fbc c342 d83b 8de5 a73e a32e c7be
000002a0: 557c 273f 0851 5abe c468 9c3e 62ae 923e
000002b0: 085c c8bc 70b7 2a3d 6840 97bd 8f3d 6d3d
000002c0: 97b6 e43d 0e4e 0fbc f5fd bbbd b784 35be
000002d0: e4ff 413c ce6c 7a3e 474e 313d ce12 16bd
000002e0: 2c99 85bd d436 76bd 73d8 4d3d 7eab 9c3e
000002f0: 44bb e8be 55bf f3bc 0a35 9cbd 3a87 993d
00000300: fda4 76be c4c8 31bd 72b2 6abe 12f6 303e
00000310: 2d4e 39bf 37d9 27bf b8a8 aabd b9db a8bd
00000320: 2e27 e7bd 3af6 c03e 4389 9abe e8d5 81bd
00000330: 9f02 163d 4a5d 43bd 20ab 9ebd 1026 253f
00000340: d9fc adbc ace6 f83d 96e8 80bc f7e7 4abf
00000350: 87ba bfbe bb9c 3b3d f138 ef3e 8d50 57bb
00000360: 90de a63d 71c2 233f d35a 743d 09a9 d2be
00000370: 7bdc 79be f6cc 1dbf df89 443e 8e29 3abc
00000380: 2c4f d23d ce4d ce3e 6900 853e 6a71 cf3e
00000390: 3c26 123d 2eb2 92bc 3654 d93e 5639 f53e
000003a0: 2d6a f23e 34f8 d6bc 2f2d be3d 8b35 9fbe
000003b0: 8287 123f 527f af3e e947 dfbd 4131 17be
000003c0: 0fce 513e 76a3 d23d a8e4 e23e 202c 92bd
000003d0: 9858 bdbc 4d02 91be 7727 2ebf 0bea 663e
000003e0: 064a aebd 0859 753e d85d 8bbe b7c1 a13e
000003f0: 0287 bfbd 9173 423f 9410 efbd 3740 57bd

fc3.weight f4 [256, 256]
0.09019605 -0.51370984 -0.03161454 0.39479893 -0.6229931 -0.15673159 -0.2074645 -0.11935795
-0.37590915 0.13008654 -0.33511782 -0.18054019 -0.31199142 -1.3228581 -0.085219935 -0.21324567
0.14457022 -0.411228 -0.2581353 0.14785843 -0.0065274322 0.16639172 -0.048251443 0.1930782
0.14537919 0.5055167 -0.036554728 0.06919031 -0.61562294 -1.7737749 -0.008769173 -0.68120164
0.3164283 -0.1733735 0.062478766 0.055558983 0.13820614 0.1436316 -0.3913817 0.008694998
-0.30941516 -0.22408234 0.044995215 -0.3355245 0.40525872 -0.10344121 -0.19622083 -0.07400137
-0.16640307 0.11579849 0.2859148 -0.05226457 -1.4469849 -0.0346042 0.40653065 -0.19029881
0.05947676 0.08715569 -0.35422868 -0.47551715 -0.68979865 -0.12071497 -0.6878534 -0.33979982
0.05673625 -0.28612736 0.17013876 0.24461201 -0.0019704076 -0.22946607 0.048744638 -0.018770417
-0.1304589 -0.45278078 -0.20893757 -0.77428657 -0.20064846 -0.7790937 -0.2870875 0.073584504
0.08582144 -0.52754545 -0.023750767 -0.020246102 -0.0053847255 -0.40618718 -0.28629094 -0.06934044
-0.07437288 -0.8099123 -0.5181682 0.022967376 -0.20888638 -0.7172043 0.31397665 0.20072404
-0.14866456 -0.20438132 -0.0016557681 -0.5306636 -0.37830222 -0.053092282 0.2509821 -0.68019605
-0.29637384 0.3790848 -0.11240688 -0.5593322 -0.65531003 -0.057834312 0.043160703 0.13509575
0.01408455 -0.4351744 -0.0064435843 0.14032365 0.13586749 0.19753653 -0.4397235 -0.016176257
-0.5374269 -0.1693212 0.08314688 -0.46775028 -0.07677851 0.22904786 -0.33722636 0.1432262
0.002731696 -0.15831243 0.022565154 -0.038755495 -0.64436543 -0.3281662 0.05471451 -0.48119038
-0.20824426 0.14642668 -0.029275676 -0.44874135 -1.3965878 -0.2689175 0.35602993 -0.5678952
-0.40784988 -0.0954457 0.013543608 0.041159414 -0.32898954 -0.2522548 -0.07416312 0.07914814
-0.53633696 -0.20240533 -0.31378224 -0.5201815 -0.10867334 -0.46072027 0.19659816 -0.25729194
-0.045542974 -0.65298676 -0.070540234 0.4341888 0.015499795 -0.09608414 0.05316668 -0.26364157
0.061147112 -0.2990001 0.18683065 0.0886973 0.04966088 0.1824157 -0.12990169 -0.014078138
0.13246463 -0.053252146 0.37872985 -0.12815431 0.06091215 0.22107199 -0.7656838 -0.13027021
0.5889904 -0.28674793 0.036654256 0.23233251 -0.13321528 -0.008590077 -0.41961604 0.017829811
0.14049862 0.0353553 -0.12890327 0.15809663 0.22545183 -0.28513855 0.012243635 0.05647347
-0.35543278 -0.14142695 -0.3653382 0.036424473 -0.009860726 -0.57745063 0.0058969837 -0.5865524
0.06272145 0.020592025 0.0010155932 0.16825971 -0.94303775 0.039684303 -0.12465657 -0.16526169
-0.8057248 -0.08228788 -0.43302393 0.32882532 -0.19947138 -0.7363677 -0.24856552 -0.080690645
-0.64600194 -0.4814104 -0.24616122 0.15610118 -0.021367794 -0.85964376 0.30788732 0.45630732
0.11061911 0.22268827 0.296423 -0.2820478 -0.04041934 0.3014931 -0.18384601 -0.046739813
0.008101385 -0.89340764 0.2121317 -0.038845684 -0.16961579 -0.2700496 -0.14567773 0.16429918
-0.04271145 0.23706678 0.23801446 -0.5759412 0.13537753 -3.299988 -0.5336981 -0.10002914
00000000: b5b8 b83d 7d82 03bf 3f7e 01bd 1623 ca3e
00000010: 7a7c 1fbf 3f7e 20be 9371 54be f171 f4bd
00000020: 2a77 c0be 6835 053e 9094 abbe 87df 38be
00000030: 57bd 9fbe 6a53 a9bf ca87 aebd 135d 5abe
00000040: 370a 143e 7a8c d2be 4f2a 84be 3368 173e
00000050: 12e4 d5bb 9762 2a3e 4ea3 45bd 4bb6 453e
00000060: 48de 143e 8b69 013f 69ba 15bd a6b3 8d3d
00000070: 7799 1dbf 0e0b e3bf 94ac 0fbc 3b63 2ebf
00000080: e402 a23e d388 31be bce9 7f3d d191 633d
00000090: e985 0d3e 2a14 133e 2f63 c8be 7775 0e3c
000000a0: aa6b 9ebe d775 65be e74c 383d dec9 abbe
000000b0: 127e cf3e fcd8 d3bd 1dee 48be 088e 97bd
000000c0: 9165 2abe c227 ed3d 6d63 923e 6013 56bd
000000d0: cd36 b9bf 22bd 0dbd c924 d03e b1dd 42be
000000e0: e79d 733d af7e b23d 765d b5be fc76 f3be
000000f0: a596 30bf 6939 f7bd 2917 30bf 3efa adbe
00000100: 4564 683d 497f 92be db38 2e3e 927b 7a3e
00000110: f421 01bb 27f9 6abe 75a8 473d 6bc4 99bc
00000120: 0597 05be e2d2 e7be bbf3 55be a537 46bf
00000130: ca76 4dbe af72 47bf 22fd 92be 79b3 963d
00000140: 27c3 af3d 380d 07bf f890 c2bc 27db a5bc
00000150: 5a72 b0bb c4f7 cfbe ba94 92be 5c02 8ebd
00000160: cf50 98bd 6a56 4fbf aca6 04bf 1426 bc3c
00000170: 50e6 55be b39a 37bf 8cc1 a03e 9a8a 4d3e
00000180: 863b 18be 5649 51be 5c06 d9ba 92d9 07bf
00000190: d4b0 c1be 4b77 59bd ba80 803e 5421 2ebf
000001a0: 50be 97be 6717 c23e 9435 e6bd 6530 0fbf
000001b0: 66c2 27bf ace3 6cbd 47c9 303d 8a56 0a3e
000001c0: e2c2 663c 2ecf debe b424 d3bb 01b1 0f3e
000001d0: d920 0b3e 0447 4a3e 7023 e1be 1284 84bc
000001e0: cf94 09bf 8962 2dbe e948 aa3d f77c efbe
000001f0: 0d3e 9dbd 868b 6a3e efa8 acbe e4a9 123e
00000200: 4106 333b a71c 22be 8fda b83c 15be 1ebd
00000210: 22f5 24bf 6605 a8be 521c 603d 965e f6be
00000220: fc3d 55be e0f0 153e 8bd3 efbc 6dc1 e5be
00000230: 64c3 b2bf 8eaf 89be 8e49 b63e 9461 11bf
00000240: b3d1 d0be 0979 c3bd 02e6 5d3c c696 283d
00000250: 5171 a8be 8b27 81be d5e2 97bd 6c18 a23d
00000260: 614d 09bf 5843 4fbe 11a8 a0be 9d2a 05bf
00000270: 2190 debd 87e3 ebbe 0751 493e c5bb 83be
00000280: 458b 3abd 242a 27bf 6677 90bd ff4d de3e
00000290: daf2 7d3c c3c7 c4bd 4ec5 593d 07fc 86be
000002a0: 6575 7a3d 8b16 99be 8950 3f3e eea6 b53d
000002b0: 3569 4b3d 2ecb 3a3e f304 05be fea7 66bc
000002c0: cfa4 073e ec1e 5abd e1e8 c13e e23a 03be
000002d0: 057f 793d b260 623e db03 44bf 8e65 05be
000002e0: 13c8 163f a0d0 92be c622 163d 93e8 6d3e
000002f0: 9669 08be 65bd 0cbc ead7 d6be d30f 923c
00000300: dfde 0f3e b8d0 103d 38ff 03be 15e4 213e
00000310: d8dc 663e aefd 91be 8799 483c ba50 673d
00000320: 49fb b5be 3ad2 10be 9c0d bbbe d431 153d
00000330: e28e 21bc ced3 13bf 7c3b c13b 4c28 16bf
00000340: 1b74 803d 9bb0 a83c a71d 853a 464c 2c3e
00000350: ec6a 71bf 028c 223d f24b ffbd 5c3a 29be
00000360: fb43 4ebf 8c86 a8bd 50b5 ddbe cb5b a83e
00000370: 3a42 4cbe 9882 3cbf f687 7ebe 2341 a5bd
00000380: 6260 25bf 6d7b f6be b011 7cbe fdd8 1f3e
00000390: 830b afbc 9d11 5cbf 68a3 9d3e 1da1 e93e
000003a0: 468c e23d 6508 643e c1c4 973e 9268 90be
000003b0: c08e 25bd 4e5d 9a3e 2142 3cbe 3f72 3fbd
000003c0: acbb 043c 5db6 64bf 0d39 593e a71c 1fbd
000003d0: c3af 2dbe f143 8abe 8b2c 15be 0b3e 283e
000003e0: 34f2 2ebd a2c1 723e 10ba 733e e270 13bf
000003f0: 68a0 0a3e 0133 53c0 70a0 08bf 14dc ccbd

fc3.bias f4 [256]
-0.22498097 -0.2663801 -0.3100492 -0.24163437 -0.1811888 -0.24533263 0.018112823 -0.020704206
-0.47774306 -0.43490207 -0.1849958 -0.26611644 -0.15424491 0.5306154 -0.4040009 0.31898096
-0.1247034 -0.4761588 -0.10698288 -0.23677045 -0.7839562 0.021627804 0.040441796 -0.1862042
0.16091926 -0.80938625 0.14691511 -0.40770346 -0.41241246 -0.05260846 -0.18105905 -0.49896935
0.14337623 -0.4082159 0.49699488 0.3036547 -0.26493382 -0.156754 0.9078944 -0.12241462
0.29916072 -0.1002297 -0.22543633 0.09655722 0.21232729 -0.41774434 -0.06965385 -0.2734453
0.055611763 0.2343654 -0.6170217 -0.16097645 0.042824972 0.22627184 0.111771196 -0.34773836
-0.053476963 -0.25904408 -0.020337239 0.39939398 -0.21559213 -0.22888061 0.18337046 -0.062166706
-0.4564385 0.4481443 -0.06784251 -0.25025365 -0.18502335 -0.3503745 0.23240396 -0.15241447
-0.26969975 -0.16329084 -0.36339822 -0.18151562 0.5582383 -0.42155468 -0.009886688 -0.12632686
-0.10773646 0.12764919 -0.19355641 -0.13075031 -0.18916997 0.037841775 -0.23543452 0.07409766
-0.32748625 -0.3788914 0.5398384 -0.32490626 -0.2033118 0.17664273 -0.23116776 -0.6978924
0.16180919 0.08997546 -0.16931202 -0.11909469 -0.22665997 -0.8991179 -0.12400279 0.17314094
-0.14645535 -0.17629686 0.12370037 -0.13515408 -0.11015162 0.7107681 -0.28287783 -0.111941226
0.25446638 -0.5262921 -0.045625865 0.39482293 -0.18559884 0.09538822 0.6448038 -0.23303969
-0.2047862 -0.2030496 -0.2888211 -0.09321396 0.1687696 -0.20782194 0.27835077 -0.17584564
-0.20957518 -0.15924609 -0.013322942 -0.1794222 -0.22249413 0.3010019 -0.21698546 -0.025563542
-0.015678521 -0.21031347 0.52122307 0.107660785 0.4430836 -0.20094095 -0.015937215 -0.15052007
-0.060830615 0.0017024094 -0.13212536 0.10481135 -0.3111606 -0.075100355 -0.023927486 -0.1922237
-0.015652783 0.30296454 -0.03787582 -0.0073517137 0.4428591 -0.01079794 -0.1964298 -0.22015518
0.22921911 -0.4234924 0.19312134 -0.3560681 -0.34864902 0.21702321 -0.16549216 0.3551279
-0.23421738 0.11889376 0.041423164 0.04284081 -0.2511391 -0.19571118 0.2288353 -0.16462357
-0.28643888 -0.17390032 -0.13183983 -0.68495715 0.16113317 0.07687433 -0.3841098 -0.05989026
0.4334763 -0.62514246 -0.53445137 0.026720064 -0.22063741 0.014571371 -0.57753974 -0.20988637
-0.3070675 -0.46823844 -0.29821694 -0.029239204 0.08744362 -0.11496581 -0.3067032 -0.2695852
-0.33944848 -0.014351286 0.024581632 -0.40417624 -0.19843525 0.25996682 0.2942138 -0.28378427
-0.27087876 -0.2272494 0.19781919 0.5159631 0.28662315 0.14715114 0.12496247 0.14488287
0.06004703 -0.3632598 -0.40238243 -0.28056085 0.006190141 -0.2316392 0.45142195 -0.47119415
-0.14861956 -0.4666103 0.15089849 -0.94098234 0.0075820214 -0.35602632 0.22011426 -0.4209086
-0.22258967 -0.012583242 -0.23631927 -0.097100146 -0.18026543 -0.17742693 -0.09567792 -0.13816041
-0.4038938 -0.15841095 -0.18340577 -0.22530563 -0.0704168 -0.009235521 0.17197408 -0.15783493
0.19322762 -0.14286618 0.34227133 -0.4394863 0.048865836 0.41027257 -0.49915227 0.2270562
00000000: 6961 66be f962 88be c5be 9ebe 006f 77be
00000010: 8f89 39be 7a38 7bbe 5861 943c de9b a9bc
00000020: bd9a f4be 7cab debe 8a6f 3dbe 6a40 88be
00000030: 61f2 1dbe 69d6 073f 35d9 cebe 7951 a33e
00000040: 7f64 ffbd 16cb f3be d719 dbbd f473 72be
00000050: 5bb1 48bf cb2c b13c 4ca6 253d 50ac 3ebe
00000060: 05c8 243e f033 4fbf ea70 163e 82be d0be
00000070: ba27 d3be f87b 57bd 8b67 39be e978 ffbe
00000080: 38d1 123e ad01 d1be 1d76 fe3e a178 9b3e
00000090: 68a5 87be 1f84 20be c46b 683f 84b4 fabd
000000a0: 982b 993e 3b45 cdbd c8d8 66be cbbf c53d
000000b0: 536c 593e 96e2 d5be ada6 8ebd 0601 8cbe
000000c0: 29c9 633d 7cfd 6f3e 22f5 1dbf 03d7 24be
000000d0: 3d69 2f3d ceb3 673e 4ce8 e43d c30a b2be
000000e0: a90a 5bbd 6da1 84be 489a a6bc 5e7d cc3e
000000f0: 2fc4 5cbe ae5f 6abe 77c5 3b3e 84a2 7ebd
00000100: 4fb2 e9be 2b73 e53e 04f1 8abd 3f21 80be
00000110: c376 3dbe 4964 b3be 4efb 6d3e 8a12 1cbe
00000120: 1616 8abe b735 27be 550f babe 3bdf 39be
00000130: b5e8 0e3f 04d6 d7be c6fb 21bc d45b 01be
00000140: efa4 dcbd 78b6 023e a733 46be 69e3 05be
00000150: c6b5 41be faff 1a3d bf15 71be 84c0 973d
00000160: 47ac a7be 0efe c1be d932 0a3f 1d5a a6be
00000170: f830 50be d5e1 343e 3eb7 6cbe 14a9 32bf
00000180: 4fb1 253e 0e45 b83d 2160 2dbe ebe7 f3bd
00000190: 8d19 68be 972c 66bf 2df5 fdbd dc4b 313e
000001a0: 64f8 15be 2a87 34be 9f56 fd3d d565 0abe
000001b0: 2c97 e1bd e6f4 353f 5dd5 90be 7141 e5bd
000001c0: 6b49 823e 14bb 06bf 30e2 3abd 3b26 ca3e
000001d0: 9f0d 3ebe e65a c33d dd11 253f f5a1 6ebe
000001e0: 79b3 51be 3cec 4fbe 5ce0 93be f6e6 bebd
000001f0: f0d1 2c3e 46cf 54be fe83 8e3e e110 34be
00000200: e09a 56be 6811 23be 7848 5abc 74ba 37be
00000210: 80d5 63be ec1c 9a3e 7031 5ebe a26a d1bc
00000220: 3e70 80bc 6a5c 57be e06e 053f 427d dc3d
00000230: dbdb e23e 77c3 4dbe c38e 82bc ef21 1abe
00000240: 8629 79bd 6123 df3a df4b 07be 55a7 d63d
00000250: 7150 9fbe 37ce 99bd 9303 c4bc 4ad6 44be
00000260: 443a 80bc 2b1e 9b3e ad23 1bbd a5e6 f0bb
00000270: 6ebe e23e d8e9 30bc e524 49be 5c70 61be
00000280: 6ab8 6a3e ffd3 d8be 9ac1 453e 8f4e b6be
00000290: 2082 b2be 553b 5e3e c776 29be 53d3 b53e
000002a0: aed6 6fbe 927e f33d 56ab 293d d879 2f3d
000002b0: 4e95 80be 8368 48be cd53 6a3e 1593 28be
000002c0: 1ea8 92be ed12 32be 0501 07be 5a59 2fbf
000002d0: 1800 253e 4a70 9d3d 0aaa c4be 7d4f 75bd
000002e0: 9bf0 dd3e 5609 20bf ced1 08bf 09e4 da3c
000002f0: c6ee 61be c2bc 6e3c a5d9 13bf 74ec 56be
00000300: f437 9dbe f3bc efbe e4af 98be 0e87 efbc
00000310: a415 b33d 3273 ebbd 3408 9dbe 1207 8abe
00000320: 31cc adbe a821 6bbc 6b5f c93c 30f0 cebe
00000330: 9c32 4bbe 5f1a 853e 31a3 963e 2c4c 91be
00000340: 9fb0 8abe 11b4 68be 1d91 4a3e 2816 043f
00000350: 45c0 923e caae 163e 53ec ff3d 2d5c 143e
00000360: e0f3 753d 30fd b9be 1205 cebe aca5 8fbe
00000370: abd6 ca3b d432 6dbe c720 e73e 5c40 f1be
00000380: ba2f 18be 8ce7 eebe 2285 1a3e 38e4 70bf
00000390: 9b72 f83b 1549 b6be a265 613e 5581 d7be
000003a0: 8cee 63be f129 4ebc aefd 71be 71dc c6bd
000003b0: 8097 38be 68af 35be c9f2 c3bd ec79 0dbe
000003c0: 2bcb cebe 7b36 22be b9ce 3bbe 85b6 66be
000003d0: af36 90bd 9550 17bc f919 303e 7b9f 21be
000003e0: 76dd 453e 834b 12be 303e af3e 5904 e1be
000003f0: 8b27 483d 3f0f d23e e390 ffbe 6c81 683e

action_out.weight f4 [4, 256]
0.01610235 0.05367672 0.08214915 -0.12300669 -0.21474864 0.10499258 -0.057817653 -0.003614093
-0.13442925 0.06329967 -0.4912607 0.00090699684 0.1886155 0.0292958 -0.012757068 0.0019440597
-0.056622114 0.006213357 0.03137229 -0.05889382 -0.19615373 -0.028220745 -0.3735678 0.8946645
0.007496226 -0.019688208 0.06593424 -0.0062666973 -1.935447 0.42585644 0.27680284 -0.02652884
-0.07189197 -0.031121954 0.028914213 0.04485343 0.02660054 0.06278259 -0.03337948 0.024077961
-0.13568966 -0.090799324 0.088470235 -0.07101589 0.020158561 -0.0046842163 0.03744598 0.15646951
-0.032021284 0.13079828 2.2011821 0.013256619 0.0125186145 0.06341608 -0.049646366 0.85717076
0.034116242 0.06862522 -0.27012524 -0.038609575 -0.01050595 -0.03620624 -0.26708898 0.028668035
-0.45360154 0.023801696 -0.053805687 -0.17665589 0.12806445 -0.06387641 0.082274385 0.49164775
0.2520661 -0.04688607 -0.30312926 -0.24178453 0.08530382 0.10890956 -0.072944164 -0.094866306
-0.025840634 -0.047655914 0.03499267 -0.13031533 -0.02193724 -0.2922218 0.0414488 0.0015288759
0.010433816 -0.17368561 0.03594752 0.113655366 -0.031610165 0.027913615 -0.07895938 -0.91999185
-0.025635824 0.05465477 -0.7215425 0.6848148 0.06955971 0.0028024572 -0.05719892 0.069529235
-0.009392369 0.2777873 -0.023347061 -0.12570092 -0.15037587 0.16349284 0.06850366 -0.057810474
-0.018319856 0.074332066 0.024866937 0.04412585 -0.10796194 -0.038948726 -0.04896324 -0.04254244
-0.03271471 0.011470827 -0.71402156 0.54690117 0.023124134 0.018172236 0.0024945133 -0.7872344
-0.038071774 0.02037687 -0.1439609 -0.13327958 0.076029144 0.14149679 0.023242664 -0.04067987
0.01800195 -0.4580296 0.03018404 -0.079751976 -0.039835088 -0.0007616929 0.26970473 -0.045743216
-0.03579646 0.026615858 -0.40819424 -0.09997484 0.013162114 -0.06882281 -0.00032856132 0.07890449
0.0129767405 -0.065682 0.14797913 0.056264527 -0.01865855 -0.00684654 0.22168262 0.33553746
-0.060399167 -0.09156216 -0.03250656 -0.04459312 0.01819306 0.009861098 -0.13079949 -0.05717015
0.037190143 -0.05177294 0.044413734 0.02178853 -0.14929171 0.29143485 0.04323676 -0.18007027
0.024710638 0.28056023 -0.08790611 -0.16579084 0.019214287 -0.08557653 -0.45792797 0.012134266
-0.042868707 -0.0024105797 -1.087056 -0.48717085 0.15203981 -0.15028976 -0.005534313 0.021535892
0.011232662 0.04734647 -0.07393924 0.030001063 -0.05412188 0.043309 0.09018355 -0.14275524
-0.19728813 0.011411373 -0.6246039 -0.04985265 0.102941334 -0.056042716 -0.08111711 -0.54497695
0.20301706 0.012475728 -0.072907105 0.04358996 -0.20017704 0.05598295 0.06763846 -0.059642777
-0.47540236 -0.053692464 -2.612266 0.68817425 -0.37425116 -0.0021123807 -0.118898295 0.13920373
-0.081983976 -0.59837687 0.013876944 0.004736489 -0.047343954 -0.42973372 0.1309091 0.018517029
-0.02674957 -0.04246029 -0.004164385 0.0614257 -0.027759258 -0.019804982 0.27784017 0.019322399
0.011436782 -0.014784734 0.1168877 -0.011413357 -0.10802243 -0.18538162 0.03743985 -0.037608437
0.0951246 0.0022668876 0.09386247 0.03332297 0.03080372 0.10264224 0.0005985668 0.034109328
00000000: 13e9 833c 1fdc 5b3d d03d a83d eeea fbbd
00000010: 11e7 5bbe 5a06 d73d 34d2 6cbd 6bda 6cbb
00000020: d2a7 09be 42a3 813d 8686 fbbe 87c3 6d3a
00000030: 6c24 413e bffd ef3c 0503 51bc d2cf fe3a
00000040: 97ec 67bd 6b99 cb3b 3b80 003d a53a 71bd
00000050: 86dc 48be 312f e7bc 4744 bfbe bc08 653f
00000060: e7a2 f53b 2a49 a1bc 8808 873d de58 cdbb
00000070: babc f7bf db09 da3e 1ab9 8d3e 0353 d9bc
00000080: 193c 93bd 78f3 febc 80dd ec3c 3bb8 373d
00000090: 60e9 d93c 2994 803d ecb8 08bd 253f c53c
000000a0: 3bf2 0abe fff4 b9bd e22f b53d c770 91bd
000000b0: 9123 a53c 0e7e 99bb f560 193d 8b39 203e
000000c0: c028 03bd fcef 053e 2be0 0c40 4a32 593c
000000d0: e01a 4d3c 4ae0 813d fd59 4bbd 8b6f 5b3f
000000e0: 79bd 0b3d 618b 8c3d db4d 8abe 1325 1ebd
000000f0: 2621 2cbc ff4c 14bd e3bf 88be 3ad9 ea3c
00000100: 763e e8be c6fb c23c 5a63 5cbd 48e5 34be
00000110: 5423 033e a3d1 82bd 797f a83d 41b9 fb3e
00000120: cf0e 813e 9c0b 40bd c233 9bbe 5d96 77be
00000130: c5b3 ae3d fa0b df3d c063 95bd 4449 c2bd
00000140: bdaf d3bc d932 43bd 7954 0f3d 6271 05be
00000150: bab5 b3bc 199e 95be 38c6 293d 9064 c83a
00000160: 99f2 2a3c a4da 31be b53d 133d 25c4 e83d
00000170: a979 01bd 18ab e43c 75b5 a1bd 9684 6bbf
00000180: 3802 d2bc aedd 5f3d 02b7 38bf 0650 2f3f
00000190: 5275 8e3d 6ea9 373b 6a49 6abd 5865 8e3d
000001a0: 73e2 19bc 233a 8e3e 5642 bfbc beb7 00be
000001b0: 22fc 19be ab6a 273e a64b 8c3d adca 6cbd
000001c0: 8613 96bc 693b 983d bfb5 cb3c 4fbd 343d
000001d0: 261b ddbd b388 1fbd ae8d 48bd fb40 2ebd
000001e0: dcff 05bd 23f0 3b3c 1eca 36bf b701 0c3f
000001f0: d36e bd3c f1dd 943c fd7a 233b 3288 49bf
00000200: 26f1 1bbd 65ed a63c 7c6a 13be 717a 08be
00000210: 2bb5 9b3d 89e4 103e 6667 be3c ef9f 26bd
00000220: d378 933c db82 eabe 8544 f73c 0155 a3bd
00000230: 1e2a 23bd 58ac 47ba bd16 8a3e 3d5d 3bbd
00000240: 4f9f 12bd 8009 da3c d6fe d0be 9cbf ccbd
00000250: e8a5 573c f9f2 8cbd c142 acb9 ad98 a13d
00000260: 659c 543c 4984 86bd d787 173e a275 663d
00000270: d1d9 98bc f158 e0bb c500 633e 91cb ab3e
00000280: 1e65 77bd f184 bbbd 9925 05bd 47a7 36bd
00000290: 9d09 953c 7190 213c 4df0 05be 3f2b 6abd
000002a0: b154 183d dd0f 54bd 2deb 353d dc7d b23c
000002b0: eddf 18be f336 953e 0719 313d 5764 38be
000002c0: f76d ca3c 97a5 8f3e 1e08 b4bd 13c5 29be
000002d0: 4867 9d3c bf42 afbd 8975 eabe cdce 463c
000002e0: 1997 2fbd d1fa 1dbb a724 8bbf 756e f9be
000002f0: 53b0 1b3e 8fe5 19be 2f59 b5bb 0a6c b03c
00000300: 3309 383c 5fee 413d 756d 97bd cac4 f53c
00000310: e8ae 5dbd c764 313d 27b2 b83d 6e2e 12be
00000320: e605 4abe c4f6 3a3c 0be6 1fbf 4b32 4cbd
00000330: e8d2 d23d 0c8d 65bd ba20 a6bd 9c83 0bbf
00000340: b4e3 4f3e ff66 4c3c 5250 95bd 638b 323d
00000350: 36fb 4cbe 614e 653d 0886 8a3d fc4b 74bd
00000360: f067 f3be a1ec 5bbd 5e2f 27c0 302c 303f
00000370: d99d bfbe de6f 0abb f380 f3bd 6c8b 0e3e
00000380: 37e7 a7bd 3a2f 19bf 1f5c 633c 8d34 9b3b
00000390: bceb 41bd 0f06 dcbe 090d 063e 06b1 973c
000003a0: ea21 dbbc d7ea 2dbd 6575 88bb 8499 7b3d
000003b0: 6267 e3bc 0f3e a2bc 1141 8e3e 024a 9e3c
000003c0: 5761 3b3c ab3b 72bc d262 ef3d 17ff 3abc
000003d0: dd3a ddbd aed4 3dbe 875a 193d 4e0b 1abd
000003e0: b0d0 c23d 1090 143b f73a c03d ab7d 083d
000003f0: 1558 fc3c 1836 d23d 23e9 1c3a 39b6 0b3d

action_out.bias f4 [4]
0.0049783103 0.0020851821 0.0031046025 0.0021109283
00000000: 1821 a33b 8da7 083b 9676 4b3b 8057 0a3b
