mujoco_project/saved_models/FetchReach-v1/model.pt (torch_old, 546573 bytes, 8 tensors)

fc1.weight f4 [256, 13]
00000000: 723e 8b3c 69e7 b1bd db2d e33d bd81 cc3e
00000010: 3622 723d abde 303d 4110 71bd b345 85bd
00000020: 10cd 05be b5ed 813d a2f8 c3bd c437 063e
00000030: 044c 1dbe 8f36 ddbe 1d27 fe3c 141c 35be
00000040: 8103 0fbe 401a 7f3e 7097 afbc ac55 b23c
00000050: 36c2 4c3c 72ce 283e b724 a23c 5ccb 003f
00000060: 0d4c 97bd cb3a 3f3e 3799 4f3d b618 853e
00000070: b768 df3e db19 a8be 8626 303e 8294 403c
00000080: 0e9a 7c3c 28c8 9f3c 3ae0 153e d7ca 67be
00000090: 95e8 6bbd 7cb0 8dbe 746b f5be 238b 60be
000000a0: a4c9 c6bd 6485 7bbe ea92 933c c230 913e
000000b0: e302 9bbc c2fb 14bc b303 3ebc 557e 3fbd
000000c0: 6121 253e 9a40 7f3e 5e46 083e fc3f 883e
000000d0: 52f5 c73e 1760 a53e 6692 0b3e 4846 2ebe
000000e0: 5537 e5bd 16fe 673d f7cc 00bd f13a 7a3b
000000f0: bec5 24bd 5dda c43d c8c5 cdbe 2a66 a2be
00000100: 6812 13be 8d54 9bbd 84cd 20be 1b99 b03e
00000110: 13e9 83be d4ef 1d3e 731a 073c ac9b 943c
00000120: 7285 a83c 2793 11be 4f5c a5bc 30ec 863d
00000130: 819c 183e 99f7 c3be 94bc 6abe 4dcf ea3d
00000140: 5ab8 c23e 13b1 cc39 1b07 683d 9ebe ecba
00000150: b06f 4abc 28e7 983c 6e4d 34be 1bc6 863e
00000160: 5fd2 7f3e 5b0c cebd e521 d3be 12b0 c13e
00000170: 9756 c9bc 3c32 d73e 5151 e8bd 777f 0d3d
00000180: eb50 c03c 753d b23c b318 183d 24c6 1b3d
00000190: 151d eabd 09fe e3be 3bbf a63c 728c eebe
000001a0: 91d5 d63c 5772 08be eb3e 4b3e 13c2 513e
000001b0: b6b1 c73d c046 03bd 60a9 803d 692b 1cbd
000001c0: 0ba6 503e 03c5 2cbe 04c4 7bbd b1cb d73d
000001d0: af73 85be ccd9 d63b d004 a0bd 3665 f33d
000001e0: a47c 18be 6ce4 503d 2f02 d63d 9f2c d2bc
000001f0: 73c3 093e efa0 65bd 58a2 893e 1e55 433d
00000200: 037b 4c3e b959 d1bc dd76 efbd 2442 723e
00000210: bbb6 c5bd 21e2 053e ec9a 7b3e 640d 03be
00000220: 949a 5cbc aa30 1ebd 7963 443d cce1 b7be
00000230: acdc da3d ea3f a7be 7fe2 eb3d 1454 013e
00000240: a958 80bd b1a8 98be d78e d0bd b6f8 c73d
00000250: 588b 90bd 8e77 82bd 0a05 dbbd 7e94 68be
00000260: 077f 103e b69b ebbc 99db 373e 6fb6 e13e
00000270: 57a5 91bd f87e 6bbe a984 c6be 9486 933e
00000280: 16f8 373e a7f2 193c d152 44bd 42ed 133d
00000290: 3313 b23d 368d 023e ff0e 543d fe2f 8e3e
000002a0: f879 dd3e 1d40 353e c6bf a03d 4442 1fbe
000002b0: 9b6a b2bd 26b4 3fbd 7e08 86bd f81b 7a3b
000002c0: 0026 39bd 8fdc f0bd 6f27 803e 96b7 4cbe
000002d0: 4deb 8abd 71db 883e 386f e83c 0d17 acbe
000002e0: 3534 27bc ac19 d73d a598 b53c 5488 c7bc
000002f0: 0cf7 12bc 558c 73bc dbe4 18bd 2235 c3be
00000300: b584 d9bc 7659 c43e c317 98bd b7d1 fdbd
00000310: 1d8d 283e bac8 a6bd d720 5d3e 8e3a 273d
00000320: 001f 95bc 895f 1a3c 2475 463b 91b2 54be
00000330: d73c 35be e651 fc3d 020a 24be 3cbd bf3d
00000340: b88f d6bc 3bca 223d c91f d23d 407d c23d
00000350: 0da7 763e e254 a5bc d4ac f8bc 2c92 8dbc
00000360: 9da2 b63d ac62 41be efba 353d 0977 63bd
00000370: 8543 e8bd 5367 28be e216 9e3e ae15 49be
00000380: 3050 6b3e b90e 5bbe af88 fb3c cb22 95bd
00000390: 5101 b1bd d3df 0cbe 855d 6b3e 2968 0d3e
000003a0: 11a7 9dbe 17eb 693e 96f5 5ebe 05e8 a2be
000003b0: 856a 8e3e f5f6 8bbb a273 84be 3196 3a3b
000003c0: 8474 1d3d 427c 943b 7473 71bb ea1d c33b
000003d0: 4c30 723e bd77 ac3e 4899 9cbe 671c e33d
000003e0: 42c4 77bd 0d65 84bd 99b0 0a3f 7388 643e
000003f0: a59e a63d e9e6 c5bd 1730 5a3c e9fc 90bc
0.01699755 -0.08686716 0.110927306 0.39942732 0.059114657 0.043181103 -0.05885339 -0.06507435
-0.13066506 0.06344167 -0.09568907 0.1310721 -0.15361029 -0.43205687 0.03102451 -0.17686492
-0.1396618 0.24912357 -0.021434516 0.021769367 0.012497475 0.16485003 0.019792898 0.503103
-0.073875524 0.18674771 0.050683226 0.25995415 0.4363458 -0.32832226 0.17202196 0.011754157
0.015417589 0.019504622 0.14636317 -0.22635971 -0.057594854 -0.2767371 -0.47933543 -0.21928076
-0.09706429 -0.24562603 0.01801439 0.28357512 -0.018922275 -0.009093227 -0.011597562 -0.04675134
0.16126014 0.24926987 0.13308093 0.26611316 0.39054352 0.32299873 0.13630065 -0.17018998
-0.11192194 0.0566388 -0.03144547 0.0038182104 -0.040227644 0.09611962 -0.40189958 -0.3171857
-0.1436249 -0.07584486 -0.15703398 0.3449181 -0.2576376 0.15423518 0.008246052 0.018140636
0.020571444 -0.1421629 -0.020185618 0.06588018 0.14903452 -0.3827484 -0.229235 0.11465321
0.38031274 0.00039041843 0.0566474 -0.001806218 -0.01235573 0.018664911 -0.17607662 0.26323017
0.24982594 -0.1006095 -0.41236797 0.37829643 -0.024577422 0.42030513 -0.11343635 0.034545388
0.023476085 0.02175782 0.03713293 0.03803076 -0.11431328 -0.4452975 0.020354858 -0.46591526
0.026224883 -0.13324867 0.1984822 0.2048419 0.097506925 -0.032049894 0.06282306 -0.038127337
0.2037584 -0.16872029 -0.061466232 0.10536898 -0.26064822 0.006556725 -0.07813418 0.11884539
-0.14891297 0.05099909 0.10449635 -0.025656043 0.13453464 -0.05606168 0.2688167 0.047688596
0.199688 -0.025555478 -0.11692593 0.23658043 -0.09653994 0.13074543 0.24570817 -0.12798077
-0.013464589 -0.03862063 0.047946427 -0.35914457 0.10686621 -0.3266595 0.1151781 0.1262973
-0.062669106 -0.298162 -0.101834945 0.09764235 -0.07057828 -0.063704595 -0.106943205 -0.22712895
0.14110957 -0.028760772 0.17954864 0.44084498 -0.07111614 -0.22997653 -0.38773087 0.28813612
0.17965731 0.009396232 -0.047930542 0.03611494 0.08695068 0.1274918 0.051772114 0.2777099
0.43257117 0.17700239 0.07849078 -0.15552622 -0.0871174 -0.046802662 -0.065445885 0.0038163643
-0.045202255 -0.11760818 0.25030085 -0.19991907 -0.06783161 0.2672992 0.028373346 -0.33611336
-0.010205318 0.105029434 0.022167513 -0.024356999 -0.008970033 -0.014865001 -0.03732763 -0.38126475
-0.026552537 0.38349503 -0.07426407 -0.123935156 0.1646008 -0.08143754 0.21594559 0.040827326
-0.018203259 0.009422191 0.0030282224 -0.20771243 -0.1769899 0.123203084 -0.16019443 0.093622655
-0.026191577 0.039743643 0.10259969 0.09496546 0.24087162 -0.020182077 -0.030355848 -0.017281614
0.08917735 -0.18885297 0.044367727 -0.055533443 -0.11341003 -0.16445665 0.30876833 -0.19637176
0.22979808 -0.21392335 0.030704824 -0.07282027 -0.08642829 -0.13757257 0.22984894 0.13809265
-0.30791524 0.22843586 -0.21773371 -0.31817642 0.27815643 -0.004271383 -0.2586947 0.0028470869
0.038441196 0.0045314142 -0.0036842497 0.005954494 0.23651236 0.33685103 -0.30585694 0.11089402
-0.0604899 -0.064645864 0.54175717 0.22317676 0.08135728 -0.09663183 0.01331713 -0.017698722

fc1.bias f4 [256]
00000000: d21c 8dbd dd2d 66be 5eea 2fbe 41fb c6bd
00000010: b6f6 84be 3bd4 5fbe 7463 05be 9032 40be
00000020: 325d 24be 7817 d3be 3fc7 93be b83d 90be
00000030: 48dc fdbd 9d7f 8abe 3bc4 75be 0902 6e3e
00000040: 80c6 8f3d a416 7cbe dc4e debd 42e7 a4be
00000050: 70e4 91be d028 77be a28b 1d3e 1ae0 9abe
00000060: 295e 633e 2deb 06be 7502 cebe 4a82 1abe
00000070: 6ba4 4e3e f462 63be 59c0 babe fe15 b2be
00000080: 6820 273e 46c0 1bbe 2fa3 c4bd 8dab be3e
00000090: 1ea8 64be 9173 d0bd 16e9 a33e 3502 5ebe
000000a0: 2005 1ebe 843b 19be 91cd 03be b4f3 e6bd
000000b0: 976d 213e 29d2 d8bd cb5e 84be 7ecf 1cbe
000000c0: b3e8 f0be bdfd ffbd 7983 7fbe 0b60 39be
000000d0: aa38 e9bd cda0 5dbd 360e 913e 1d47 c7be
000000e0: 8474 7fbe 360d aabd 2988 c1be 0125 47bd
000000f0: d4c9 af3e aed1 d0be 2b1c b7be 7596 33be
00000100: a4da 94be 3500 b93e 6f3f 56be 126f 5abe
00000110: 2e87 ad3e aa6f 5ebe d6a2 ff3d 4a4f afbe
00000120: 8479 79be 85cc 61be d3a6 a3be 3f4d e0bd
00000130: 40c7 0fbe d3f8 59be 3559 fdbe 1089 333e
00000140: f452 a4be 3050 c8be 9b8c 543e b617 5bbe
00000150: 8a26 8c3e b0ac 76bc 5aee 1bbe 14d7 43be
00000160: 5ad3 383d d2e6 8ebe 2c0a 88be 39da 52be
00000170: b76e c63e 0d39 02bc d17d c5bd 79d5 7f3d
00000180: 7500 533e e0ea 1ebe 3302 8fbe 89ad a1be
00000190: 9433 b5bd 81e8 fcbe a9d5 313e fd78 d03e
000001a0: af9a 4cbe 6ed7 943c d0a9 cdbe 6cc2 99bd
000001b0: 001c f7bd fdc3 823e de7e 573e f19c 01be
000001c0: 4a82 db3c 7739 a1be 094c 31be 9b07 2dbe
000001d0: d050 f9bd f652 00be aa7d 63be 4c8c 41be
000001e0: 1d77 f43d f605 80be 4cf7 833e b0dc 68be
000001f0: 6329 29be 9984 3b3c b303 1bbe ddf7 b3be
00000200: 5c93 11be 83dc 3ebe a9c3 99be fc54 cd3d
00000210: ce79 9bbe d277 153e a973 9d3e 5574 77bd
00000220: 8873 babe 9b84 9f3d 577b 17be f7d2 073e
00000230: 57bf 48be 68dc 4bbe df7c 57be af28 7dbe
00000240: a26c 9c3e 70a9 b33e 580e 9fbe 32b1 fabd
00000250: 9cf6 66be 55ac 60be f482 cf3d 7583 27bd
00000260: 22bc a93d 7456 9dbe 9773 14bc 6332 7fbe
00000270: 7eb8 aa3e 4aa3 0ebe c331 18be 3c41 2abe
00000280: d538 8ebe e318 f5bd dc8b a7be e44d 663e
00000290: 37b0 9f3e bc06 05be a77c 3abe 4d36 a33e
000002a0: 39dd 50bd 297f 6d3e f5c8 b3be 87f1 8f3d
000002b0: f02b b0be 40df 8d3e e806 5abb 2dff 47bd
000002c0: cf6c 04bd 78d0 a1be 8914 57be 336f f1bc
000002d0: 33c9 7ebe a7da ac3e 1e9e 233e 1e70 09be
000002e0: 3664 a9bc 7f38 e0bd 2755 8fbe 508b 48be
000002f0: d546 48be 920e be3e e826 58bc dbd6 a0be
00000300: bd98 6a3c bdf5 9b3d 415b 3ebe 53f0 02be
00000310: 8234 3e3c 9551 48be d7e4 3ebe 22c8 fbbd
00000320: c2aa a03e 827f 0bbe a817 b7be 7f4e 193e
00000330: 5893 7fbe 123e 23be 16f7 b6be c62b b7be
00000340: e28c 98be e765 f5be 06cd b23e 96c7 9a3e
00000350: 1c71 3abe f2c8 89be 35bc abbe faa8 01be
00000360: ab83 3cbd 6f83 36be fa20 bd3e 4462 673e
00000370: f7d0 51be 5937 64bd f5c2 dc3e 8ac8 98be
00000380: 07c3 18be d276 03be 3de7 80be 6611 bd3e
00000390: 2b74 8a3e c46c fabd 4a8b 64be 1ff8 debd
000003a0: e10f bbbd 12fc 2dbe 8a14 2ebe 9d3a 5dbe
000003b0: b2c3 5bbe b08d 0bbe 1cd8 38be fe14 833e
000003c0: d86c 3bbd 7070 c1be 624f 92be c59e 15be
000003d0: 847f 1dbe 6b47 31be 5ba4 63be 9c28 973e
000003e0: 9519 5dbe 5cbb 2fbe fd4f 17bd b8e9 b5bd
000003f0: d903 a83d 90ca 40be 1fce 17be 7bf2 54be
-0.06890263 -0.22478433 -0.17179248 -0.09715892 -0.25969476 -0.21858303 -0.1302622 -0.18769288
-0.16051176 -0.41228843 -0.2886295 -0.28172088 -0.12395531 -0.27050486 -0.24000637 0.23242964
0.07020283 -0.24618012 -0.10854885 -0.32207686 -0.28494596 -0.24136662 0.15385297 -0.302491
0.22203888 -0.1317565 -0.4023625 -0.15088764 0.20179908 -0.22205716 -0.36474875 -0.34782404
0.16320956 -0.15210065 -0.09601437 0.37240258 -0.22329757 -0.101782925 0.32013768 -0.2168053
-0.15431643 -0.1496411 -0.12871386 -0.112769514 0.15764461 -0.1058696 -0.2585357 -0.15313527
-0.47052535 -0.124995686 -0.24952497 -0.18103044 -0.11387761 -0.05410843 0.28331155 -0.38921443
-0.24946791 -0.08303301 -0.37799194 -0.048619274 0.3433367 -0.40784973 -0.35763678 -0.17537864
-0.2907306 0.3613297 -0.20922635 -0.21331432 0.33892196 -0.21722284 0.1248223 -0.3424018
-0.24362761 -0.22050674 -0.31963214 -0.109522335 -0.14040852 -0.21286325 -0.49482122 0.17532754
-0.32094538 -0.39123678 0.20756762 -0.21395764 0.27373153 -0.01505582 -0.15227643 -0.19125015
0.045123436 -0.27910477 -0.2657026 -0.20591058 0.38756344 -0.007948172 -0.09643138 0.062459443
0.20605643 -0.15519285 -0.27931365 -0.3157771 -0.08847728 -0.49396136 0.17366661 0.40717307
-0.19980882 0.018169131 -0.4016862 -0.07507786 -0.120658875 0.25540152 0.2104449 -0.12657525
0.026795525 -0.31489155 -0.17314161 -0.16897433 -0.12173617 -0.12531647 -0.22215906 -0.18901175
0.119367816 -0.25004548 0.2577461 -0.22740436 -0.16519694 0.011445188 -0.1513813 -0.35150042
-0.1421637 -0.18638806 -0.3003209 0.10025975 -0.30366367 0.14596489 0.30752304 -0.060413677
-0.36416268 0.07788964 -0.14793144 0.1326407 -0.1960424 -0.19908297 -0.21043728 -0.24722551
0.3055163 0.35090208 -0.3106563 -0.122408286 -0.22555012 -0.2194074 0.10132399 -0.04089685
0.082878366 -0.3073002 -0.009060762 -0.24921565 0.3334388 -0.13929477 -0.14862733 -0.16626447
-0.27777734 -0.119676374 -0.32723892 0.2249065 0.3118913 -0.1299085 -0.18211614 0.31877366
-0.050992224 0.23193039 -0.35114256 0.070284896 -0.34408522 0.2770939 -0.0033268277 -0.04882734
-0.03233033 -0.31604362 -0.21003927 -0.02947197 -0.24881439 0.33760568 0.15978286 -0.13421676
-0.020677667 -0.10948276 -0.27994654 -0.19584394 -0.1955827 0.3712049 -0.01319287 -0.31413922
0.014318642 0.0761523 -0.18589498 -0.12786989 0.0116091985 -0.19562371 -0.18641983 -0.12294032
0.31380278 -0.13622859 -0.35760236 0.1497135 -0.24958551 -0.15941647 -0.35735387 -0.35775584
-0.29794985 -0.47929308 0.34922045 0.30230397 -0.1820721 -0.26911122 -0.33542028 -0.12662116
-0.046024006 -0.17823575 0.36939222 0.22596079 -0.2048987 -0.055716846 0.4311749 -0.298405
-0.14918147 -0.12838295 -0.2517642 0.36927336 0.27041754 -0.12227777 -0.2231876 -0.10887169
-0.09133888 -0.16990688 -0.17000023 -0.2160439 -0.2146137 -0.13628268 -0.18051189 0.25601953
-0.0457581 -0.37781096 -0.2857619 -0.14611347 -0.15380675 -0.173124 -0.22230665 0.2952317
-0.2159179 -0.17161316 -0.036941517 -0.08882469 0.08203859 -0.18827271 -0.14824723 -0.20795624

fc2.weight f4 [256, 256]
00000000: cf9d 403d 5da9 833a 8fc2 7bbd 2566 983c
00000010: 287d 2b3d 26a3 283c ec04 3abd 1d10 2c3c
00000020: 40f7 4b3d 8f7a 8f3c acc9 30bd 599a fa3b
00000030: b7cd c7bc 5f90 bdbb 4f74 49bc 9c84 2d3a
00000040: d5a7 7cbd a85e 753c e5ac dc3c 1f13 f0bb
00000050: 8bf0 413d 052c efbc 6d5a e9bc f50c 8cbd
00000060: 9ed7 083d 0600 46bc 077f f4bc 06f5 1fbd
00000070: 11b9 633d dcdf 8bba fa8a 41bd 54be 423d
00000080: 3460 2c3d 0ae1 e53c 3604 063d c41c 443d
00000090: 3c86 063d 5743 ecbc ec41 973a 2506 483c
000000a0: 66a5 9fbc 516e d6bc dcd2 84bd 4a00 3cbd
000000b0: c29a fe3c 861c 103d ba40 c3bb cacd 2e3d
000000c0: 3055 8bbc f467 ca3c 2158 613c de34 ad3c
000000d0: de26 6f3c ac0e 47bd ac12 41bc 6a49 8abd
000000e0: 6e6d c5bc df20 183d 8627 073d 24df e8bc
000000f0: ae0e 5fbd d8ff 3a3d f106 113c e089 7bbd
00000100: 8906 7bbd 25e8 03bc 79e7 31bc c536 6fbb
00000110: 8486 56bd 7339 753b db7e 32bd d9b7 8ebd
00000120: 19ca 52bc f644 4e3c 5ae8 e1bc 385c cbbb
00000130: 17ff 6d3c d437 853c e711 f13c 84d5 433d
00000140: 38a2 c43c 95a6 80bd 1916 bcbc 7246 85bc
00000150: a31a 32bd 488d 3cbc 304f 313d deeb a13b
00000160: 8ea9 ee3b 4b4e 583b c92f 923c 3c05 40bc
00000170: d193 86bd f4f2 303d 1a13 68bd ab50 35bd
00000180: e662 aebc 7b1c 9bbc a785 84bd 2e6a 08bd
00000190: 971d 81bd 855a 133d 5869 c73c db34 023d
000001a0: 34a3 1bbd ae34 423b 5e90 87bc cf5d 37bd
000001b0: 2079 0d3c 0c21 003c 75c7 35bc 2c21 333d
000001c0: 9353 60bb d09a d73c ff6f 45bd 2df5 b93b
000001d0: d9aa acbc 54ce 153d c55b f7bc 104c 48bd
000001e0: 63a5 d03c dde7 503d 6d58 5bbd 0439 323d
000001f0: 384d 053d 2aaf 61bd f8d4 2bbd 618c 3dbb
00000200: 9de5 323d 64c8 f83c 6bdc 14bd ec0d 7cbc
00000210: bf48 1ebc 3b71 473c 4df8 f03a fd81 85bd
00000220: 93bc 533d 684f 64bc 13b3 2dbd fd96 83bd
00000230: f02a 6cbd e539 7ebc fc24 1e3d 83c6 dcbb
00000240: dd68 4a3d 0bda 8c3c c39b 3fbc a867 44bd
00000250: c2de 383d 7434 043d ff24 35bd 45cb a0bb
00000260: 8dbb 85bd 1c89 3ebd b381 eebc a5c9 803c
00000270: 00c1 c7bb 0691 113d d933 d5bc 0e06 023c
00000280: 1099 733c a4c0 2a3d 07f3 eebc caa7 263d
00000290: 9d31 9b3c 1d43 893a f6a8 a6bc 5198 3f3d
000002a0: 1fe8 40bd a070 4d3d 78fc bfbc 3869 00bd
000002b0: 519e 13bd f7e6 75bd 4ac3 88bd 8be1 82bc
000002c0: bc65 f839 0622 2ebd b128 0dbc d61c fcbc
000002d0: 4445 5ebd 1525 cbbc ea92 413c 23cb 04bc
000002e0: 7423 60bc 8053 74bd d1e1 45bd 24bf 1abd
000002f0: 6983 3b3d 22f0 3cbc 2010 423d d47b fd3c
00000300: b2b9 5cbd ddaf 1d3d 4565 01bd 1f0f 81bd
00000310: ebc8 a1bc df1a 1a3c 909b 08bd 29e7 81bd
00000320: 1f38 80bb bef1 86bd 60f6 7abd bea6 61bd
00000330: e7fe ecbc 2db1 50bd 08c0 8cbd bb82 3c3d
00000340: a429 8abb 0505 363c b047 21bd 55d7 113c
00000350: 10f7 31bd 3535 023d 5176 183c c126 85bd
00000360: fdd4 4bbd b11f 4ebd a178 e63c b3ee 50bc
00000370: 770e b83a 350a c9bb 1192 04bd e81b f3bc
00000380: e60a 81bd facf cbbc 8137 5c3d 33ca ebbb
00000390: c6a6 71bd 6bd9 4e3d 34e3 71bc d2de ba3c
000003a0: 421c f53c 28c0 e43b f83b 8b3c 6c5b 203d
000003b0: e4dc 55bc f062 69bb 3d87 8ebc ebc5 333d
000003c0: f363 6abd ae91 203d 2652 053c ce10 b3bc
000003d0: 8751 513d 6696 4bbd 7092 2ebd b129 07bd
000003e0: 427e 08bd 544b e6ba 7556 57bd 7213 4fbd
000003f0: 2eee 84bd 2309 70bd 46ab 62bc 191c 09bd
0.047025498 0.0010044981 -0.061464842 0.018603394 0.041867405 0.010292804 -0.04541485 0.010501889
0.049796343 0.017514495 -0.04316108 0.007647794 -0.024390085 -0.0057850326 -0.012295797 0.00066191866
-0.061683495 0.014976181 0.026937911 -0.007326498 0.04734854 -0.029195795 -0.028485501 -0.06838409
0.033408754 -0.0120849665 -0.029845728 -0.039052032 0.055596415 -0.0010671574 -0.04725168 0.047544792
0.042083934 0.028061409 0.03271886 0.047878996 0.03284286 -0.028840704 0.0011540032 0.012208496
-0.019488048 -0.02617565 -0.06485531 -0.045898713 0.031079654 0.035183452 -0.0059586437 0.042676724
-0.017008394 0.024707772 0.013753922 0.021143373 0.014596669 -0.048597977 -0.011784237 -0.06752284
-0.024100032 0.037140723 0.032996677 -0.028426714 -0.05445736 0.045654148 0.008851753 -0.061410785
-0.06128553 -0.008050953 -0.01085841 -0.003650115 -0.052374378 0.0037418276 -0.04357801 -0.0696866
-0.012865567 0.012589684 -0.027576614 -0.0062060617 0.01452615 0.016261972 0.029427482 0.047811046
0.024003133 -0.06281773 -0.022959756 -0.016268943 -0.043482434 -0.011508293 0.04328841 0.0049414476
0.007283396 0.003300565 0.017845051 -0.011719998 -0.065711625 0.04320045 -0.05665884 -0.044266384
-0.021287393 -0.018934479 -0.06470805 -0.033304386 -0.06304472 0.035974998 0.024342224 0.03178869
-0.03799744 0.002963345 -0.016548332 -0.044767197 0.0086348355 0.007820379 -0.011094918 0.043732807
-0.0034229502 0.026318938 -0.04820251 0.005674979 -0.02107756 0.036573723 -0.030195126 -0.048900664
0.025469488 0.051002372 -0.053551126 0.043511406 0.032544345 -0.05509869 -0.04195115 -0.0028922784
0.043676008 0.030368991 -0.03634302 -0.015384179 -0.009660899 0.012172992 0.0018384546 -0.06518934
0.05169351 -0.013934948 -0.042407107 -0.06425283 -0.057658136 -0.015516733 0.03860949 -0.0067375316
0.04941641 0.017193815 -0.011694851 -0.047950417 0.045134313 0.032276586 -0.044224735 -0.004907044
-0.06529913 -0.046517476 -0.02911458 0.015721152 -0.0060960054 0.035538696 -0.0260257 0.007936014
0.014868036 0.041687623 -0.029168619 0.04068736 0.018944556 0.0010472272 -0.020344239 0.04677612
-0.047096368 0.050156236 -0.023435816 -0.031350344 -0.036039654 -0.06003472 -0.066778734 -0.015976688
0.00047378044 -0.042512916 -0.008615659 -0.030775469 -0.054265276 -0.024797956 0.011814812 -0.008105072
-0.013680328 -0.059649944 -0.04831106 -0.037779942 0.04577962 -0.0115318615 0.04737866 0.030942835
-0.05388803 0.038497794 -0.03159072 -0.06301712 -0.019749125 0.009405821 -0.03335148 -0.063429184
-0.00391294 -0.065890774 -0.061270118 -0.05509066 -0.02893014 -0.050950218 -0.068725646 0.04602311
-0.0042163897 0.011109595 -0.039375007 0.008901437 -0.043448508 0.031789023 0.009305553 -0.06501532
-0.04976367 -0.050323192 0.028133692 -0.012752223 0.0014042397 -0.00613525 -0.032365862 -0.029676393
-0.06300907 -0.024879444 0.05376387 -0.007195735 -0.05899694 0.050500315 -0.014763642 0.022811327
0.029920701 0.0069809146 0.016996369 0.039149687 -0.013053153 -0.003561195 -0.017398471 0.04388992
-0.057224225 0.03920143 0.0081372615 -0.021858599 0.05110314 -0.049703978 -0.042620122 -0.032998744
-0.033323534 -0.0017570057 -0.052572686 -0.050555654 -0.06490742 -0.058602463 -0.01383478 -0.03347406

fc2.bias f4 [256]
00000000: 9988 6cbd 69cf d13c 6e53 a0bd 3c3b 4c3c
00000010: d5c1 f0bc 77ef 5ebd abc3 28bd 2bd1 64bd
00000020: 5c53 01bb 1621 af3b 3cf6 f63c c289 4f3d
00000030: b57a cebd ce05 b53a 979a 8abc 3764 52bc
00000040: dc6a c8bd a21b 543d 00cf 14be b13c ee3d
00000050: f668 89bd 0a70 debc ace2 39bd be18 a7bd
00000060: 56be 873c 56be 853d 7f7b 6b3a 3a3a 86bd
00000070: 671c 1abe 24ed 383d 715c c4bd 4c86 07be
00000080: a699 623d e3ac 47be 0308 ccbb 1dc4 0ebe
00000090: 27d2 b0bc 2b80 0b3e 8a10 8bbe 538a 973c
000000a0: 08a8 693c 205e e3bc f1c5 753c 2be8 c4bc
000000b0: de01 133d 5ad7 98bd 7d06 89bd 147e cdbd
000000c0: e95b 333d ed33 fb3b 933f 0dbd f46c 9abd
000000d0: 2dd4 84bc 0464 86bd 6a02 60bd a190 ed3d
000000e0: f638 993d d672 a8bd 1574 923c 94c4 123d
000000f0: 5d4e 9cbd a7c7 ab3c 5c43 8d3d d106 153d
00000100: edac 2f3c 6b16 f0bc 11be 21bd b219 31bc
00000110: a851 2cbe 3ae0 06bc 7b9f 73bc bdda 2c3d
00000120: e862 e7bd 4cb1 eb3a ecc1 0a3d b12b f9bd
00000130: 63d9 21bc d63e 7ebe 8ed5 853d f802 f63d
00000140: 2b36 11be 8d37 e33c fb93 f8bd c50d 50bd
00000150: 4267 0d3e 262e bcbc 6487 e2bb 904c fdbd
00000160: 7eba f13b ad00 a0bd 72a1 86bd 1ed9 cebb
00000170: ae45 99bd fff5 18bd 6bc3 08be ece1 6dbd
00000180: a164 14be 4d5a 5bbd 7508 63bd 8d1c bcbd
00000190: 98d0 6fbd 343b 1dbe 5bbb 203e 5605 043c
000001a0: 3740 f2bd a3e5 2ebe a935 07bd e5c9 513d
000001b0: f7c3 493e 0241 91bd 73e6 8abc afb8 f43c
000001c0: 7b96 5bbd 531d 43be 68be 4f3d 0569 d13c
000001d0: e10c 88bc dd40 71be 2517 f7bd 687f f2bd
000001e0: 30bf b6bd 4eb8 29be ce2b 95bd 65f8 3dbc
000001f0: 79c5 c2bc aa1e abbd f5cc 653d 99a7 9abd
00000200: 1b43 b93c f145 f1bd cfb1 5e3d 7736 4fbd
00000210: 98f9 8abc 052d 073e a290 dbbd c24d 3cbd
00000220: 462e cc3d d372 6b3d b9a8 3fbe d821 943c
00000230: 3656 583c 2cff e53c 0a15 0cbe 2812 bd3c
00000240: 3965 8bbd 0d77 10bd 31fc 093d ba94 2abd
00000250: 15d0 c2bb 2538 5dbd 11da 86be 9f37 dcbd
00000260: 663b e4bc 8aee 883d f7de 5fbe 5851 a7bd
00000270: 50c2 253c 2e4c 7e3c 14ed c5bd 8c61 45bd
00000280: be6e 1bbd 05ec 84bd 21aa 86bd 57cd 933a
00000290: 20e8 213e e816 f23c d08d 47bb a29a 2c3e
000002a0: 53c3 163d fa25 79bc 26e9 e7bb 417d 1d3b
000002b0: 79f3 08bb ee01 babc 0b92 e23c 5f9d 39bd
000002c0: 66c3 07bd 3241 c3bd 7733 4fbd f31a 44bd
000002d0: 2a56 26bd 781d 043e 3add b0bd 655f 1fbd
000002e0: 8cbe ad3d fee3 dabd 5d88 3f3c cc5e 01bd
000002f0: ea9d 09be 0116 5d3c 8ee7 33be bf36 acbd
00000300: b97f 51bd 6c46 60bd 8ce6 98bd 3090 d4bb
00000310: 4b18 80bd 9644 6a3d 9430 163b 786a cd3c
00000320: 9de7 f23d f121 bcbc 1dbf 8cbd cbfa 4abe
00000330: ae60 e3bd c7e2 02be 19f2 39bd c60b 45bd
00000340: 13c0 06bd 8f78 46bd ea3c c4bd e844 033c
00000350: b9c4 18be 63d8 47be 17e3 2c3d e3fd 963d
00000360: 6ad6 6cbe f461 59bd c93d e4bd 5a57 22be
00000370: 1cb9 adbd 82f0 43bd 2d1a 693d ddd2 dabc
00000380: eb03 c8bb f5a7 51bd 835e b3bd c78a 89be
00000390: 15f6 b1bd 6ae5 be38 5a8b 603d 8882 073d
000003a0: 71ba 5ebb a389 3cbe 5047 83be 8c79 72bd
000003b0: dc79 ba3d 3c7e 16be 4d38 bf3d 3f98 80be
000003c0: e299 113c e702 c4bd f9dc 2b3b 3769 033e
000003d0: c22b 123d d244 7c3d b5d9 f9bd 2874 48bd
000003e0: 7738 e8bd 322c 9dbd 5387 fabd 4342 94bd
000003f0: 1f75 8abe 5e3b f3bc ba66 a2bc 5655 19bd
-0.057747457 0.025611596 -0.07828413 0.012465294 -0.029389301 -0.05442759 -0.04120223 -0.05586354
-0.0019733524 0.0053445203 0.03014671 0.050668485 -0.10081998 0.0013810934 -0.016919417 -0.012841276
-0.09786007 0.051784165 -0.14532089 0.1163267 -0.06709473 -0.027153034 -0.045382187 -0.08159016
0.016570251 0.06530444 0.0008982941 -0.065540746 -0.15049897 0.04514803 -0.09587944 -0.13234824
0.05532231 -0.19499545 -0.006226541 -0.13941999 -0.021584583 0.13623111 -0.27161056 0.018498575
0.014261253 -0.027754843 0.015000806 -0.024036488 0.035890453 -0.0746295 -0.06690691 -0.10033813
0.043788824 0.007666102 -0.034484457 -0.075403124 -0.016214455 -0.06562045 -0.054689802 0.115998514
0.074815676 -0.08225028 0.017877618 0.035832003 -0.07632134 0.020969225 0.068976134 0.036383454
0.010722381 -0.029307565 -0.039487902 -0.010809349 -0.16828024 -0.008232171 -0.014869566 0.042200793
-0.11298162 0.0017981916 0.033876345 -0.121665366 -0.009878489 -0.24828658 0.06534873 0.12012285
-0.1418082 0.02773645 -0.121376 -0.05079438 0.13808921 -0.022971224 -0.0069131125 -0.12368119
0.007376968 -0.07812629 -0.06573762 -0.0063125035 -0.074839935 -0.037343975 -0.13355796 -0.058076784
-0.14491512 -0.053552914 -0.055427987 -0.09185133 -0.05854854 -0.15354615 0.1569647 0.008057913
-0.11828654 -0.17079787 -0.03301016 0.051217932 0.19703661 -0.070924774 -0.01695559 0.02987322
-0.053610306 -0.19054155 0.050718695 0.025562773 -0.016607704 -0.235599 -0.12064961 -0.11840707
-0.08923185 -0.16574213 -0.07283746 -0.011594866 -0.023775803 -0.08355458 0.056103665 -0.07551498
0.022615006 -0.117809184 0.05436879 -0.05058905 -0.016964719 0.13200767 -0.10720946 -0.045972593
0.099697635 0.05748255 -0.18716706 0.018082544 0.013204148 0.028075777 -0.13679901 0.023079947
-0.06806416 -0.035269786 0.033687774 -0.041645743 -0.0059452155 -0.05400862 -0.26338246 -0.107527964
-0.027860355 0.06686123 -0.21862398 -0.08169812 0.0101171285 0.015521092 -0.0966436 -0.04818873
-0.03794741 -0.0649033 -0.06575418 0.0011276406 0.15811205 0.029551938 -0.0030449517 0.16855863
0.03680737 -0.015206808 -0.007077354 0.0024030956 -0.0020897074 -0.022705998 0.02765753 -0.045316096
-0.03314533 -0.095339194 -0.05058619 -0.047877263 -0.040609516 0.12901866 -0.086359456 -0.038909335
0.084836096 -0.10688017 0.011690226 -0.031584546 -0.13439146 0.013494016 -0.175688 -0.084088795
-0.051147196 -0.05475466 -0.07465848 -0.006486915 -0.062546335 0.057194315 0.0022917138 0.025075182
0.11860583 -0.022965403 -0.068723895 -0.19822232 -0.111024246 -0.12781821 -0.045396898 -0.04810693
-0.03289802 -0.048454817 -0.09581931 0.008012034 -0.14918794 -0.19516139 0.042208757 0.07372644
-0.23128667 -0.05307193 -0.11144597 -0.15853634 -0.084825724 -0.047836788 0.05690973 -0.026711876
-0.0061039827 -0.051185567 -0.08758261 -0.2686369 -0.086895145 9.102638e-05 0.054820396 0.03308347
-0.003398564 -0.18411879 -0.25640345 -0.059197947 0.09105274 -0.14696592 0.093369104 -0.25116155
0.008886786 -0.09570866 0.002622424 0.12833105 0.035686262 0.06158907 -0.121997274 -0.0489389
-0.11338895 -0.07674445 -0.12232842 -0.07239201 -0.2704248 -0.029691394 -0.019824374 -0.0374349

fc3.weight f4 [256, 256]
00000000: 8954 5bbd e303 12be de9f 2abb 35b8 50bb
00000010: 2df1 e1bc e0c1 3ebd 7243 863d 03aa 473d
00000020: 1e5c 0b3c 8d80 34bc c863 d4bc 2b15 dfbc
00000030: 52b2 2b3e 0eca 973c a585 a73c f471 0e3d
00000040: 1ba7 d93d 3079 21be b017 2ebc eb9b cb3b
00000050: c5bc f43c 0978 e83b 1d44 213d 71e4 033e
00000060: 44ee dfbc 719d 943d 6d89 4bbc 9c24 ea3c
00000070: 8351 153e e9a6 0ebd 77e8 833d 8a66 3b3d
00000080: 3a91 03be 3625 7c3d eae1 91bd 83ef b23d
00000090: 9436 453d a4ed c6bd 32b2 513d d995 36bd
000000a0: d203 533d 4e1a 01bd 6542 733d bcd9 3f3d
000000b0: 6c6d 853c a3dc 7a3c 5993 bcbc e569 363d
000000c0: d2f1 2dbd 47c3 56bd d1d5 f53d 5993 32bd
000000d0: 0c35 c73d 83aa 253d b898 57bd c119 c0bd
000000e0: b97a e8bd 32ad a9bd 791e 6738 1e5a 69bd
000000f0: 70ba 243d bbcc 89bd e560 90bd 8ec9 c6bc
00000100: 83f6 e1bd 3d4d a0bd a549 83bc 5ccd 3bbc
00000110: e213 9e3c 35e2 813d 188c 02bd 0503 67bd
00000120: 1bcd 1abd f65f 16be 184a 37bb afbb bb3d
00000130: 606b f43b 74b1 2d3e aca7 0ebd 3aaf b3bd
00000140: f2e6 bcbc 1e9a 27bd a70d 933d d785 953d
00000150: d640 a5bd a6d4 383d fcb7 83bc a02a 503d
00000160: 8dee 66bd 5ac8 c7bc 6181 fb3d 7679 1e3e
00000170: a24b 9e3c d14d 4c3d e0db c03d b133 72bd
00000180: b5e8 37bc 03b3 c83c 6fe4 eb3c 1951 393e
00000190: 7de6 e93d 759f 06bd 406b 33be acff 103d
000001a0: 9dd6 6a3d d1a9 ef3c 7113 cebb da36 cabd
000001b0: 1e68 48be ee6c 4c3d d61c a5bc 4860 393c
000001c0: 6346 263d d243 923d b827 fb3c cdf1 a03d
000001d0: 3ddf 1abc 0f54 703d 9876 963d 7f62 803d
000001e0: 9237 2e3d 71a9 733d e1a4 bf3b b435 52bc
000001f0: f6f8 56bd 4d04 163d c58a 86bd 2774 c93b
00000200: d9cb 8d3c 4cc7 363c e641 1fbd b6dd 58be
00000210: 3628 1ebd 3b65 79bd e6b9 97bb 2b0a cf3c
00000220: 4e3b 2abd 4820 adbb 0bb8 123e 89d4 ae3d
00000230: ab13 c0bb 201e 803d 7d1f 2d3e 7206 48be
00000240: 3ef2 9fbc 12f5 ca3d f186 08bd 1a51 b0bd
00000250: 87a8 01bc 10c7 963d 3834 f73d b791 f63d
00000260: 3d06 243d 37a6 5bbe 16dd 533d 48a3 e5bb
00000270: 2b63 89bb 0f14 903d ccb0 623d 61ef 88bc
00000280: 10a3 183d 74c7 713c 87ea 8fbc 956a 5e3c
00000290: c200 02be 3040 df3c 55d4 293d 01fa e4bd
000002a0: b8cb 7bbd 57a4 90bd 380c 0fbc 160e 30bc
000002b0: 358f 6a3d 7e17 adbd 981a 2f3d b24a 75bd
000002c0: 0de5 963c 6733 2cbd 91ba d63d af68 5fbd
000002d0: 1960 5ebc 8cf1 a8bd 62fb 7e3d ec82 223b
000002e0: 137e 20be d4b6 fd3d 5ce6 453d 2c22 94bb
000002f0: 7805 ae3d 030b 7abd aedc 913d 6332 013e
00000300: b8e1 25bc 24da 94bc edd4 8a3c 7aac 1dbc
00000310: 3bf6 b4bc dd74 0cbe 24b4 243d eaec 3139
00000320: daf4 24be 7066 2ebd 6c7c 313d a347 653d
00000330: 613e e83d 035f 1e3d 4d1e 963d 9362 533c
00000340: 9b87 a7bd e4a6 443d 8b96 ae3d 221a b53d
00000350: 7403 dd3d 78c6 b63d 151a 723c af7a ecbd
00000360: 6825 8b3d 8de7 eb3d 6ad6 bf3d 18e2 1d3e
00000370: 357c 333d 9b9b 133d 55e4 be3d f612 3dbd
00000380: 72c5 9f3c 3b79 01bd 2352 12be c7fe b13d
00000390: 8d91 ce3d 3756 803c 7592 97bd 361e aa3c
000003a0: 8949 22bd 4ce9 dc3d 15cc 373b 9b64 973d
000003b0: dcf4 f2bd 9834 ffbd 014e ecbd 8986 1a3e
000003c0: 77fe 95bd be2d d13c 1ce1 963d bf23 aabd
000003d0: 2c8d 1cbe 0716 55bb 23c7 60bd 3bd9 143c
000003e0: 9c96 f9bc d720 ddbb 3467 263e 6c94 a03d
000003f0: cf56 843c c1a3 2b3d 6c05 8dbd 9b86 34bc
-0.053547416 -0.14259295 -0.002603523 -0.0031848077 -0.027580822 -0.046571612 0.06555833 0.04874612
0.008505849 -0.011016977 -0.025926486 -0.027231773 0.16767243 0.018528964 0.020449469 0.034776643
0.10627576 -0.15768886 -0.010625765 0.006213655 0.029875169 0.0070943874 0.0393716 0.12880112
-0.027335294 0.07256592 -0.012422902 0.02858191 0.14581876 -0.034827147 0.064408235 0.045752086
-0.12848368 0.061558925 -0.07123168 0.087370895 0.048147753 -0.09713295 0.05119533 -0.0445765
0.051517315 -0.031519227 0.05938949 0.046838507 0.016287528 0.015311393 -0.02301948 0.044534583
-0.042466946 -0.052432325 0.12003673 -0.043597553 0.09726915 0.040445816 -0.05263588 -0.09379912
-0.113515325 -0.082849875 5.510307e-05 -0.056970708 0.040216863 -0.06728502 -0.07049731 -0.02426603
-0.110333465 -0.07827232 -0.016026327 -0.011462536 0.01929659 0.06341974 -0.031871885 -0.056399364
-0.03779326 -0.14685044 -0.0027967747 0.09166657 0.007459089 0.16962224 -0.034827873 -0.08773656
-0.023059342 -0.040918462 0.07180338 0.073009185 -0.08069007 0.045124672 -0.016078942 0.0508219
-0.056379844 -0.024387527 0.122805364 0.15476021 0.019323174 0.0498789 0.09416938 -0.059131328
-0.011224915 0.024499422 0.028795449 0.18097343 0.11420915 -0.032866914 -0.17521381 0.035400078
0.057333577 0.02925578 -0.0062889387 -0.09873743 -0.19570968 0.04990857 -0.020155352 0.011314459
0.04059447 0.07141842 0.030658588 0.0785862 -0.009452638 0.058673915 0.07346839 0.06268787
0.042533465 0.059487764 0.0058485125 -0.012830187 -0.05248352 0.036625195 -0.06569437 0.0061478796
0.017309116 0.0111559145 -0.038881205 -0.21178326 -0.038612567 -0.060887557 -0.004630315 0.025273403
-0.041560464 -0.0052833892 0.1432802 0.085366316 -0.0058617196 0.06255746 0.16906543 -0.19533709
-0.01952469 0.09910025 -0.033331815 -0.08609219 -0.007913715 0.07362187 0.12070507 0.12039512
0.04004501 -0.21450125 0.051724516 -0.00700799 -0.00419273 0.07035076 0.055344388 -0.016715707
0.037264884 0.014757026 -0.017567886 0.013575216 -0.12695602 0.027252287 0.04146226 -0.11180497
-0.06147358 -0.07062595 -0.0087309405 -0.010745546 0.05726548 -0.084517464 0.04274997 -0.059885688
0.018419767 -0.04204121 0.104848035 -0.054543193 -0.013572716 -0.082491964 0.062251456 0.0024797274
-0.15673093 0.12388387 0.04831539 -0.004520675 0.08497137 -0.061045658 0.071221694 0.12616877
-0.010124616 -0.018170424 0.016947234 -0.009623641 -0.022090068 -0.13716455 0.040210858 0.00016968293
-0.16109028 -0.04257816 0.04333155 0.05597652 0.11340023 0.03866483 0.07329998 0.01290192
-0.081801616 0.04801072 0.085248075 0.08842875 0.10791674 0.08924574 0.014776726 -0.115468375
0.06794244 0.11518774 0.09367068 0.15418279 0.043819625 0.03603707 0.09320895 -0.04616066
0.019503329 -0.031609755 -0.14289145 0.08691173 0.10086355 0.01566611 -0.07400981 0.020766359
-0.03962091 0.10786685 0.0028045226 0.07392236 -0.118631095 -0.12461203 -0.115383156 0.15090384
-0.07323926 0.025534507 0.07367155 -0.08307599 -0.15288228 -0.003251435 -0.05487741 0.009084995
-0.030467324 -0.0067482996 0.16250306 0.07840809 0.016154675 0.041904215 -0.068858 -0.011018421

fc3.bias f4 [256]
00000000: cf6d d5bd 0103 aebd 3500 9fbc 4d68 083c
00000010: 36f5 063d e673 9a3c eff1 dfbd 5c01 f73d
00000020: 1ca6 5a3b 16ae fdbc b52c d9bd cbe2 a0bd
00000030: 4251 883d 91f1 cf3d 251b 9fbd cf50 a0bd
00000040: 797b 8f3d 239e f63d 68c6 d83d 5385 b7bd
00000050: 5c38 1abd 74a5 d43d f9e7 f7bd f968 6ebd
00000060: 1820 c53d 84c2 f83d 6b9a d43d 97da e43d
00000070: 50b9 9abd 7fd0 ad3d dd4c a13d 7dbc 233c
00000080: e861 e03d 0a44 ff3d 1974 c33c 3297 c43c
00000090: b92f 013e de3a 973d f648 9a3c dbf0 9e3c
000000a0: b2f3 39be 04ea e3bd c453 02be e378 723d
000000b0: ad61 bc3d e4a8 37bd af04 6dbd 754e 903d
000000c0: 1c7f 9a3d f6f8 bb3d ce47 513c 595e 9b3d
000000d0: 65a8 873d d769 073e 7193 863d 9559 103c
000000e0: 4f30 4ebe bb6f 99bd a66e df3c 8025 be3d
000000f0: 7b9b c3bd 7652 1cbe 51f5 cf3c 125f abba
00000100: dfad 85bc 6821 5b3c 87c1 00bd 507f 3d3d
00000110: ca9b c63c 7308 4dbd 3d69 253d 66d8 bbbd
00000120: 9e12 23bd 71fb ad3d f8e6 903d 3a51 9fbd
00000130: 1ed6 b93d df4f b2bb e0d9 ad3c 5bbd d7bd
00000140: 16ad 683d b3f6 a03d f642 2c3b 0b80 9ebd
00000150: 11a8 0ebe 4ddc 68bd 217f af3d 8e1c 8d3d
00000160: f791 613d 1c28 8ebd d53e e63d 28e2 15bd
00000170: 874b efbc aab5 69bd 6c82 8b3b 83c7 4fbd
00000180: a3f3 18be 44fd b13d 32b0 0cbd c85c 84bd
00000190: 0b59 a03d 2326 213c abdf cd3d 32a8 973d
000001a0: 31fa 5c3c 5ac0 83bd 276e 6d3d e0e8 25bd
000001b0: 707f 62bc 7db8 a4bd 23e6 e73d 2922 b33c
000001c0: e00e 42bd 4b09 683d b74f 4cbb e3ab ecbc
000001d0: 3456 57bd 12a3 b5bc 0df8 f93d 1bc6 3d3d
000001e0: 15fb 8e3d fcf0 e6bd ac5b e73d a9c9 ddbd
000001f0: a934 0b3d 9690 2c3d 4571 8d3d 982e a63d
00000200: 2b1d c03b d53a 933d fd8d 95bd 9af7 463d
00000210: 1d21 943d bbdb f43d b3eb f2bc b18f 15bb
00000220: 87d8 85bd d96d bcbd 90ac d93d 1234 ff3b
00000230: 4972 9f3b cbe7 cd3c b25b 323c aa0d 9fbc
00000240: 695d d3bc b7a8 913d 2bc1 5b3c 1218 e53d
00000250: 50d7 b33d 50c9 023e 2c4c f23c 5812 32bd
00000260: 207b dabd c725 123b 40bb 8bbd 9485 893d
00000270: 63a8 403d 0f2e 513d 7f9e e4bc b236 0ebd
00000280: 5787 d6bd 0325 01bd df56 8e3d a338 a03b
00000290: 0fc8 e73d a422 b43c 358b 863c 4565 98bd
000002a0: 9977 9cbd 6f29 c839 a8b7 53bd 9db4 1e3c
000002b0: b4ff 00be 540c cdbd 0be9 973d 0c88 a0bd
000002c0: d93c f9bc 2b48 5d3d 80cd ea3c 2a45 acbd
000002d0: 0e04 aabd 2e95 95bd e466 bf3d ff39 873c
000002e0: 9d8b 6a3d a3ee db3c 503b 1dbc f256 963d
000002f0: dc80 0b3d cebb f7bb 8c5e adbd 2349 ed3d
00000300: 4506 af3d f5b5 023d c407 99bd 2238 943d
00000310: 8360 cb3d c6d8 913d 5bdb 0fbd f053 c73d
00000320: 55ea 9d3d 574b 883d 1011 5abd 62da 213c
00000330: a655 85bb 96fa a4bd 8165 bcbb 83fd 5a3d
00000340: 0251 9fbd 914d e03d 25de febd 85cd 69bd
00000350: 6fcf 89bd 8457 d73d d680 aa3c b804 283d
00000360: d54f 07be 4748 a33c 6a8d c63d f23d 25be
00000370: e328 9e3c 63e1 d53d 13b0 f23d a34b d6bd
00000380: 889f c73d 7b5f e23c 5543 92bc 124e cd3d
00000390: 81c6 b33c ae32 4a3c ad64 c63d bd7b 583c
000003a0: 95a8 a6bd 80d2 92bc 7a8f b8bd 648a ae3d
000003b0: 1d60 0fbd 9302 abbd bacd 633d 2247 dfbc
000003c0: ecf6 843c b97e 9ebd a531 f2ba 898c 9cbc
000003d0: 5a26 80bd eb3c 0fbd 041f 9b3a 9d87 303d
000003e0: 89c2 3cbd 3cf6 893c ec6a 343d 6072 53bd
000003f0: d661 53bd c60a 503d 21c5 c5bd d6cd debd
-0.10421335 -0.08496667 -0.019409278 0.0083256485 0.032948695 0.018854093 -0.10934817 0.12060806
0.003336317 -0.0309668 -0.1060423 -0.07855757 0.06656124 0.10153497 -0.07768849 -0.07827913
0.070059724 0.12041881 0.10584718 -0.089609765 -0.037651405 0.1038312 -0.12104792 -0.05820558
0.09625262 0.12146476 0.103810154 0.11174505 -0.07554877 0.08487033 0.07875989 0.00999367
0.10956174 0.12464149 0.02385907 0.023997877 0.12615861 0.07384275 0.018833619 0.019401958
-0.18159369 -0.11128619 -0.12727267 0.059197318 0.09198318 -0.0448388 -0.057865795 0.070462145
0.075437754 0.09178345 0.012773467 0.07586355 0.066239156 0.13223968 0.06571091 0.0088104205
-0.20135616 -0.07492014 0.027274441 0.09284496 -0.0955114 -0.15265831 0.02538553 -0.0013074598
-0.01631826 0.013374664 -0.031434562 0.046263993 0.024244208 -0.050056886 0.040383566 -0.09172134
-0.039812677 0.08495224 0.07075304 -0.077791646 0.09074043 -0.0054416503 0.021222055 -0.105341636
0.056805693 0.07859554 0.002628503 -0.07739266 -0.139313 -0.05685072 0.0856917 0.06890212
0.055070844 -0.06941244 0.11242453 -0.036592633 -0.029210819 -0.057058014 0.004257491 -0.05072738
-0.1493669 0.08690885 -0.03434772 -0.06463009 0.078294836 0.009835753 0.10052427 0.074051276
0.013487385 -0.064331725 0.057966378 -0.04050529 -0.013824329 -0.08043001 0.11323192 0.021866875
-0.047377467 0.056649487 -0.0031175443 -0.028890556 -0.052572444 -0.022172485 0.12205515 0.046331506
0.06981484 -0.11276433 0.11296782 -0.10829479 0.033985768 0.042130075 0.0690637 0.08114356
0.005862852 0.07188956 -0.07302473 0.048575975 0.07232878 0.11955973 -0.029653406 -0.0022821242
-0.0653544 -0.09200639 0.10628617 0.0077881897 0.004865919 0.025134942 0.01088612 -0.019415695
-0.025801377 0.07112258 0.013412754 0.11186232 0.08781302 0.12772107 0.029577337 -0.043474525
-0.106680155 0.002230035 -0.068228245 0.06714931 0.047035586 0.051069316 -0.027907608 -0.03472013
-0.10475033 -0.031529438 0.06950163 0.004889564 0.11317455 0.021989174 0.016423801 -0.07441191
-0.07639999 0.00038177843 -0.05168882 0.009686616 -0.12597543 -0.10012117 0.07417496 -0.07838449
-0.030424522 0.054023903 0.028662443 -0.084116295 -0.083015546 -0.073038444 0.09345797 0.016507147
0.05726205 0.02684719 -0.009596661 0.07340802 0.034058437 -0.00756023 -0.08465299 0.11586215
0.08546118 0.03191181 -0.07472184 0.07237269 0.099305175 0.071214244 -0.035121303 0.09732807
0.07710711 0.06654995 -0.05323893 0.009878727 -0.004069048 -0.08055608 -0.005749405 0.053464424
-0.07779123 0.109522946 -0.124447145 -0.057080764 -0.06729018 0.10514739 0.020813387 0.041020125
-0.13214047 0.019931925 0.09694941 -0.16136912 0.019306606 0.1044338 0.1184999 -0.10463645
0.09747225 0.02763342 -0.017854372 0.10024656 0.02194524 0.012341185 0.09687171 0.013213095
-0.08137623 -0.01792264 -0.09011741 0.0852249 -0.03500377 -0.083501 0.055616118 -0.027255598
0.016231023 -0.07739014 -0.001847793 -0.019109981 -0.06257315 -0.034970205 0.0011834805 0.04309808
-0.04608396 0.016841047 0.04404728 -0.05162275 -0.051606975 0.050791524 -0.0965674 -0.10879104

action_out.weight f4 [4, 256]
00000000: 1487 4f3a b037 72bb 82d1 2e3d 4c35 a83c
00000010: 4b7c 51bc db7d 89bc 4465 8e3c 3d51 11bd
00000020: 2f71 97bd b7b4 f53d afbc 24bd 6a42 c8bc
00000030: 5ec8 393d 9d49 13bd 8bf5 183d 0310 9cbc
00000040: e200 1a3d 94ef 2e3c a735 4ebc c17f 1fbc
00000050: 98fd 1bbd 45eb 353e 4eaa 6dbd 403b 12be
00000060: 3679 d4bd 258b 4d3c d2e4 49be 8ff3 14bd
00000070: 9a47 583d 19a2 bb3d d6ee f93b 2e01 2dba
00000080: 9546 073e bdf3 2dbd abff 213d 0c31 f6b7
00000090: a30c 63ba 035b c73d 149c f3bd 1c4c c8bb
000000a0: ea9c 4ebe f4bb 383b c9bc 49bd e5be 64bc
000000b0: 9475 1abc d5d1 fa3c 0408 1fbd 83e7 4f3a
000000c0: 6ad7 30be e6d5 4dbd 31da 28bd c25c bd3d
000000d0: 6112 a7bc d54f 53be 1ce9 1abc 4606 21bd
000000e0: 1dcf cb3d 1392 443d 6d7e 8cbd ec79 933d
000000f0: e1fa 09bd f473 393f c2d7 f9bc 74f6 15bc
00000100: 1bf0 903c 6a68 5e3d 6d98 cc3c 2eae b13d
00000110: fe33 4f3c 0382 653a f25f 213d 36dd ba3c
00000120: ec4c b2bb 0aa7 b03d 706d 0e3e b040 eabc
00000130: a2fa 1dbd b227 93bb e05c a53d 6b8a 863c
00000140: da2a 823c 2ca8 7f3d 8094 2bba 3718 bd3c
00000150: 3073 38bd 4687 92bc 7323 a9bc 0058 2e3d
00000160: 6b84 a6bd 68e2 293d e350 193d 41af df3d
00000170: 601b 933c 52f7 4fbd 1b53 84bc e80f 163c
00000180: ecf8 6b3f 20ff 8d3d bb36 9b3b 6aed 693d
00000190: 5a48 823c eb89 d33b 33a8 aabd abdb 453c
000001a0: 52c5 e3bd 5d8d 93bf bf4f 3abd 072b 45bc
000001b0: 0587 1c3d 788b 00bf 7a68 053c c020 8a3d
000001c0: e389 89bc 6ece 023b e7e4 243d 3786 acbd
000001d0: 859b b33c b321 4d3d b386 343e 05b8 14bd
000001e0: 40e0 d03d 9fa3 5ebd c697 23bd 21ad 22be
000001f0: 93f1 21be b3d1 b2ba 0077 08be 504a 4abd
00000200: 64ef 103c bca2 ed3d 081c 503d 2d2e 403b
00000210: 639a 2dbd 6fb0 483d b5d9 9f3d f79b 52bc
00000220: 9c66 1abd efed b03d 1c3a c6bb 6dd9 373c
00000230: 7e18 bd3b ecad ac3c d5a1 3fbd 90ba 1bbd
00000240: 4136 053b bf18 f0bd b06a 03bd 054f 09bd
00000250: 4e7a 0c3d f091 8ebd 24b2 173d 75f2 5dbc
00000260: e748 a03f b1ad 013d 587e b3bc c1aa 093e
00000270: b5ef 3fbd 763c 8dbd e9c8 07bd 040a b23c
00000280: 5d48 08bd b5d2 a93c ef83 b0bd 4e89 f2bc
00000290: 4334 af3d dbe7 0d3e 1fe3 d93d 0d5c 0fbe
000002a0: b4df 983d ebe3 a8bd 0cf3 213c fa57 823c
000002b0: 1dfb 963d 6f9a 003d 9736 e3bd 267c 303d
000002c0: 3372 093b c880 1c3e e10e c23c e600 6ebd
000002d0: 0563 f4bc 514d 8ebc 8e40 0fbd 2ef2 7fbc
000002e0: f210 d1bb 9d2d dbbb dcc3 36bc adcb 16bd
000002f0: 1859 0abe 131a 2abd de2b 6ebd 1bdf 4f3e
00000300: 8267 4e3d b0e5 afbd ee94 a8bc 1ad2 08be
00000310: 7e3b 18bd 9b9f e4bd 86ae 0a3e eea9 0b3e
00000320: 2f65 553c 65fb 1b3e 2a68 db3b bdf8 3b3d
00000330: 3c20 473c d274 843d a1a9 5b3d 1bf8 1a3c
00000340: 6d24 bebd be9d 543c 45b5 1a3e 05ae 543e
00000350: a73d 5f39 e549 4abe 7565 16bd 687e cc3d
00000360: a73d 443c 7071 8dbd b00b 353e 936d e83a
00000370: 1f02 9fbd 6de6 d3bd c7d8 eebc 37ae b1bd
00000380: 6963 e5bd 924c da3c 0f0b 3bbd c9a6 043d
00000390: ed29 833d d3a9 eab9 029b 9abc 00b2 fcbb
000003a0: 0a98 bf3d 945b d3bd 3c78 16bb cacb c1bc
000003b0: 6e86 98bc 3699 ffbd 49d3 a5bd 8435 5d3c
000003c0: fafb 0e3b d4df 08bd c0ef 783c 1dc4 4bbe
000003d0: 83bb 87bd 6b9e 663b 8d5c 443c cccd 373d
000003e0: 8b07 4a3c 8032 063b 74ff a23d 7cbd 563b
000003f0: b39e c7bc 3824 74bd bcd0 acbb fbba a03d
0.00079165515 -0.0036959462 0.04268027 0.020533226 -0.012785981 -0.016783645 0.017382272 -0.035477865
-0.07394635 0.11997359 -0.040219005 -0.024445731 0.0453571 -0.035958875 0.037343543 -0.019050604
0.0375985 0.010677237 -0.012586034 -0.009735049 -0.038083643 0.1776553 -0.058023743 -0.14280415
-0.10374682 0.012545382 -0.19716194 -0.036365088 0.05280266 0.09161777 0.0076273484 -0.0006599602
0.13210519 -0.042468775 0.039550465 -2.9348324e-05 -0.0008661246 0.09734156 -0.11895004 -0.0061125886
-0.20177045 0.00281882 -0.049252305 -0.013961528 -0.009427447 0.030617634 -0.038826004 0.0007930921
-0.17269674 -0.050252818 -0.04122371 0.09246208 -0.020394506 -0.20635922 -0.009454992 -0.039312623
0.09951613 0.04799087 -0.06860051 0.07200989 -0.033686522 0.72442555 -0.03049839 -0.009152997
0.017692616 0.054298796 0.024975026 0.086758 0.012646673 0.000875503 0.03939814 0.02281056
-0.0054412987 0.0862561 0.13908935 -0.028595299 -0.0385691 -0.004490816 0.08074355 0.016423425
0.015889574 0.06241624 -0.00065452605 0.023082836 -0.045031726 -0.017886769 -0.020646786 0.042564392
-0.081307255 0.041475683 0.037430655 0.10922099 0.01795739 -0.050772972 -0.016152909 0.009159066
0.921767 0.06933427 0.004736749 0.05711118 0.01590364 0.00645565 -0.08332863 0.012076299
-0.1112162 -1.1527516 -0.045486208 -0.012034184 0.038214702 -0.5021281 0.008142585 0.06744528
-0.016789382 0.0019959467 0.04025736 -0.08424037 0.021924743 0.050080966 0.17629509 -0.036308307
0.10199022 -0.05435526 -0.039939664 -0.15886356 -0.1581481 -0.0013642818 -0.13326645 -0.049387276
0.008846138 0.11603305 0.050807983 0.0029324398 -0.042383563 0.048996385 0.07805196 -0.012854568
-0.037695512 0.08639132 -0.0060494076 0.011221272 0.005770742 0.021079026 -0.046785194 -0.038019717
0.0020326527 -0.1172347 -0.032084167 -0.033522625 0.034296326 -0.06961429 0.037035123 -0.013546576
1.2522248 0.031659786 -0.021910831 0.13444044 -0.04685946 -0.06896298 -0.033150587 0.021733291
-0.033272136 0.020730356 -0.08618914 -0.029606488 0.0855489 0.13857977 0.10639023 -0.13999958
0.07464543 -0.08246597 0.009884607 0.015911091 0.07372115 0.03139728 -0.110943966 0.043087147
0.002097261 0.15283501 0.023688735 -0.058106326 -0.029832372 -0.017370852 -0.034973674 -0.015621705
-0.006380194 -0.006688787 -0.011155095 -0.036815334 -0.13510549 -0.041528773 -0.058147304 0.20299952
0.05039168 -0.08588731 -0.020578828 -0.13361397 -0.03716611 -0.11163255 0.13543138 0.13639042
0.013024612 0.15232618 0.006695767 0.045891512 0.012153681 0.06467594 0.053628568 0.009458567
-0.092842914 0.012977062 0.15108211 0.20769508 0.00021289905 -0.19754751 -0.03671785 0.099850476
0.01197759 -0.06906402 0.1768024 0.0017732851 -0.077640764 -0.103466846 -0.029156102 -0.08675807
-0.112006016 0.02664784 -0.045664843 0.03238562 0.06404481 -0.00044758487 -0.018872742 -0.007711649
0.09355171 -0.103202015 -0.002295985 -0.023656745 -0.018618789 -0.124803945 -0.0809694 0.013501529
0.002181767 -0.033416584 0.01519388 -0.1989903 -0.06627562 0.003518964 0.011984956 0.044873998
0.0123309 0.0020476878 0.0795888 0.003276675 -0.024367666 -0.059604853 -0.0052739065 0.07848164

action_out.bias f4 [4]
00000000: de43 dd3c 54be 45bc 7039 f83b 7c96 923a
0.0270099 -0.012069304 0.0075752065 0.0011183764
