mujoco_project/saved_models/FetchReach-v1/model.pt (torch_old, 546597 bytes, 8 tensors)

fc1.weight f4 [256, 13]
0.05762393 -0.12287747 0.112398334 0.4638442 0.12253571 0.016283117 -0.003359566 0.036689624
-0.041686434 0.21213953 -0.029584836 0.10747614 -0.08234593 -0.4849369 0.07286623 -0.19120583
-0.0017349045 0.38690764 -0.011370372 0.020226711 -0.005616505 0.08336214 0.028986936 0.61881447
-0.07652366 0.16831279 0.05742786 0.31243324 0.4787962 -0.33485907 0.1653758 -0.012666151
-0.033985704 -0.0068084477 0.055697314 -0.19287926 -0.028448 -0.3808839 -0.5455521 -0.273801
-0.11384835 -0.29943773 0.2859259 0.5509882 -0.0021264632 0.017833935 -0.026676947 -0.0038766013
0.0050691115 0.26134056 0.19160731 0.32948264 0.42014965 0.37835497 0.15675446 0.059443034
0.117211595 -0.010202222 0.024586005 -0.001354813 0.028964287 0.06575505 -0.45805278 -0.41780698
-0.1985626 -0.075488836 -0.12863797 0.44930634 -0.34845376 0.063278645 0.006142225 -0.012821584
0.018044133 -0.036436573 -0.043685924 0.051167987 0.1496843 -0.49506566 -0.25951812 0.15125781
0.4610454 -0.08761643 -0.031354725 0.023286436 0.0055856565 0.01781141 -0.073285654 0.14983158
0.28587607 -0.13396391 -0.47492072 0.4396333 -0.030825932 0.5221462 -0.008442652 0.13936539
0.027655253 0.011921724 0.0002729626 0.11073102 0.0005072959 -0.4893088 0.01582582 -0.5627787
0.06280046 -0.08425853 0.3723579 0.39474642 0.28610364 -0.0103224665 0.051941097 0.057045937
0.13749343 -0.28032348 -0.010969739 0.07771087 -0.32180232 0.044063903 -0.16084461 -0.046158023
-0.028478412 0.16084564 0.044261508 0.0036050435 0.03626902 -0.08546917 0.44399762 0.045824014
0.17560501 -0.21834253 -0.120255 0.41180137 -0.061016627 0.23329726 0.3472491 0.001686265
0.023821319 -0.012197393 0.029656228 -0.37326702 0.13762498 -0.48255464 0.07814989 0.061505686
-0.123478875 -0.4464127 -0.15099736 0.048548196 0.011914336 -0.0037211168 -0.016646191 -0.130368
0.059392393 -0.065679744 0.123177625 0.53910226 -0.0477516 -0.2661486 -0.47437918 0.1739948
0.065860264 -0.03591499 -0.023427451 -0.012006477 0.05368571 -0.004514297 0.03734025 0.33280715
0.52509874 0.18931925 0.11855502 -0.27857342 0.017558819 0.056012403 0.0032702729 0.028529927
-0.00036831162 0.043730434 0.27019417 -0.2578704 -0.03986337 0.3282245 -0.0007426352 -0.4701267
0.0060789348 0.094362855 0.011093191 -0.01351857 -0.004264674 -0.013034579 -0.011594733 -0.10644219
0.0026201732 0.51809216 -0.041998085 -0.110672414 0.13720854 -0.12560633 -0.08156646 -0.25604856
0.00345172 -0.020163594 -0.00806051 -0.17975041 -0.042430624 0.13387758 -0.17891014 0.046535354
-0.03082985 0.00746526 0.06764573 -0.095325746 0.04316796 -0.006561526 0.005686217 0.0085107675
0.05847919 -0.16929753 0.038236648 -0.031245383 -0.06368206 -0.16483326 0.38100073 -0.2018936
0.25605965 -0.18807687 0.005171826 -0.015387594 -0.03774122 -0.14452986 0.16439918 0.19986232
-0.45888993 0.19774869 -0.24795227 -0.33707535 0.32919377 0.029193303 -0.22544314 0.009047375
0.01506322 0.020254353 0.002426878 0.040302113 0.25596485 0.4060698 -0.3648379 0.21147145
-0.06436735 -0.1434101 0.8144352 0.48364925 0.031375963 -0.004706672 0.068054184 -0.045551207
00000000: 1207 6c3d 2fa7 fbbd 1931 e63d fd7c ed3e
00000010: 01f4 fa3d 2c64 853c 2a2c 5cbb dc47 163d
00000020: 65bf 2abd 1b3b 593e e65b f2bc 731c dc3d
00000030: fca4 a8bd a649 f8be e43a 953d 76cb 43be
00000040: bc65 e3ba c218 c63e cc4a 3abc 7db2 a53c
00000050: a90a b8bb c5b9 aa3d 0376 ed3c a06a 1e3f
00000060: 70b8 9cbd 305a 2c3e 7a39 6b3d 40f7 9f3e
00000070: c724 f53e a672 abbe 4658 293e b085 4fbc
00000080: 9834 0bbd 6619 dfbb de22 643d 2482 45be
00000090: c80b e9bc 3703 c3be 4da9 0bbf a52f 8cbe
000000a0: 5329 e9bd e74f 99be e164 923e 900d 0d3f
000000b0: 225c 0bbb 7918 923c 9d89 dabc 940e 7ebb
000000c0: ca1a a63b 6ece 853e b534 443e f3b1 a83e
000000d0: db1d d73e beb7 c13e 3e84 203e 8a7a 733d
000000e0: a20c f03d 3827 27bc 9768 c93c fb93 b1ba
000000f0: 8346 ed3c 95aa 863d e585 eabe ccea d5be
00000100: ff53 4bbe e499 9abd acb9 03be 7b0b e63e
00000110: 8868 b2be 3c98 813d b844 c93b 9f11 52bc
00000120: 4ad1 933c 843e 15bd 03f0 32bd 8695 513d
00000130: d746 193e 3f79 fdbe 8fdf 84be 54e3 1a3e
00000140: 250e ec3e 3e70 b3bd d06d 00bd 32c3 be3c
00000150: e207 b73b 3ce9 913c ca16 96bd 736d 193e
00000160: 595e 923e d62d 09be cf28 f3be 9e17 e13e
00000170: aa86 fcbc 60ab 053f 0d53 0abc cdb5 0e3e
00000180: 458d e23c 5653 433c 6c1c 8f39 f2c6 e23d
00000190: 0dfc 043a af86 fabe 26a5 813c 4412 10bf
000001a0: 879d 803d bc8f acbd b2a5 be3e 341c ca3e
000001b0: 2d7c 923e 901f 29bc 30c0 543d 00a9 693d
000001c0: 14cb 0c3e 8f86 8fbe 6cba 33bc e026 9f3d
000001d0: 46c3 a4be 5a7c 343d 73b4 24be 3210 3dbd
000001e0: 8f4b e9bc b8b4 243e 8e4b 353d 9842 6c3b
000001f0: d38e 143d 760a afbd a853 e33e f6b1 3b3d
00000200: cdd1 333e 2f95 5fbe 4148 f6bd a1d7 d23e
00000210: 92ec 79bd 7ae5 6e3e a2ca b13e aa05 dd3a
00000220: ed24 c33c 93d7 47bc 9ef1 f23c db1c bfbe
00000230: 90ed 0c3e 6711 f7be 0d0d a03d 63ed 7b3d
00000240: 7ee2 fcbd 3590 e4be 0d9f 1abe 79da 463d
00000250: 5934 433c fbdd 73bb 985d 88bc 307f 05be
00000260: 7045 733d 1a83 86bd 8d44 fc3d 9b02 0a3f
00000270: 2f97 43bd a144 88be d4e1 f2be b12b 323e
00000280: bfe1 863d 991b 13bd edea bfbc d1b6 44bc
00000290: 8ce5 5b3d abec 93bb 17f2 183d b365 aa3e
000002a0: df6c 063f e8dc 413e f9cc f23d 2da1 8ebe
000002b0: 83d7 8f3c 436d 653d 1352 563b 98b7 e93c
000002c0: f319 c1b9 af1e 333d e456 8a3e 9707 84be
000002d0: c647 23bd 0b0d a83e 68ad 42ba 72b4 f0be
000002e0: cd31 c73b 5041 c13d 37c0 353c fe7c 5dbc
000002f0: aebe 8bbb fd8e 55bc d6f7 3dbc 5dfe d9bd
00000300: 36b7 2b3b b0a1 043f 2f06 2cbd 38a8 e2bd
00000310: 6580 0c3e f29e 00be 510c a7bd cc18 83be
00000320: 4136 623b 1f2e a5bc 3b10 04bc 7e10 38be
00000330: bccb 2dbd 3417 093e 3834 37be db9b 3e3d
00000340: e28e fcbc 249f f43b d889 8a3d 253a c3bd
00000350: e3d0 303d 1202 d7bb 7253 ba3b bf70 0b3c
00000360: e087 6f3d 555c 2dbe 089e 1c3d 51f6 ffbc
00000370: bd6b 82bd 0dca 28be 8712 c33e 32bd 4ebe
00000380: 401a 833e 3997 40be 6c78 a93b 3f1c 7cbc
00000390: 8a96 1abd a3ff 13be 4258 283e b5a8 4c3e
000003a0: 9ff3 eabe a27e 4a3e 33e7 7dbe 2495 acbe
000003b0: 168c a83e cb26 ef3c 91da 66be 713b 143c
000003c0: b9cb 763c 75ec a53c 420c 1f3b d413 253d
000003d0: d30d 833e 61e8 cf3e 09cc babe f98b 583e
000003e0: 07d3 83bd 19da 12be d37e 503f e0a0 f73e
000003f0: 1584 003d 6d3a 9abb fe5f 8b3d e793 3abd

fc1.bias f4 [256]
-0.32750285 -0.3427024 -0.21610855 -0.23067154 -0.30209193 -0.28583503 -0.25692582 -0.19795771
-0.26221418 -0.49854988 -0.28639746 -0.35171786 -0.20846626 -0.35303858 -0.3153848 0.24628444
-0.17310162 -0.27000156 -0.2016283 -0.4533761 -0.39871398 -0.30876446 -0.09371181 -0.4181089
0.12462846 -0.24411236 -0.35814318 -0.24222486 0.120680265 -0.3248334 -0.5102492 -0.4567592
0.0998452 -0.19631107 -0.25886446 0.4389495 -0.37473586 -0.33578002 0.3763181 -0.26836702
-0.24206182 -0.30742264 -0.26743025 -0.2847952 -0.11758994 -0.2673923 -0.40757546 -0.31132635
-0.5438956 -0.17537175 -0.3962699 -0.19074738 -0.2769943 -0.2600568 0.3586137 -0.4700534
-0.3649201 -0.2005682 -0.3665196 -0.28203213 0.48415536 -0.5688715 -0.4073779 -0.31120512
-0.24783354 0.47179395 -0.21976835 -0.38585913 0.47611943 -0.32811555 -0.17527066 -0.45750558
-0.22104478 -0.269016 -0.47879618 -0.2668969 -0.20260376 -0.2994667 -0.56493604 0.13333464
-0.44997 -0.45329714 0.15904059 -0.27997133 0.29984397 -0.30078894 -0.21309142 -0.24047744
-0.25331983 -0.35779297 -0.37758076 -0.29817748 0.48033884 -0.2862156 -0.26208764 -0.24967724
0.06577109 -0.32326484 -0.3032251 -0.3865497 -0.30293763 -0.5327407 -0.056974508 0.51842993
-0.27450213 -0.24250615 -0.5030348 -0.22801332 -0.23170738 0.13653038 0.18916579 -0.2635381
-0.2106878 -0.37991127 -0.2723446 -0.2934901 -0.20187068 -0.26280457 -0.28325933 -0.24781306
-0.1401387 -0.34453833 0.32073718 -0.22866847 -0.25601432 -0.17607982 -0.20778745 -0.34199613
-0.25746682 -0.2010558 -0.32212022 -0.21719816 -0.31037155 -0.15774623 0.40870327 -0.29383886
-0.3968331 -0.24115743 -0.21201694 -0.17981191 -0.29897285 -0.31778648 -0.3185705 -0.3206707
0.3340049 0.4265529 -0.40312895 -0.1648885 -0.33917427 -0.23707388 -0.15276062 -0.2943463
-0.19339198 -0.31605563 -0.2437586 -0.29833344 0.42320696 -0.27139673 -0.30689174 -0.23046297
-0.31370887 -0.27007362 -0.2904067 0.31695372 0.3865329 -0.27360857 -0.3356922 0.34362674
-0.2351531 0.14037123 -0.33687058 -0.1875765 -0.48652336 0.38109875 -0.24076696 -0.20270048
-0.28129295 -0.30788788 -0.25760287 -0.22126406 -0.37626708 0.40779835 -0.019546311 -0.269284
-0.19054468 -0.23701245 -0.31608602 -0.19411255 -0.32163766 0.45939234 -0.26648405 -0.32243687
-0.17681077 -0.24167481 -0.25607324 -0.22084546 -0.32293108 -0.31679493 -0.18738425 -0.20333852
0.3585776 -0.15790613 -0.38159192 -0.062934324 -0.3017381 -0.33651146 -0.41200253 -0.49701986
-0.39516652 -0.5288769 0.43890467 0.3559102 -0.22219504 -0.3526382 -0.27881622 -0.2735718
-0.2766971 -0.2839151 0.47478107 0.12541674 -0.35627505 -0.17249459 0.55695856 -0.3901136
-0.20352374 -0.26526693 -0.31165296 0.49836597 0.17120647 -0.30134055 -0.3052794 -0.18476768
-0.2034194 -0.21185997 -0.31745803 -0.22520974 -0.25426623 -0.3089148 -0.21969643 0.3538403
-0.2132055 -0.4753515 -0.44441536 -0.22136435 -0.28452423 -0.30891135 -0.308232 0.3301505
-0.26506835 -0.3421332 -0.25615624 -0.1989474 -0.21591409 -0.2831189 -0.20961268 -0.2547844
00000000: 74ae a7be b076 afbe 8f4b 5dbe 2935 6cbe
00000010: cbab 9abe f858 92be c88b 83be 6db5 4abe
00000020: f040 86be ee41 ffbe b0a2 92be 5d14 b4be
00000030: 2e78 55be 79c1 b4be 1e7a a1be fd31 7c3e
00000040: 8d41 31be a53d 8abe a677 4ebe ea20 e8be
00000050: 3d24 ccbe 6016 9ebe faeb bfbd 5f12 d6be
00000060: 353d ff3d 97f8 79be 8b5e b7be cb09 78be
00000070: 3727 f73d 9050 a6be b19f 02bf 58dc e9be
00000080: a47b cc3d c505 49be e289 84be fdbd e03e
00000090: 61dd bfbe 5ceb abbe c4ac c03e 6767 89be
000000a0: 0edf 77be 8066 9dbe 9eec 88be add0 91be
000000b0: ffd2 f0bd a5e7 88be bbad d0be 2b66 9fbe
000000c0: be3c 0bbf a794 33be e3e3 cabe 4853 43be
000000d0: 32d2 8dbe 2a26 85be 379c b73e d7aa f0be
000000e0: cfd6 babe c061 4dbe 75a8 bbbe 8466 90be
000000f0: 36e3 f73e 90a1 11bf d693 d0be 4756 9fbe
00000100: 13c8 7dbe fa8e f13e f40a 61be 548f c5be
00000110: edc5 f33e c3fe a7be 277a 33be 2c3e eabe
00000120: 9059 62be 77bc 89be c624 f5be b6a6 88be
00000130: 5c77 4fbe b353 99be a69f 10bf e088 083e
00000140: 7862 e6be 9016 e8be 89db 223e 6758 8fbe
00000150: 2685 993e 0201 9abe a334 5abe b83f 76be
00000160: 23b3 81be a430 b7be 4452 c1be b8aa 98be
00000170: f9ee f53e da8a 92be 5a30 86be 64ab 7fbe
00000180: feb2 863d f882 a5be 5240 9bbe d8e9 c5be
00000190: a41a 9bbe b261 08bf 1a5e 69bd d3b7 043f
000001a0: 8b8b 8cbe 8853 78be e3c6 00bf 537c 69be
000001b0: b344 6dbe 9fce 0b3e adb4 413e 77ee 86be
000001c0: 8bbe 57be bb83 c2be c070 8bbe 5644 96be
000001d0: 30b7 4ebe 528e 86be 5e07 91be b5c2 7dbe
000001e0: 8580 0fbe 5467 b0be aa37 a43e 1128 6abe
000001f0: 4f14 83be 454e 34be 3cc6 54be 1e1a afbe
00000200: b1d2 83be 92e1 4dbe f1ec a4be 3269 5ebe
00000210: 05e9 9ebe 3a88 21be 8e41 d13e 0c72 96be
00000220: b52d cbbe f9f1 76be f81a 59be 9d20 38be
00000230: f812 99be e9b4 a2be ac1b a3be f32e a4be
00000240: b102 ab3e 2465 da3e eb66 cebe 88d8 28be
00000250: 40a8 adbe 7fc3 72be 486d 1cbe 8fb4 96be
00000260: 8c08 46be 0bd2 a1be db9b 79be 29bf 98be
00000270: 95ae d83e 83f4 8abe ea20 9dbe 7cfe 6bbe
00000280: 739e a0be 1747 8abe 30b0 94be c247 a23e
00000290: a4e7 c53e 6c16 8cbe d9df abbe d8ef af3e
000002a0: f9cb 70be 7abd 0f3e 4d7a acbe 0e14 40be
000002b0: 9719 f9be 601f c33e 9d8b 76be b790 4fbe
000002c0: a105 90be 7ba3 9dbe 86e4 83be 0c93 62be
000002d0: 14a6 c0be f2ca d03e 961f a0bc 98df 89be
000002e0: 251e 43be 64b3 72be 07d6 a1be 71c5 46be
000002f0: b1ad a4be 7935 eb3e 9970 88be 7216 a5be
00000300: e20d 35be 9a79 77be 081c 83be 5025 62be
00000310: 3957 a5be f232 a2be a8e1 3fbe f937 50be
00000320: 7c97 b73e 25b2 21be 0460 c3be b6e3 80bd
00000330: 6b7d 9abe 3b4b acbe fff1 d2be 6379 febe
00000340: 4453 cabe 7a64 07bf 1db8 e03e dd39 b63e
00000350: 1987 63be ff8c b4be 00c1 8ebe 9a11 8cbe
00000360: 3eab 8dbe 525d 91be 8116 f33e 3f6d 003e
00000370: af69 b6be 6ca2 30be d694 0e3f f8bc c7be
00000380: 8768 50be 11d1 87be fa90 9fbe d329 ff3e
00000390: c050 2f3e 4f49 9abe 954d 9cbe bd33 3dbe
000003a0: 2d4d 50be d2f1 58be dc89 a2be 629d 66be
000003b0: 2f2f 82be 152a 9ebe 1af8 60be 8e2a b53e
000003c0: 8b52 5abe 4661 f3be 698a e3be 56ad 62be
000003d0: 29ad 91be a129 9ebe 96d0 9dbe 7d09 a93e
000003e0: 0ab7 87be 152c afbe e926 83be deb8 4bbe
000003f0: 9518 5dbe f6f4 90be b5a4 56be 1a73 82be

fc2.weight f4 [256, 256]
0.047025498 0.0010044981 -0.061464842 0.018603394 0.041867405 0.010292804 -0.04541485 0.010501889
0.049796343 0.017514495 -0.04316108 0.007647794 -0.024390085 -0.0057850326 -0.012295797 0.00066191866
-0.061683495 0.014976181 0.026937911 -0.007326498 0.04734854 -0.029195795 -0.028485501 -0.06838409
0.033408754 -0.0120849665 -0.029845728 -0.039052032 0.055596415 -0.0010671574 -0.04725168 0.047544792
0.042083934 0.028061409 0.03271886 0.047878996 0.03284286 -0.028840704 0.0011540032 0.012208496
-0.019488048 -0.02617565 -0.06485531 -0.045898713 0.031079654 0.035183452 -0.0059586437 0.042676724
-0.017008394 0.024707772 0.013753922 0.021143373 0.014596669 -0.048597977 -0.011784237 -0.06752284
-0.024100032 0.037140723 0.032996677 -0.028426714 -0.05445736 0.045654148 0.008851753 -0.061410785
-0.06128553 -0.008050953 -0.01085841 -0.003650115 -0.052374378 0.0037418276 -0.04357801 -0.0696866
-0.012865567 0.012589684 -0.027576614 -0.0062060617 0.01452615 0.016261972 0.029427482 0.047811046
0.024003133 -0.06281773 -0.022959756 -0.016268943 -0.043482434 -0.011508293 0.04328841 0.0049414476
0.007283396 0.003300565 0.017845051 -0.011719998 -0.065711625 0.04320045 -0.05665884 -0.044266384
-0.021287393 -0.018934479 -0.06470805 -0.033304386 -0.06304472 0.035974998 0.024342224 0.03178869
-0.03799744 0.002963345 -0.016548332 -0.044767197 0.0086348355 0.007820379 -0.011094918 0.043732807
-0.0034229502 0.026318938 -0.04820251 0.005674979 -0.02107756 0.036573723 -0.030195126 -0.048900664
0.025469488 0.051002372 -0.053551126 0.043511406 0.032544345 -0.05509869 -0.04195115 -0.0028922784
0.043676008 0.030368991 -0.03634302 -0.015384179 -0.009660899 0.012172992 0.0018384546 -0.06518934
0.05169351 -0.013934948 -0.042407107 -0.06425283 -0.057658136 -0.015516733 0.03860949 -0.0067375316
0.04941641 0.017193815 -0.011694851 -0.047950417 0.045134313 0.032276586 -0.044224735 -0.004907044
-0.06529913 -0.046517476 -0.02911458 0.015721152 -0.0060960054 0.035538696 -0.0260257 0.007936014
0.014868036 0.041687623 -0.029168619 0.04068736 0.018944556 0.0010472272 -0.020344239 0.04677612
-0.047096368 0.050156236 -0.023435816 -0.031350344 -0.036039654 -0.06003472 -0.066778734 -0.015976688
0.00047378044 -0.042512916 -0.008615659 -0.030775469 -0.054265276 -0.024797956 0.011814812 -0.008105072
-0.013680328 -0.059649944 -0.04831106 -0.037779942 0.04577962 -0.0115318615 0.04737866 0.030942835
-0.05388803 0.038497794 -0.03159072 -0.06301712 -0.019749125 0.009405821 -0.03335148 -0.063429184
-0.00391294 -0.065890774 -0.061270118 -0.05509066 -0.02893014 -0.050950218 -0.068725646 0.04602311
-0.0042163897 0.011109595 -0.039375007 0.008901437 -0.043448508 0.031789023 0.009305553 -0.06501532
-0.04976367 -0.050323192 0.028133692 -0.012752223 0.0014042397 -0.00613525 -0.032365862 -0.029676393
-0.06300907 -0.024879444 0.05376387 -0.007195735 -0.05899694 0.050500315 -0.014763642 0.022811327
0.029920701 0.0069809146 0.016996369 0.039149687 -0.013053153 -0.003561195 -0.017398471 0.04388992
-0.057224225 0.03920143 0.0081372615 -0.021858599 0.05110314 -0.049703978 -0.042620122 -0.032998744
-0.033323534 -0.0017570057 -0.052572686 -0.050555654 -0.06490742 -0.058602463 -0.01383478 -0.03347406
00000000: cf9d 403d 5da9 833a 8fc2 7bbd 2566 983c
00000010: 287d 2b3d 26a3 283c ec04 3abd 1d10 2c3c
00000020: 40f7 4b3d 8f7a 8f3c acc9 30bd 599a fa3b
00000030: b7cd c7bc 5f90 bdbb 4f74 49bc 9c84 2d3a
00000040: d5a7 7cbd a85e 753c e5ac dc3c 1f13 f0bb
00000050: 8bf0 413d 052c efbc 6d5a e9bc f50c 8cbd
00000060: 9ed7 083d 0600 46bc 077f f4bc 06f5 1fbd
00000070: 11b9 633d dcdf 8bba fa8a 41bd 54be 423d
00000080: 3460 2c3d 0ae1 e53c 3604 063d c41c 443d
00000090: 3c86 063d 5743 ecbc ec41 973a 2506 483c
000000a0: 66a5 9fbc 516e d6bc dcd2 84bd 4a00 3cbd
000000b0: c29a fe3c 861c 103d ba40 c3bb cacd 2e3d
000000c0: 3055 8bbc f467 ca3c 2158 613c de34 ad3c
000000d0: de26 6f3c ac0e 47bd ac12 41bc 6a49 8abd
000000e0: 6e6d c5bc df20 183d 8627 073d 24df e8bc
000000f0: ae0e 5fbd d8ff 3a3d f106 113c e089 7bbd
00000100: 8906 7bbd 25e8 03bc 79e7 31bc c536 6fbb
00000110: 8486 56bd 7339 753b db7e 32bd d9b7 8ebd
00000120: 19ca 52bc f644 4e3c 5ae8 e1bc 385c cbbb
00000130: 17ff 6d3c d437 853c e711 f13c 84d5 433d
00000140: 38a2 c43c 95a6 80bd 1916 bcbc 7246 85bc
00000150: a31a 32bd 488d 3cbc 304f 313d deeb a13b
00000160: 8ea9 ee3b 4b4e 583b c92f 923c 3c05 40bc
00000170: d193 86bd f4f2 303d 1a13 68bd ab50 35bd
00000180: e662 aebc 7b1c 9bbc a785 84bd 2e6a 08bd
00000190: 971d 81bd 855a 133d 5869 c73c db34 023d
000001a0: 34a3 1bbd ae34 423b 5e90 87bc cf5d 37bd
000001b0: 2079 0d3c 0c21 003c 75c7 35bc 2c21 333d
000001c0: 9353 60bb d09a d73c ff6f 45bd 2df5 b93b
000001d0: d9aa acbc 54ce 153d c55b f7bc 104c 48bd
000001e0: 63a5 d03c dde7 503d 6d58 5bbd 0439 323d
000001f0: 384d 053d 2aaf 61bd f8d4 2bbd 618c 3dbb
00000200: 9de5 323d 64c8 f83c 6bdc 14bd ec0d 7cbc
00000210: bf48 1ebc 3b71 473c 4df8 f03a fd81 85bd
00000220: 93bc 533d 684f 64bc 13b3 2dbd fd96 83bd
00000230: f02a 6cbd e539 7ebc fc24 1e3d 83c6 dcbb
00000240: dd68 4a3d 0bda 8c3c c39b 3fbc a867 44bd
00000250: c2de 383d 7434 043d ff24 35bd 45cb a0bb
00000260: 8dbb 85bd 1c89 3ebd b381 eebc a5c9 803c
00000270: 00c1 c7bb 0691 113d d933 d5bc 0e06 023c
00000280: 1099 733c a4c0 2a3d 07f3 eebc caa7 263d
00000290: 9d31 9b3c 1d43 893a f6a8 a6bc 5198 3f3d
000002a0: 1fe8 40bd a070 4d3d 78fc bfbc 3869 00bd
000002b0: 519e 13bd f7e6 75bd 4ac3 88bd 8be1 82bc
000002c0: bc65 f839 0622 2ebd b128 0dbc d61c fcbc
000002d0: 4445 5ebd 1525 cbbc ea92 413c 23cb 04bc
000002e0: 7423 60bc 8053 74bd d1e1 45bd 24bf 1abd
000002f0: 6983 3b3d 22f0 3cbc 2010 423d d47b fd3c
00000300: b2b9 5cbd ddaf 1d3d 4565 01bd 1f0f 81bd
00000310: ebc8 a1bc df1a 1a3c 909b 08bd 29e7 81bd
00000320: 1f38 80bb bef1 86bd 60f6 7abd bea6 61bd
00000330: e7fe ecbc 2db1 50bd 08c0 8cbd bb82 3c3d
00000340: a429 8abb 0505 363c b047 21bd 55d7 113c
00000350: 10f7 31bd 3535 023d 5176 183c c126 85bd
00000360: fdd4 4bbd b11f 4ebd a178 e63c b3ee 50bc
00000370: 770e b83a 350a c9bb 1192 04bd e81b f3bc
00000380: e60a 81bd facf cbbc 8137 5c3d 33ca ebbb
00000390: c6a6 71bd 6bd9 4e3d 34e3 71bc d2de ba3c
000003a0: 421c f53c 28c0 e43b f83b 8b3c 6c5b 203d
000003b0: e4dc 55bc f062 69bb 3d87 8ebc ebc5 333d
000003c0: f363 6abd ae91 203d 2652 053c ce10 b3bc
000003d0: 8751 513d 6696 4bbd 7092 2ebd b129 07bd
000003e0: 427e 08bd 544b e6ba 7556 57bd 7213 4fbd
000003f0: 2eee 84bd 2309 70bd 46ab 62bc 191c 09bd

fc2.bias f4 [256]
-0.057747457 0.008081688 -0.07828413 0.012465294 -0.029389301 -0.19884683 -0.04120223 -0.15477736
-0.032960568 0.0053445203 0.03014671 0.05049767 -0.1341534 0.0013810934 -0.016919417 -0.0417731
-0.1106646 0.051784165 -0.22887604 0.0357237 -0.06709473 -0.06302807 -0.055456024 -0.12768674
-0.14766936 0.051583055 0.0008982941 -0.14913175 -0.28363314 0.045035705 -0.09587944 -0.19118151
0.04947588 -0.34008786 -0.006226541 -0.20187548 -0.021584583 0.09513692 -0.40997064 0.018498575
0.014261253 -0.027754843 -0.016657328 -0.024036488 0.035890453 -0.21982643 -0.06690691 -0.23314114
0.043788824 0.007666102 -0.05366747 -0.075403124 -0.11762168 -0.06562045 -0.099327825 0.04103779
0.007863243 -0.08225028 -0.010029231 -0.07178372 -0.07632134 0.020969225 -0.0378449 0.026489692
0.010722381 -0.10567293 -0.039487902 -0.010809349 -0.21509211 -0.009346005 -0.014869566 0.0661626
-0.17551474 0.0017981916 0.033876345 -0.2462888 -0.11576556 -0.3547464 0.05403885 0.058952577
-0.20248093 0.032797087 -0.121376 -0.05079438 0.12302299 -0.022971224 -0.011038082 -0.22934039
-0.08289853 -0.21415374 -0.16283591 -0.009177861 -0.074839935 -0.037343975 -0.20761168 -0.058076784
-0.19772784 -0.053552914 -0.055427987 -0.20682618 -0.13430914 -0.2329804 0.083214134 0.0028004453
-0.18502091 -0.2125641 -0.03301016 0.038024146 0.33524865 -0.070924774 -0.016777387 -0.008021408
-0.053610306 -0.28605282 -0.009605223 0.025562773 -0.016607704 -0.35318106 -0.24582449 -0.3139045
-0.08923185 -0.40131247 -0.07283746 -0.011594866 -0.023775803 -0.08355458 0.056103665 -0.07551498
0.022615006 -0.18083 0.05436879 -0.1107072 -0.016964719 0.07980343 -0.16634709 -0.045972593
0.042831577 0.05748255 -0.26578864 0.029076742 -0.17698598 0.028075777 -0.21660258 0.019435259
-0.06806416 -0.1074218 -0.10244502 -0.09461346 -0.0059452155 -0.109099865 -0.5500504 -0.2313875
-0.027860355 0.0538481 -0.30528867 -0.14970303 -0.11017887 -0.04953973 -0.16249567 -0.051057767
-0.03794741 -0.0649033 -0.06575418 0.0011276406 0.11359947 0.029551938 -0.0030449517 0.055549346
0.03260941 -0.019945113 -0.007077354 0.0024030956 -0.0020897074 -0.15974717 0.02765753 -0.045316096
-0.09396103 -0.095339194 -0.1573934 -0.17677023 -0.040609516 0.08844788 -0.1575606 -0.038909335
0.07241014 -0.20118965 0.011690226 -0.031584546 -0.20782076 0.013494016 -0.32123357 -0.17977178
-0.051147196 -0.13124412 -0.21413182 -0.10329785 -0.15157413 0.018965282 0.0022917138 0.01921647
0.13138992 -0.022965403 -0.068723895 -0.2940807 -0.230722 -0.1727354 -0.13989858 -0.04810693
-0.1450458 -0.048454817 -0.1540652 -0.020265196 -0.18897887 -0.31395444 0.042208757 0.02317072
-0.34704155 -0.16719888 -0.18171604 -0.27300492 -0.16552956 -0.047836788 0.030940354 -0.026711876
-0.0061039827 -0.051185567 -0.08758261 -0.47959173 -0.11549228 9.102638e-05 0.053337306 0.03308347
-0.003398564 -0.31297624 -0.37585798 -0.109408274 0.075170524 -0.21633294 0.03567501 -0.5406133
0.008275058 -0.1506047 -0.05863327 0.11890563 0.028739015 0.06158907 -0.373596 -0.0489389
-0.15873815 -0.08585642 -0.15274562 -0.07239201 -0.38249838 -0.029691394 -0.019824374 -0.0374349
00000000: 9988 6cbd 0e69 043c 6e53 a0bd 3c3b 4c3c
00000010: d5c1 f0bc 819e 4bbe abc3 28bd f57d 1ebe
00000020: a901 07bd 1621 af3b 3cf6 f63c a5d6 4e3d
00000030: 825f 09be ce05 b53a 979a 8abc 451a 2bbd
00000040: 1fa4 e2bd a21b 543d 7b5e 6abe 0453 123d
00000050: f668 89bd dc14 81bd db25 63bd 50c0 02be
00000060: a336 17be c148 533d 7f7b 6b3a feb5 18be
00000070: 5d38 91be 5c77 383d 715c c4bd 16c5 43be
00000080: 38a7 4a3d ff1f aebe 0308 ccbb 72b8 4ebe
00000090: 27d2 b0bc 25d7 c23d ace7 d1be 538a 973c
000000a0: 08a8 693c 205e e3bc f374 88bc 2be8 c4bc
000000b0: de01 133d 2e1a 61be 7d06 89bd 8dbc 6ebe
000000c0: e95b 333d ed33 fb3b 6cd2 5bbd f46c 9abd
000000d0: a3e3 f0bd 0464 86bd 636c cbbd 3e17 283d
000000e0: d5d4 003c d672 a8bd a551 24bc 5803 93bd
000000f0: 5d4e 9cbd a7c7 ab3c 4103 1bbd e900 d93c
00000100: edac 2f3c 0d6b d8bd 11be 21bd b219 31bc
00000110: 1b41 5cbe fc1f 19bc 7b9f 73bc 4280 873d
00000120: 23ba 33be 4cb1 eb3a ecc1 0a3d 2233 7cbe
00000130: 7e16 edbd 52a1 b5be d757 5d3d 4278 713d
00000140: 2957 4fbe 3d56 063d fb93 f8bd c50d 50bd
00000150: 7af3 fb3d 262e bcbc 12d9 34bc 35d8 6abe
00000160: b4c6 a9bd 1e4b 5bbe 75be 26be bd5e 16bc
00000170: ae45 99bd fff5 18bd 2898 54be ece1 6dbd
00000180: 2b79 4abe 4d5a 5bbd 7508 63bd 3eca 53be
00000190: 5688 09be 6a92 6ebe 2c6c aa3d ad87 373b
000001a0: 1f76 3dbe 67aa 59be a935 07bd 35bf 1b3d
000001b0: b6a5 ab3e 0241 91bd bb70 89bc 396c 03bc
000001c0: 7b96 5bbd 8475 92be 3a5f 1dbc 0569 d13c
000001d0: e10c 88bc 26d4 b4be 6ab9 7bbe 17b8 a0be
000001e0: 30bf b6bd d478 cdbe ce2b 95bd 65f8 3dbc
000001f0: 79c5 c2bc aa1e abbd f5cc 653d 99a7 9abd
00000200: 1b43 b93c 802b 39be cfb1 5e3d 75ba e2bd
00000210: 98f9 8abc fb6f a33d e456 2abe c24d 3cbd
00000220: 2a70 2f3d d372 6b3d 7315 88be 5932 ee3c
00000230: d03b 35be 2cff e53c 11cd 5dbe b136 9f3c
00000240: 3965 8bbd f6ff dbbd b2ce d1bd b4c4 c1bd
00000250: 15d0 c2bb c06f dfbd 1ad0 0cbf d8f0 6cbe
00000260: 663b e4bc d38f 5c3d cc4e 9cbe c04b 19be
00000270: 76a5 e1bd 2cea 4abd 4465 26be f321 51bd
00000280: be6e 1bbd 05ec 84bd 21aa 86bd 57cd 933a
00000290: d7a6 e83d e816 f23c d08d 47bb b687 633d
000002a0: 7291 053d ef63 a3bc 26e9 e7bb 417d 1d3b
000002b0: 79f3 08bb c394 23be 0b92 e23c 5f9d 39bd
000002c0: a46e c0bd 3241 c3bd bc2b 21be 4103 35be
000002d0: 2a56 26bd 2a24 b53d 9157 21be 655f 1fbd
000002e0: c44b 943d a904 4ebe 5d88 3f3c cc5e 01bd
000002f0: f7ce 54be 0116 5d3c ba78 a4be 1816 38be
00000300: b97f 51bd dc64 06be 5f45 5bbe d38d d3bd
00000310: 4036 1bbe 145d 9b3c 9430 163b dc6b 9d3c
00000320: 148b 063e f121 bcbc 1dbf 8cbd bf91 96be
00000330: 6342 6cbe 8ce1 30be 9341 0fbe c60b 45bd
00000340: e386 14be 8f78 46bd 45c3 1dbe 3203 a6bc
00000350: ad83 41be a3be a0be 17e3 2c3d 86d0 bd3c
00000360: 6eaf b1be 2f36 2bbe c513 3abe 4dc7 8bbe
00000370: 9580 29be 82f0 43bd a076 fd3c ddd2 dabc
00000380: eb03 c8bb f5a7 51bd 835e b3bd 0c8d f5be
00000390: 3787 ecbd 6ae5 be38 3878 5a3d 8882 073d
000003a0: 71ba 5ebb 6c3e a0be 7570 c0be 7211 e0bd
000003b0: 01f3 993d 6286 5dbe f61f 123d a265 0abf
000003c0: 1c94 073c 1e38 1abe 7129 70bd cc84 f33d
000003d0: 156e eb3c d244 7c3d fa47 bfbe 2874 48bd
000003e0: 418c 22be 7ed5 afbd 5969 1cbe 4342 94bd
000003f0: d4d6 c3be 5e3b f3bc ba66 a2bc 5655 19bd

fc3.weight f4 [256, 256]
-0.053547416 -0.16081704 -0.002603523 -0.0031848077 -0.027580822 -0.17118877 0.06555833 -0.05672954
0.008505849 -0.011016977 -0.025926486 -0.027231773 0.097841926 0.018528964 0.020449469 0.04171505
0.17876115 -0.15768886 0.115188256 -0.0044218097 0.029875169 -0.1041995 0.056173243 0.108230226
-0.12683006 0.07321878 -0.012422902 -0.20426764 0.113862306 -0.034820206 0.064408235 -0.06427878
-0.113665625 0.051506486 -0.07123168 0.23459686 0.048147753 -0.09575035 0.15752538 -0.0445765
0.051517315 -0.031519227 0.05938949 0.046838507 0.016287528 0.013696945 -0.02301948 -0.029468022
-0.042466946 -0.052432325 0.12003673 -0.043597553 0.057366513 0.040445816 -0.009440208 -0.090312175
-0.09945124 -0.082849875 -0.013410368 -0.068852104 0.040216863 -0.06728502 -0.08293859 -0.02426603
-0.110333465 -0.33251902 -0.016026327 -0.011462536 -0.016847864 0.06374353 -0.031871885 -0.056399364
0.06834577 -0.14685044 -0.0027967747 0.03684625 -0.14563635 0.12051179 -0.03491858 -0.021082653
0.024627816 -0.10814467 0.07180338 0.073009185 -0.07517864 0.045124672 -0.016078942 -0.0083783455
0.09283747 -0.0877929 0.23344645 0.15476021 0.019323174 0.0498789 0.18472847 -0.059131328
0.023621824 0.024499422 0.028795449 0.0936625 -0.0272471 0.11130082 -0.26578245 0.032670088
-0.053696107 0.13538426 -0.0062889387 -0.09873743 -0.66971254 0.04990857 -0.020034915 0.028924778
0.04059447 -0.031788487 -0.03999346 0.0785862 -0.009452638 0.053532686 0.025682261 0.113015644
0.042533465 -0.06534675 0.0058485125 -0.012830187 -0.05248352 0.036625195 -0.06569437 0.0061478796
0.017309116 -0.122870356 -0.038881205 -0.4694206 -0.038612567 -0.099329196 0.019306911 0.025273403
-0.031301904 -0.0052833892 0.04763559 0.08477372 -0.20541018 0.06255746 0.20123431 -0.20110421
-0.01952469 0.041814446 0.08068952 -0.04245744 -0.007913715 0.029483587 -0.122275464 0.09400952
0.04004501 -0.21233414 0.06674337 0.19180752 0.15463999 -0.060249947 -0.04594854 -0.015329082
0.037264884 0.014757026 -0.017567886 0.013575216 -0.19683996 0.027252287 0.04146226 -0.2018052
-0.059836145 -0.07062595 -0.0087309405 -0.010745546 0.05726548 -0.043140918 0.04274997 -0.059885688
-0.14750817 -0.04204121 0.11400207 -0.2585139 -0.013572716 -0.06851859 -0.020828197 0.0024797274
-0.18511304 -0.037401028 0.04831539 -0.004520675 0.1891655 -0.061045658 -0.07269158 0.08767332
-0.010124616 -0.11306741 -0.24311055 -0.44856828 -0.20824218 -0.16608949 0.040210858 0.00016968293
-0.19108537 -0.04257816 0.04333155 0.02770528 0.17823744 -0.10423467 0.10612593 0.01290192
-0.21285622 0.04801072 0.13795306 0.028616685 0.14061402 0.18754622 0.014776726 -0.083808005
0.0868572 0.13671114 -0.0014873276 0.16219495 0.34800017 0.03603707 0.11646316 -0.04616066
0.019503329 -0.031609755 -0.14289145 -0.016856587 0.072614856 0.01566611 -0.07400981 0.020766359
-0.03962091 -0.085818835 -0.015747562 -0.04374478 -0.11314791 -0.29744363 -0.13322508 -0.07133323
-0.07316641 0.1724699 0.38425705 -0.08224857 -0.1532124 -0.003251435 -0.093048826 0.009084995
-0.053755987 -0.0067482996 0.10825288 0.07840809 0.1636007 0.041904215 -0.068858 -0.011018421
00000000: 8954 5bbd 39ad 24be de9f 2abb 35b8 50bb
00000010: 2df1 e1bc 1c4c 2fbe 7243 863d 3c5d 68bd
00000020: 1e5c 0b3c 8d80 34bc c863 d4bc 2b15 dfbc
00000030: 5961 c83d 0eca 973c a585 a73c 66dd 2a3d
00000040: 2a0d 373e 3079 21be d2e7 eb3d d4e4 90bb
00000050: c5bc f43c 8c66 d5bd ea15 663d cfa7 dd3d
00000060: bddf 01be baf3 953d 6d89 4bbc 892b 51be
00000070: a430 e93d a29f 0ebd 77e8 833d 98a4 83bd
00000080: 86c9 e8bd 77f8 523d eae1 91bd 293a 703e
00000090: 9436 453d c218 c4bd 554e 213e d995 36bd
000000a0: d203 533d 4e1a 01bd 6542 733d bcd9 3f3d
000000b0: 6c6d 853c 2769 603c 5993 bcbc ec66 f1bc
000000c0: d2f1 2dbd 47c3 56bd d1d5 f53d 5993 32bd
000000d0: 26f9 6a3d 83aa 253d 1aab 1abc 97f5 b8bd
000000e0: 17ad cbbd 32ad a9bd 29b7 5bbc 5502 8dbd
000000f0: 70ba 243d bbcc 89bd b5db a9bd 8ec9 c6bc
00000100: 83f6 e1bd ef3f aabe a549 83bc 5ccd 3bbc
00000110: 8804 8abc f88b 823d 188c 02bd 0503 67bd
00000120: def8 8b3d f65f 16be 184a 37bb 18ec 163d
00000130: b221 15be e3ce f63d c906 0fbd 87b5 acbc
00000140: 46c0 c93c f47a ddbd a70d 933d d785 953d
00000150: 42f7 99bd a6d4 383d fcb7 83bc 5445 09bc
00000160: 9221 be3d c4cc b3bd 960c 6f3e 7679 1e3e
00000170: a24b 9e3c d14d 4c3d 7629 3d3e b133 72bd
00000180: 8e82 c13c 03b3 c83c 6fe4 eb3c 20d2 bf3d
00000190: 4f35 dfbc aff1 e33d a314 88be 12d1 053d
000001a0: 73f0 5bbd 2ca2 0a3e 7113 cebb da36 cabd
000001b0: 4872 2bbf ee6c 4c3d 4320 a4bc a8f3 ec3c
000001c0: 6346 263d a534 02bd 2fd0 23bd cdf1 a03d
000001d0: 3ddf 1abc 1745 5b3d 9b63 d23c bf74 e73d
000001e0: 9237 2e3d 84d4 85bd e1a4 bf3b b435 52bc
000001f0: f6f8 56bd 4d04 163d c58a 86bd 2774 c93b
00000200: d9cb 8d3c 74a3 fbbd e641 1fbd e657 f0be
00000210: 3628 1ebd 1b6d cbbd 8729 9e3c 2b0a cf3c
00000220: 6d36 00bd 4820 adbb 891d 433d d89d ad3d
00000230: 0c57 52be 201e 803d 5e10 4e3e 43ee 4dbe
00000240: 3ef2 9fbc a045 2b3d 8c40 a53d dae7 2dbd
00000250: 87a8 01bc 9087 f13c 8f6b fabd 1088 c03d
00000260: 3d06 243d 1f6e 59be bfb0 883d 3169 443e
00000270: f259 1e3e a6c8 76bd 8934 3cbd d426 7bbc
00000280: 10a3 183d 74c7 713c 87ea 8fbc 956a 5e3c
00000290: 6a90 49be 3040 df3c 55d4 293d 06a6 4ebe
000002a0: bf16 75bd 57a4 90bd 380c 0fbc 160e 30bc
000002b0: 358f 6a3d 88b4 30bd 981a 2f3d b24a 75bd
000002c0: 620c 17be 6733 2cbd eb79 e93d ef5b 84be
000002d0: 1960 5ebc 7953 8cbd e59f aabc ec82 223b
000002e0: 468e 3dbe d231 19bd 5ce6 453d 2c22 94bb
000002f0: 9ab4 413e 030b 7abd 53df 94bd 128e b33d
00000300: b8e1 25bc e38f e7bd f9f1 78be beaa e5be
00000310: 703d 55be 5d13 2abe 24b4 243d eaec 3139
00000320: e2ab 43be 7066 2ebd 6c7c 313d 2ff6 e23c
00000330: e083 363e fd78 d5bd 8d58 d93d 9362 533c
00000340: fbf6 59be e4a6 443d 9143 0d3e 8a6d ea3c
00000350: 1ffd 0f3e 1e0c 403e 151a 723c 88a3 abbd
00000360: 30e2 b13d 01fe 0b3e 6ff2 c2ba 6f16 263e
00000370: 142d b23e 9b9b 133d 3d84 ee3d f612 3dbd
00000380: 72c5 9f3c 3b79 01bd 2352 12be d316 8abc
00000390: 19b7 943d 3756 803c 7592 97bd 361e aa3c
000003a0: 8949 22bd c9c1 afbd 0801 81bc ba2d 33bd
000003b0: 17ba e7bd 884a 98be 286c 08be 2817 92bd
000003c0: 45d8 95bd f39b 303e 57bd c43e f071 a8bd
000003d0: b6e3 1cbe 0716 55bb 6290 bebd 3bd9 143c
000003e0: 3d2f 5cbd d720 ddbb b0b3 dd3d 6c94 a03d
000003f0: f186 273e c1a3 2b3d 6c05 8dbd 9b86 34bc

fc3.bias f4 [256]
-0.22410733 -0.4158788 -0.05390432 -0.17573655 -0.09548193 -0.07449562 -0.5499744 0.021517098
-0.023008583 -0.054197624 -0.1368466 -0.25920212 -0.13801862 0.10536662 -0.07768849 -0.23048817
-0.06544939 0.07794606 0.07763033 -0.12412421 -0.017615367 -0.0021356174 -0.1949681 -0.12986934
0.11096869 0.09725199 0.08700037 0.08021589 -0.07554877 -0.019950394 0.011464989 -0.19193424
0.051429987 0.13403744 -0.09649138 -0.3354096 0.10955059 -0.023534141 -0.18427451 -0.12631734
-0.1663236 -0.2833164 -0.358191 0.029913843 0.060352277 -0.0448388 -0.16217004 0.029111102
-0.00321865 -0.014920328 -0.042925272 0.006730685 -0.03578286 0.12767364 -0.020687245 -0.10335175
-0.33276528 -0.10323657 -0.11915437 0.014944079 -0.19675238 -0.28835702 -0.04319755 -0.4738319
-0.07527458 -0.079065755 -0.14373082 -0.042015802 -0.034245282 -0.08117112 -0.020162778 -0.117358394
-0.07108509 -0.08550539 -0.03923605 -0.086651765 -0.04839147 -0.031578418 -0.06566287 -0.14845034
-0.01859456 0.017608417 -0.08527099 -0.12824075 -0.31241184 -0.05685072 0.052527636 0.012263896
0.058708187 -0.13933596 0.024788523 -0.06816463 -0.05431974 -0.08855927 -0.05745442 -0.05072738
-0.42110744 -0.0918357 -0.03832145 -0.091102 0.06541585 0.009835753 -0.025495004 -0.032686494
-0.11018329 -0.29093772 -0.099885665 -0.052855812 -0.04270011 -0.42470804 0.12026108 -0.12835018
-0.06589159 -0.039774813 -0.038704086 -0.09660324 -0.052572444 -0.022172485 0.11504457 0.033619564
-0.046221703 -0.59376943 0.057874788 -0.14694889 -0.040489685 0.017478397 0.027490644 -0.18244755
-0.03441366 -0.008379159 -0.104486905 -0.08698503 -0.02966362 0.05731819 -0.06727078 -0.031501282
-0.12905972 -0.21260533 -0.0064607617 -0.070529275 -0.015400582 -0.14837073 -0.3995119 -0.19256395
-0.08366254 0.05317853 -0.021871356 -0.042981546 0.0065810145 0.07470335 -0.022140548 -0.07757186
-0.5131414 0.002230035 -0.068228245 -0.028914131 -0.047784727 -0.03640913 -0.047330286 -0.044674568
-0.41773883 -0.051368605 -0.040327594 -0.019952985 0.0036144217 -0.3130378 -0.04614148 -0.106043264
-0.10276283 -0.03498925 -0.056889072 -0.02853082 -0.13012423 -0.17193928 0.06283844 -0.12064603
-0.115722544 -0.044641837 -0.018749705 -0.12470293 -0.083015546 -0.112231135 0.037645586 -0.066855416
-0.0698222 -0.06143587 -0.16824749 -0.020425372 -0.024813082 -0.1066553 -0.08465299 0.12910944
0.046152487 0.04779354 -0.10776813 0.018074973 -0.03863275 -0.018037405 -0.05622032 0.05936211
-0.02279807 -0.029161008 -0.050677776 -0.06441359 -0.10161326 -0.08055608 -0.038632933 0.025515145
-0.38859147 0.013379844 -0.15819326 -0.18677087 -0.11191678 0.11955582 -0.0049933353 0.03355853
-0.1773309 -0.07295592 0.04513895 -0.21364926 -0.044100113 0.07517862 0.062425096 -0.3558378
0.059272617 -0.08827441 -0.37026972 0.014940135 -0.058587596 -0.021238942 0.076984055 -0.07531034
-0.11301733 -0.076151825 -0.09011741 0.054005414 -0.061968084 -0.19873375 -0.04547893 -0.04813569
-0.11353101 -0.17859784 -0.14409222 -0.08115672 -0.18158199 -0.033907764 -0.01830979 -0.023237418
-0.07761088 -0.07719407 -0.036283847 -0.21680292 -0.2851126 -0.030245628 -0.38439724 -0.2317855
00000000: 647c 65be 11ee d4be c7ca 5cbd 48f4 33be
00000010: 088c c3bd 2991 98bd 1fcb 0cbf a044 b03c
00000020: 7f7c bcbc 54fe 5dbd 8421 0cbe 24b6 84be
00000030: c154 0dbe 74ca d73d 251b 9fbd 1705 6cbe
00000040: 540a 86bd 2fa2 9f3d a7fc 9e3d d534 febd
00000050: 1a4e 90bc b7f5 0bbb b8a5 47be 78fc 04be
00000060: 8d43 e33d 0d2c c73d 402d b23d 3b48 a43d
00000070: 50b9 9abd 026f a3bc a6d7 3b3c 698a 44be
00000080: 40a8 523d 1c41 093e 469d c5bd cfba abbe
00000090: 0f5c e03d acca c0bc 75b2 3cbe 5559 01be
000000a0: bc50 2abe d90e 91be d064 b7be e00d f53c
000000b0: f333 773d e4a8 37bd e70f 26be 687a ee3c
000000c0: fcef 52bb 6474 74bc 69d2 2fbd 148d dc3b
000000d0: 0c91 12bd e1bc 023e 4c78 a9bc 15aa d3bd
000000e0: 3660 aabe b26d d3bd 3507 f4bd 03d8 743c
000000f0: 7579 49be 88a3 93be eaef 30bd 189a f2be
00000100: 8f29 9abd 3aed a1bd 2c2e 13be c318 2cbd
00000110: c844 0cbd 0b3d a6bd 692c a5bc 9959 f0bd
00000120: 0f95 91bd 731d afbd fbb5 20bd 7b76 b1bd
00000130: 2236 46bd 5f58 01bd 417a 86bd 5e03 18be
00000140: 9e53 98bc 873f 903c 8fa2 aebd 8b51 03be
00000150: 72f4 9fbe 4ddc 68bd 3827 573d 82ee 483c
00000160: ff77 703d 16ae 0ebe 4d11 cb3c e699 8bbd
00000170: 607e 5ebd 905e b5bd 5355 6bbd 83c7 4fbd
00000180: 659b d7be 5b14 bcbd f4f6 1cbd af93 babd
00000190: bff8 853d 2326 213c e6da d0bc 46e2 05bd
000001a0: c7a7 e1bd caf5 94be db90 ccbd 567f 58bd
000001b0: 4fe6 2ebd 5573 d9be 714b f63d 3b6e 03be
000001c0: 2cf2 86bd eaea 22bd 2d88 1ebd ebd7 c5bd
000001d0: 3456 57bd 12a3 b5bc 7d9c eb3d abb4 093d
000001e0: f852 3dbd 4601 18bf 1d0e 6d3d c579 16be
000001f0: 83d8 25bd db2e 8f3c 0f34 e13c 88d3 3abe
00000200: 57f5 0cbd bd48 09bc 3bfd d5bd 3525 b2bd
00000210: 1f01 f3bc 7ac6 6a3d 43c5 89bd 7d07 01bd
00000220: 3b28 04be 36b5 59be ccb4 d3bb a771 90bd
00000230: b952 7cbc 7fee 17be d38c ccbe 7c2f 45be
00000240: 4457 abbd bbd1 593d 8f2b b3bc 6b0d 30bd
00000250: 8da5 d73b 12fe 983d 1860 b5bc ffdd 9ebd
00000260: 3c5d 03bf c725 123b 40bb 8bbd 54dd ecbc
00000270: ebb9 43bd bd21 15bd 67dd 41bd aefc 36bd
00000280: dde1 d5be e367 52bd 8c2e 25bd 7174 a3bc
00000290: efdf 6c3b 7e46 a0be d9fe 3cbd 362d d9bd
000002a0: 5275 d2bd e350 0fbd 8404 69bd 77b9 e9bc
000002b0: 493f 05be da10 30be 71b1 803d 4415 f7bd
000002c0: f1ff ecbd 5cda 36bd fb98 99bc 4064 ffbd
000002d0: 0e04 aabd 70d9 e5bd 4232 1a3d 7eeb 88bd
000002e0: f1fe 8ebd 2ea4 7bbd 1249 2cbe 1c53 a7bc
000002f0: ce44 cbbc 186e dabd 8c5e adbd 4435 043e
00000300: 640a 3d3d 29c3 433d 8ab5 dcbd f711 943c
00000310: 603d 1ebd 2ec3 93bc 4747 66bd af25 733d
00000320: 05c3 babc 11e3 eebc 8093 4fbd 46eb 83bd
00000330: 9d1a d0bd 96fa a4bd 913d 1ebd 2305 d13c
00000340: 76f5 c6be 2237 5b3c 6afd 21be dd40 3fbe
00000350: a034 e5bd afd9 f43d 229f a3bb ab74 093d
00000360: 3b96 35be ea69 95bd 9fe3 383d dfc6 5abe
00000370: 52a2 34bd 40f7 993d 75b1 7f3d 5f30 b6be
00000380: d8c7 723d 37c9 b4bd fe93 bdbe 78c7 743c
00000390: 8cf9 6fbd 4afd adbc d1a9 9d3d 4f3c 9abd
000003a0: a175 e7bd 7df5 9bbd 7a8f b8bd c834 5d3d
000003b0: 3fd2 7dbd dc80 4bbe 1d48 3abd ee29 45bd
000003c0: f282 e8bd 5ae2 36be e98c 13be 7f35 a6bd
000003d0: a1f0 39be dee2 0abd 6afe 95bc 665c bebc
000003e0: 74f2 9ebd ed17 9ebd 5f9e 14bd 9601 5ebe
000003f0: 47fa 91be aec5 f7bc b7cf c4be 2e59 6dbe

action_out.weight f4 [4, 256]
0.07393245 -0.020514823 0.04718004 0.12937933 -0.14816475 0.005200894 0.015599258 -0.011502452
-0.07367455 0.11958833 -0.045764636 0.028879998 0.08119065 0.018378543 0.037343543 -0.009577178
0.02384205 -0.005491107 -0.0015468085 0.0153303 -0.01432031 0.10846298 -0.05715131 -0.12056157
-0.06859724 0.00057192735 -0.2875066 -0.021913482 0.05280266 0.031196168 0.026830979 -0.06353929
0.1364534 -0.041453373 0.19480228 -0.02430816 0.021810973 0.08230444 -0.15506008 -0.050350294
-0.22705081 0.022232233 -0.06945764 -0.041854165 0.025966153 0.030617634 -0.4701113 0.020799872
-0.071147844 -0.03665768 -0.037449338 0.09895683 0.0018007859 -0.32499072 0.013032337 -0.16536269
-0.015299686 0.0112294555 -0.044377834 0.10042995 0.072918594 1.8882334 -0.104436904 -0.014339377
0.018718181 0.017314808 0.013941502 0.08187251 0.055580538 8.4736756e-05 0.011646633 0.0027184775
-0.036747716 0.090819955 0.023874035 0.019876989 -0.123716004 0.008233489 0.028408425 0.002793527
0.089269996 0.029421875 -0.0007701323 0.016854873 0.09151011 -0.017886769 -0.01915041 0.041482974
-0.14157967 0.07066858 0.0233819 0.102399364 -0.010188734 -0.026706405 -0.04437278 0.009159066
2.3307946 0.063867845 0.004475938 0.02697281 0.04141709 0.00645565 -0.0894403 -0.0020792414
-0.11971641 -2.409691 -0.027019188 -0.012496536 0.036395624 -0.6397615 0.029739331 0.12321649
-0.016689386 -0.062355712 0.07317592 -0.010401391 0.021924743 0.050080966 0.29418206 -0.07602789
0.04773286 0.011280259 -0.022364272 -0.124361 -0.08914844 -0.0028584022 -0.1153049 -0.090081446
0.023332376 0.13739689 0.021621484 0.008294297 -0.0052916403 0.03272861 0.06767386 -0.014682137
-0.09223839 0.036257464 0.021263618 -0.014022493 0.02829648 0.07218295 -0.040660333 0.0114259375
0.02654136 -0.1933368 -0.022515876 -0.04371627 0.024842203 -0.044390816 0.05581785 0.02446763
1.7319785 0.031659786 -0.021910831 0.07713016 -0.027068952 -0.04702571 -0.0035066765 0.021604754
-0.06242892 -0.17886755 -0.033848226 -0.0029297874 0.064729616 0.18435283 0.025207324 -0.13991234
-0.009325406 -0.08597566 0.009764715 -0.0033437111 0.0051331273 0.038304795 -0.10372163 0.05506154
0.03060684 0.13219795 0.0031601007 -0.05412513 -0.029832372 -0.053834848 -0.074773826 -0.022122705
0.021068368 -0.009344121 0.0347419 -0.13939379 -0.053637195 -0.039444216 -0.058147304 0.32082912
0.06878913 -0.064553924 -0.020879718 -0.11007464 -0.039790906 -0.101142935 0.084387556 0.14429705
0.0035189602 0.108590715 0.044188943 0.008394055 0.032779004 0.06467594 0.054629564 0.03182079
-1.0408497 -0.01946225 0.08060727 0.21464048 -0.02598115 -0.2990874 -0.028271763 0.3026587
-0.0044554654 -0.029784884 0.1581022 0.06541 -0.06795451 -0.078599356 -0.0032653203 -0.08487512
-0.085721664 -0.004557032 0.034569424 0.005113626 0.18279633 0.0019623977 -0.0052161436 -0.004954139
0.067796834 -0.009335374 -0.002295985 -0.0020918953 -0.043754954 -1.1205531 -0.093834005 0.025815168
-0.020181227 -0.08661636 0.0056096176 -0.3949152 0.018068595 0.023872335 -0.008220137 0.044928312
0.0071613244 0.003014794 0.022041753 -0.077304855 -0.050213262 0.004006811 -0.004552919 0.08701856
00000000: e569 973d b40e a8bc dc3f 413d 047c 043e
00000010: 80b8 17be 436c aa3b 0894 7f3c c874 3cbc
00000020: afe2 96bd baea f43d b373 3bbd bf95 ec3c
00000030: 4947 a63d 998e 963c 8bf5 183d 99e9 1cbc
00000040: 6750 c33c beee b3bb 48be caba f02b 7b3c
00000050: bc9f 6abc d721 de3d 7e17 6abd fce8 f6bd
00000060: b67c 8cbd 65ed 153a 1134 93be e783 b3bc
00000070: 9a47 583d 1b8f ff3c a4cc db3c e320 82bd
00000080: 71ba 0b3e 03cb 29bd 407a 473e e821 c7bc
00000090: edac b23c 3b8f a83d 12c8 1ebe 1c3c 4ebd
000000a0: 0280 68be 5f20 b63c cf3f 8ebd 466f 2bbd
000000b0: f8b6 d43c d5d1 fa3c 6eb2 f0be 7e64 aa3c
000000c0: f6b5 91bd 5d26 16bd 7a64 19bd e1a9 ca3d
000000d0: 5908 ec3a 2f65 a6be 9585 553c d654 29be
000000e0: 89ab 7abc c0fb 373c 88c5 35bd 38ae cd3d
000000f0: 5856 953d a2b1 f13f 04e3 d5bd b5ef 6abc
00000100: df56 993c c9d7 8d3c e66a 643c c6ac a73d
00000110: 6ba8 633d b3b4 b138 85d1 3e3c 7c28 323b
00000120: c684 16bd d0ff b93d 7b93 c33c 11d5 a23c
00000130: d15e fdbd c1e5 063c c9b8 e83c 9b13 373b
00000140: 30d3 b63d 2506 f13c b4e2 49ba 3b13 8a3c
00000150: a769 bb3d 4687 92bc 52e1 9cbc 0dea 293d
00000160: 43fa 10be b0ba 903d 668b bf3c c2b6 d13d
00000170: a6ee 26bc 64c7 dabc 3bc0 35bd e80f 163c
00000180: bd2b 1540 25cd 823d e4aa 923b 15f6 dc3c
00000190: f7a4 293d eb89 d33b 7a2c b7bd e243 08bb
000001a0: e12d f5bd 6138 1ac0 5857 ddbc 45be 4cbc
000001b0: 9413 153d 69c7 23bf e69f f33c ed58 fc3d
000001c0: 2eb8 88bc b468 7fbd 42dd 953d 996a 2abc
000001d0: 859b b33c b321 4d3d 089f 963e 83b4 9bbd
000001e0: 8883 433d d6d0 383c 4735 b7bc fbb0 febd
000001f0: 7593 b6bd 0854 3bbb fa24 ecbd 9f7c b8bd
00000200: 8a23 bf3c c5b1 0c3e 8a1f b13c cee4 073c
00000210: 7f65 adbb 6f0e 063d 9898 8a3d 598d 70bc
00000220: 7be7 bcbd b582 143d 0a31 ae3c 99be 65bc
00000230: 05ce e73c a8d4 933d 738b 26bd db33 3b3c
00000240: 446d d93c 15fa 45be 3773 b8bc d50f 33bd
00000250: e081 cb3c 25d3 35bd 42a1 643d 5770 c83c
00000260: 79b1 dd3f b1ad 013d 587e b3bc 6bf6 9d3d
00000270: b5bf ddbc 089e 40bd 45d0 65bb 74fc b03c
00000280: 78b5 7fbd 0e29 37be 70a4 0abd ad01 40bb
00000290: f690 843d fdc6 3c3e 977f ce3c 2e45 0fbe
000002a0: 96c9 18bc 0214 b0bd 2ffc 1f3c 2a22 5bbb
000002b0: cb33 a83b 7de5 1c3d 026c d4bd 3688 613d
000002c0: 32bb fa3c e65e 073e b119 4f3b 50b2 5dbd
000002d0: 0563 f4bc ee81 5cbd 0523 99bd ad3a b5bc
000002e0: 9297 ac3c 1618 19bc 864d 0e3d 3fbd 0ebe
000002f0: adb2 5bbd 4290 21bd de2b 6ebd b743 a43e
00000300: 51e1 8c3d d934 84bd f10b abbc d06e e1bd
00000310: cafb 22bd 0724 cfbd 62d3 ac3d 9bc2 133e
00000320: 5b9e 663b cf64 de3d 77ff 343d 3887 093c
00000330: 4743 063d d274 843d 40c3 5f3d 8456 023d
00000340: 903a 85bf 4c6f 9fbc 6d15 a53d b7ca 5b3e
00000350: 6cd6 d4bc fc21 99be 2f9a e7bc 15f6 9a3e
00000360: 27ff 91bb 6eff f3bc 8be5 213e aef5 853d
00000370: bc2b 8bbd b3f8 a0bd fcfe 55bb 02d3 adbd
00000380: d78e afbd 2853 95bb ab98 0d3d 3490 a73b
00000390: f62e 3b3e 929b 003b 2fec aabb 5456 a2bb
000003a0: 11d9 8a3d 66f3 18bc 3c78 16bb 2e18 09bb
000003b0: 6538 33bd 496e 8fbf 0b2c c0bd 557a d33c
000003c0: 1a53 a5bc eb63 b1bd e2d0 b73b 5332 cabe
000003d0: 9704 943c ea8f c33c c1ad 06bc c006 383d
000003e0: 8ba9 ea3b da93 453b e890 b43c 0252 9ebd
000003f0: 6cac 4dbd 914b 833b a730 95bb c936 b23d

action_out.bias f4 [4]
0.013269815 -0.024232395 -0.006405837 0.0032129965
00000000: a369 593c 0483 c6bc 0ee8 d1bb 2391 523b
