mujoco_project/saved_models_baseline/FetchReach-v1/model.pt (torch_old, 546499 bytes, 8 tensors)

fc1.weight f4 [256, 13]
00000000: 655a 823d baef 4abe abfa 0c3e 1de5 683d
00000010: ee0f 90be aa35 413c 23cc 44bd cbd9 a9bd
00000020: f24e 73be abc3 063e eb3d e4bd 7a8c 0c3e
00000030: ca9f 3dbe 8954 0ebf 5ea1 d23c a649 fbbd
00000040: c00d b5be 4a63 303d 38b3 2e3b f7f4 b4bc
00000050: f280 abbc 91ce ce3d 9ad0 983c 6c3b 243f
00000060: 6bd2 c0bc 2c71 ec3d 507f ee3d 7cee 723e
00000070: 7bc8 e43e 4ae2 6dbc 9d15 f63e bf9b 89bc
00000080: c7ec 933c 9fcb d5b9 143b 623e 2bfa 8fbe
00000090: d080 f1bd 73c1 87be 115c fabe 7a3e a5be
000000a0: 2f78 0ebe 8bbd 85be a348 8bbd ab10 543e
000000b0: 7c00 42bd 9751 f1bb cb73 99bc ad9a 35be
000000c0: 8a5a 593b bb08 c33e 8025 273e 0e75 843e
000000d0: 912c 0a3f 6346 813e ad5f 0f3e d6c6 8bbe
000000e0: 2b53 50be 1e81 e73c f1e6 c6bb 0207 c0bc
000000f0: a1eb c039 cffb 02bd 9c1b 13bf 30cd 85be
00000100: 288d 1ebe d909 3cbc ab44 8bbe 74f4 d33e
00000110: 36ba 963c 2472 da3e f803 35bc 229a 183d
00000120: 5625 1cbb c25f 86b9 6287 dfbc 1059 ae3c
00000130: 5097 a43e 8afc f4be 55dd 99be 1ce9 bd3d
00000140: d1cb ec3e 36b9 4cbd de6d 08bb 38b6 08bb
00000150: 7640 8ebc 713b dd3a 3385 a63c f846 b13d
00000160: 977d 9d3e 17b8 88bd fdb6 07bf c8a9 de3e
00000170: 9511 2abd fc6b fc3e 277d a4bd 40a9 963d
00000180: 53ba 8dbc 1153 283c 6649 9d3b f497 36bb
00000190: 820a 943c 8bac f8be 0e32 843d 1166 0fbf
000001a0: 242f ae3c 03ab 08be 53b4 b13e 81a1 1a3f
000001b0: 4da3 fe3e fd68 bb3c d181 813b 343d 7c3c
000001c0: 521a 073e beb5 abbe 2e55 d8bc cdb2 bb3d
000001d0: 4370 dabe add1 a9bd 22d7 10be ac9d 223d
000001e0: 37d3 e63c 3715 5d3e 41bc 833c 5868 3fbd
000001f0: 1352 4e3d 4302 04be 6b70 943e f53e 953d
00000200: 406c 2d3e 4825 86bc b6d0 d3bd 2caf db3e
00000210: 9ff9 34bd 4fd0 5d3e 635f af3e b181 73bc
00000220: 4b7a 5bbb 6aba 823c 18a4 d5b6 3181 053b
00000230: 1f1e 393d e065 fbbe 7bf6 0b3d 87d4 933d
00000240: b687 2ebe 0b22 d8be cd21 873a 43f7 473e
00000250: 50ef 43bc 8a16 f3bc 6159 c5ba 2d81 a9ba
00000260: 5879 153d f6ce 57bd ca63 fd3d 2575 063f
00000270: 4419 d9bd 37ae 9fbe ff88 d3be 90c2 b93b
00000280: 744e c1bd 1315 d5bb d71d 3abc a1a3 b4bc
00000290: 5a46 3c3d 3d41 183e 6753 003e 71cb a23e
000002a0: d6c2 ff3e 6137 c43e 4a6b a3ba e2ba 09be
000002b0: ec24 cb3e 2f42 df3e f13a 173d 447f 0ebd
000002c0: 87ac 84bc ba3a 15be b97a bb3c bd5f debe
000002d0: cffd 6abc eed3 0f3e 4f88 983d 973c eabe
000002e0: 0510 ccbc 5bb1 0cbd 15e7 ddbd 794c adbc
000002f0: 2f7d 2c3c 0a30 4d3b 2b5d 4a3c e3bd 78bd
00000300: 6900 1dbd 2239 0a3f d365 9cbc f2e9 a8bd
00000310: 8da6 043e 835b f7bd 438b 74bd ff6c 6ebe
00000320: 19d7 cdbc 9263 8d3c f61d ca3b 3084 89be
00000330: 1234 b9bd 1ee9 013e d14b 02be fc8b b83d
00000340: 0121 a7bb f88c bf3b eff2 5d3e 2d87 9f3e
00000350: 25e5 e73e f97c 9abb 4713 883d 781f efbc
00000360: 0c94 c73b 15e1 8cbe 9f9c 92bd d935 ae3c
00000370: abff 81be bed9 1ebe 3a1d cb3e 03c3 abbd
00000380: 1d09 f23e 94fe dc3c 7c9f 05bc 9e95 0a3b
00000390: 5f9d 813c 554e d6bd 7004 113e 9472 4e3d
000003a0: 7740 cebe dd8b 293d d85f 55be f63a d7be
000003b0: caf0 c93e 8419 c2bd a830 b7be 7ca8 98bc
000003c0: e05e 1bbb 6368 1bba 3cc9 f13c 92b2 323c
000003d0: 89c3 883e 72bb e73e 3eb5 dbbe 88a4 193e
000003e0: 9afd a6bc fb99 cabd 03f6 b53e 83f4 e83c
000003f0: f8c2 b0bb 7d36 bcbd 12e0 923c 42c7 0dbd
0.06364898 -0.19818011 0.13767497 0.056859124 -0.28137153 0.01179258 -0.048046242 -0.08293494
-0.23760584 0.13160579 -0.111446224 0.13725463 -0.18517986 -0.5559774 0.025711711 -0.12269907
-0.35362053 0.04306344 0.0026657116 -0.022089465 -0.02093551 0.10097993 0.018654156 0.6415317
-0.023537835 0.11545023 0.11645377 0.23723787 0.44684204 -0.014519284 0.48063365 -0.016797898
0.01805724 -0.00040778235 0.22092849 -0.2812055 -0.11792147 -0.26514778 -0.48898366 -0.32274228
-0.13913034 -0.26121172 -0.06800964 0.20709483 -0.047363743 -0.0073644626 -0.018731972 -0.17734785
0.0033165538 0.38092598 0.16322899 0.25870556 0.5397425 0.25249013 0.14001341 -0.27300137
-0.20344226 0.02825981 -0.006070011 -0.023440842 0.0003679665 -0.031978425 -0.57464004 -0.26133108
-0.15483534 -0.011476957 -0.27200827 0.4139744 0.01839934 0.42665207 -0.0110483095 0.037256368
-0.0023825965 -0.00025629817 -0.027286235 0.021282703 0.32146692 -0.47848922 -0.30051675 0.09272978
0.4624925 -0.04998132 -0.002081744 -0.0020860564 -0.017364722 0.0016878677 0.020327186 0.08656114
0.3075988 -0.06675737 -0.5301359 0.43488908 -0.041520674 0.49301136 -0.080316834 0.073565006
-0.01730076 0.010273711 0.0048000095 -0.0027861567 0.018071417 -0.4856914 0.0645486 -0.56015116
0.021262713 -0.13346486 0.3470789 0.60402685 0.49733964 0.02287721 0.003952243 0.015395451
0.13193634 -0.33537096 -0.026407804 0.09164963 -0.42663774 -0.082919456 -0.14144567 0.03970115
0.028176887 0.21590124 0.016080977 -0.04673037 0.05037124 -0.12891488 0.28992018 0.07287399
0.16935825 -0.016375199 -0.10342543 0.42907083 -0.04418337 0.21661495 0.34252462 -0.014862464
-0.003348964 0.01595803 -6.3669977e-06 0.0020371194 0.04519474 -0.49101162 0.03417061 0.07218271
-0.17043957 -0.42213473 0.0010309756 0.19527917 -0.011958912 -0.029673833 -0.0015056544 -0.0012932174
0.036492676 -0.052687608 0.12372549 0.525225 -0.10600522 -0.31187603 -0.41315457 0.0056689456
-0.09438792 -0.0065027564 -0.011359653 -0.02205068 0.04596553 0.14868636 0.12531815 0.31795838
0.49953336 0.383235 -0.0012467888 -0.13450196 0.39676607 0.43605182 0.036921445 -0.03478934
-0.016195549 -0.14573184 0.022885667 -0.43432418 -0.014342739 0.14045689 0.07447874 -0.4574935
-0.024909982 -0.034348827 -0.10835091 -0.021154629 0.010527893 0.003130915 0.012351315 -0.060727965
-0.03833047 0.5399343 -0.019091522 -0.082477465 0.12954159 -0.12078001 -0.059703123 -0.23283766
-0.02512698 0.017259393 0.0061681224 -0.26858664 -0.09043135 0.12686583 -0.12724234 0.09011075
-0.00510037 0.005845662 0.21674703 0.31157818 0.4529201 -0.004714605 0.06644302 -0.02918981
0.0060906466 -0.27515474 -0.07158779 0.021265911 -0.25390372 -0.1551275 0.39670736 -0.08386805
0.47272578 0.026976861 -0.0081557 0.0021146308 0.01582211 -0.104641594 0.14161849 0.05040224
-0.40283558 0.04139315 -0.20837343 -0.4203717 0.3944152 -0.09477523 -0.3577931 -0.018635027
-0.0023707673 -0.00059283356 0.029514901 0.010906832 0.2671168 0.45260197 -0.42911714 0.1500417
-0.020384599 -0.09892651 0.35539255 0.028436905 -0.005394336 -0.0919008 0.01792911 -0.034613855

fc1.bias f4 [256]
00000000: 1b44 a3be d2de afbe 1c5f 8cbe 35c4 60be
00000010: afcf a0be 898d 64be 4afe 53be 63ca 6fbe
00000020: d5af a5be 0f26 07bf cf01 92be 5e07 bdbe
00000030: 6f52 85be 04b1 97be 7385 9bbe 5513 6b3e
00000040: f1f6 93be 2672 bdbe 1873 25be 946f 07bf
00000050: 7f53 c5be 59b2 a3be c839 f3bd 37ef d8be
00000060: bfd6 9d3e 5de9 6cbe acde ccbe 9ae7 49be
00000070: e756 463e 5272 9cbe ba3a f8be cef2 cdbe
00000080: e4c9 5cbe dbf9 47be 78c2 7cbe c971 cd3e
00000090: 3157 b2be a124 a6be eb14 983e 38d8 8bbe
000000a0: 62f0 5fbe d0b6 aabe 6831 8ebe 3838 a8be
000000b0: 2265 383e 1229 acbe da9f d0be 717a 8fbe
000000c0: f94f 0abf cc1c 8dbe 6a37 a1be 49cc 8dbe
000000d0: 486a 86be c30c 9cbe 5bd9 333d 873a d9be
000000e0: f3b8 9abe 6d8c 45be 5455 82be d2b7 50be
000000f0: 472a ec3e 4625 07bf d698 cfbe ab97 7abe
00000100: 1228 97be 3f1d 003f ea22 5fbe c6ec a1be
00000110: a8b0 e43e aaae 9bbe 74b7 2dbe a033 e0be
00000120: a651 98be e23a 86be 2e57 dfbe 85d7 45be
00000130: 5f1f 79be a66b 78be d36c 19bf 0a87 a13e
00000140: ca20 dabe 79d7 c0be 6f58 bb3b a681 aabe
00000150: 6d88 af3e 5f04 69be 1cdc 59be c46b acbe
00000160: 3441 73be 1783 a0be 8adc debe 2946 b7be
00000170: 775a f53e 60b5 97be 7956 86be e7bd 73be
00000180: 34e1 383e e8dd 8bbe b869 bfbe 6359 f6be
00000190: 034a 9ebe c100 0fbf bd73 d2bd 55ec d43e
000001a0: e80c 7bbe 6139 b63c ad0f f9be d4f7 7ebe
000001b0: 6750 4ebe 4d98 b23e ed9b f1bd 25cb 89be
000001c0: f95d 85be 9914 cdbe 4d97 3dbe 90fc 94be
000001d0: c9ff 56be 2a06 84be e0f7 95be 6ba8 8bbe
000001e0: 824e 64be d1d9 a8be 058a 93bd 9415 8bbe
000001f0: c0e9 26be a763 4bbe f196 5abe 9ec3 babe
00000200: f42c 80be 6b5f 7cbe 6eaf 80be ee89 5ebe
00000210: f7ca b9be 9f23 47be 8cc2 5f3c 9b23 84be
00000220: 8ba0 bcbe 2c9b 57be 6c46 65be 2d60 1abe
00000230: 315b 76be 6149 97be c20f 90be 9b5b adbe
00000240: b195 883e 4c8f 053f c48c d1be 72d3 45be
00000250: 8904 a8be ab1d 43be 47c5 5dbe fd35 86be
00000260: 1790 bdbd 8ee1 95be 07c5 33be 73ef 98be
00000270: 481c 023f bac1 97be 4dcd 7fbe cf56 80be
00000280: 6467 acbe c930 82be 3f32 efbe 6d64 e93e
00000290: ba4a ed3e fc1c 5abe e05b 93be 7480 893e
000002a0: 71e9 80be 9fb6 2ebd 80c3 97be c5d8 4e3d
000002b0: d045 c1be b700 7a3e 43e5 eebd b007 31be
000002c0: 40d6 9fbe 924e 9ebe 4643 8fbe 6c2e 89be
000002d0: 5c4e c1be 1368 993e 02bf 963d afea 6cbe
000002e0: cdb2 88be 56da 85be 5f7c a0be a887 86be
000002f0: bc0d c4be c025 0a3f eff6 87be afe6 a6be
00000300: ff80 06be 7caf 81be 8fac 54be 7435 2dbe
00000310: b475 6dbe 31ed a5be 83ba 47be 7e7d 5dbe
00000320: a842 cb3e 15f0 3ebe ce06 a0be 4a21 2dbe
00000330: c7c6 90be a5c4 8abe 5a82 f7be 2ff2 e4be
00000340: b06d 9fbe b748 13bf 68e1 e83e caba b03e
00000350: 3ae3 4ebe 5e3d a8be 5097 9bbe 3e6c 8bbe
00000360: 1c18 91be aae8 aabe 4f48 fd3e 4d75 75be
00000370: d012 a2be 1c54 21be 0ab6 0e3f 015a c8be
00000380: a2df 3fbe 6640 96be c61c 79be 5bec 0a3f
00000390: 9aea 0abe addc 8bbe 7b62 48be a82e 0bbe
000003a0: 90cf 5bbe aeae 43be 169d 99be 6bfa 8bbe
000003b0: a391 9abe bee6 7ebe 2ece 4bbe a5c4 aa3e
000003c0: 2824 38be de9e aebe b852 99be 5e48 74be
000003d0: 3ee7 96be 3652 99be 5c83 b1be f3e8 583e
000003e0: 4080 aabe ef9c 8cbe 5185 53be 2161 8cbe
000003f0: ac95 55be 3f56 97be 2b57 6cbe 448a 9ebe
-0.31887898 -0.34349686 -0.27416313 -0.21949847 -0.3140845 -0.22319616 -0.20702472 -0.23417048
-0.32360712 -0.5279245 -0.28517005 -0.36919683 -0.26039454 -0.2962724 -0.3037525 0.22956593
-0.2889934 -0.3700115 -0.16157186 -0.5290463 -0.38540265 -0.31972006 -0.11876255 -0.42370006
0.308279 -0.23135896 -0.40013635 -0.19717255 0.19369088 -0.3055597 -0.48482305 -0.40224308
-0.2156139 -0.19528906 -0.24683559 0.40125874 -0.34832147 -0.3244982 0.2970346 -0.273134
-0.21869043 -0.333426 -0.2777207 -0.32855392 0.18007329 -0.33625084 -0.40746957 -0.28023103
-0.5402828 -0.27561033 -0.3148759 -0.2769492 -0.2625296 -0.30478486 0.04390846 -0.42427465
-0.3021923 -0.1929185 -0.25455725 -0.20382622 0.46126005 -0.5279125 -0.40546292 -0.24471919
-0.2952276 0.50044626 -0.21790662 -0.31625956 0.44666028 -0.30406696 -0.16964513 -0.43789387
-0.29749793 -0.262168 -0.436212 -0.19320495 -0.24328373 -0.24259815 -0.5993168 0.3154834
-0.4260314 -0.37664393 0.005717329 -0.3330204 0.34283772 -0.22755574 -0.21275371 -0.3367597
-0.23755342 -0.31350014 -0.43527633 -0.35795715 0.47920582 -0.29630566 -0.26237848 -0.23802911
0.18054658 -0.2731774 -0.37385345 -0.48115072 -0.3091584 -0.55860525 -0.102759816 0.41586557
-0.24516642 0.022244157 -0.48644772 -0.24899226 -0.20147859 0.3488182 -0.117973186 -0.269128
-0.26048258 -0.40054777 -0.18514748 -0.2909894 -0.20996012 -0.25785953 -0.29290676 -0.2727693
-0.22295573 -0.3297868 -0.072040595 -0.271649 -0.16300106 -0.19862233 -0.21346642 -0.3647737
-0.25034297 -0.24645774 -0.25133842 -0.21732304 -0.36287662 -0.19447182 0.013657223 -0.25808415
-0.36841235 -0.21055287 -0.22390145 -0.1507575 -0.24058224 -0.2954817 -0.28137022 -0.33858952
0.26676705 0.5217178 -0.40927708 -0.19318941 -0.3281596 -0.19054286 -0.21657287 -0.26213065
-0.092559986 -0.29273647 -0.17555629 -0.29870185 0.50824404 -0.2963999 -0.2498066 -0.2506623
-0.3367263 -0.25427845 -0.46718022 0.4558443 0.46346074 -0.21300119 -0.28781033 0.26855814
-0.25178102 -0.04265463 -0.29641342 0.050499696 -0.37748575 0.24414335 -0.11664822 -0.17288089
-0.31218147 -0.3091932 -0.27981013 -0.2679323 -0.37755096 0.29962215 0.073606506 -0.231364
-0.26698914 -0.2614314 -0.31344888 -0.26275373 -0.38291728 0.5396385 -0.26555583 -0.32597873
-0.13135146 -0.25329196 -0.20768951 -0.16914922 -0.23189431 -0.32407525 -0.19504742 -0.21629903
0.39699292 -0.18646272 -0.31255192 -0.1690723 -0.28276655 -0.27103153 -0.48341638 -0.4471602
-0.31138372 -0.5753283 0.4548447 0.3451751 -0.20203868 -0.3285932 -0.3038888 -0.2723102
-0.28338706 -0.33380634 0.4946923 -0.23970528 -0.31654978 -0.15754741 0.5574652 -0.39131168
-0.18737653 -0.29346007 -0.24327382 0.542669 -0.13566056 -0.273168 -0.19568817 -0.13592017
-0.21465898 -0.19109604 -0.3000266 -0.2733949 -0.30189237 -0.24892709 -0.1990287 0.33353153
-0.17982543 -0.3410558 -0.29945922 -0.23855731 -0.294733 -0.29945534 -0.34670532 0.21182613
-0.33300972 -0.2746348 -0.20656325 -0.27417853 -0.20857877 -0.29557988 -0.23080127 -0.30964863

fc2.weight f4 [256, 256]
00000000: 7946 493d f152 013a 0799 82bd 8f4d 963c
00000010: 2483 213d f4f8 bf3b 3490 3abd 0e3d 063c
00000020: 315e 473d 2289 a43c 0710 31bd 1405 fc3b
00000030: 2511 b5bc db81 bdbb 1492 68bc 3963 73bc
00000040: d7d1 82bd d9fe 743c 8f20 e33c 2d7c 87bb
00000050: 1dba 443d f699 efbc 6067 ecbc 36d5 8cbd
00000060: b71e d13c 30bf 5cbc 3ab7 f4bc 0afd 21bd
00000070: 5d02 383d a52c 103a 40e9 41bd 28a9 403d
00000080: e2af c43c 0db0 f93c 9d85 083d e987 003d
00000090: ff1a 063d 21d8 b7bc 9f11 87bc efd0 463c
000000a0: 8591 96bc 50d0 d8bc a8a3 81bd 4a6f 36bd
000000b0: 3352 433c 68e1 1e3d cbee cfbb 8677 363d
000000c0: d130 8fbc b4ce ca3c 512e 653c 6acb a13c
000000d0: 6107 6b3c 63ec 47bd 8703 2abc 1c67 8abd
000000e0: 33e6 acbc 25ad 103d f553 233d 03d6 dcbc
000000f0: 10f4 92bd 56b4 3f3d 3a5d 103c 43a1 7cbd
00000100: a73b 62bd 237b d1bc 2492 35bc ae21 70bb
00000110: a248 8cbd eaf9 db3a 5689 5bbd 3bb1 8ebd
00000120: fd65 06bc b137 6d3c ee94 cbbc c738 2abc
00000130: 8e61 333c 67cc 7a3c 8dfe d33c e309 ad3c
00000140: c5e2 c33c 59cd 70bd 30f3 22bd bbf5 85bc
00000150: fd48 7abd ae52 1bbc 55e9 263d 3678 9c3b
00000160: b779 ee3b 1bb5 563b 652f ae3b 773a eebb
00000170: a8ee b2bd c895 3a3d 028b 69bd 5682 28bd
00000180: e903 04bd adfa a7bc 99ad 84bd bf54 0abd
00000190: b27f 8fbd b654 c43c 58c9 893c dc0e 3c3c
000001a0: 548a 1cbd 038f 29bc 0246 8bbc 345a 3abd
000001b0: 764c 4b3c dd3d 5dbc db4e 38bc 0cbe 383d
000001c0: fc52 8ebb 77f1 d63c a56a 52bd 2ebb ba3b
000001d0: 6b47 96bc 9f25 113d 1a87 fabc f65d 49bd
000001e0: da3a ed3b 6258 513d d618 75bd c9c0 413d
000001f0: 729d 053d 7560 63bd 346d 2dbd be89 5bbb
00000200: 817c 2c3d 4041 1f3d 1c8b 15bd bd54 78bc
00000210: 8b78 9cba dee5 473c 69cc c73b 1d25 86bd
00000220: 5fd8 513d 0e51 4dbc 3661 2dbd b772 84bd
00000230: 7775 6cbd 4c93 8bbc 6058 283d 2b66 3dbb
00000240: 59ca d23c d7d5 89bb 555f 8bbc d0dc 4abd
00000250: e869 303d ae5c 023d 0c6d 42bd 2740 4cbc
00000260: 7172 86bd 88c1 41bd 02d5 19bd 5458 7b3c
00000270: b5cd e9bc 8bee 263d dbbf cfbc 2d02 013c
00000280: ddf8 8d3c 34c4 283d 5f00 00bd 230b 5e3c
00000290: 86bb 123b 3c22 a63b 7ee8 b5bc 1f6a fd3c
000002a0: 0870 48bd 5d1e 103d 2e66 d0bc a9c5 0dbd
000002b0: 6949 2dbd d20c 76bd 9934 89bd bbf9 03bd
000002c0: 3d61 c938 188c 2fbd d9a4 04bc 08d7 01bd
000002d0: 9a15 60bd 870f 11bd 3715 463c 4079 06bc
000002e0: 2911 5ebc da27 6fbd 3bb2 20bd 157e 1abd
000002f0: b756 343d d4f9 06bd 12e0 413d 7a4d fb3c
00000300: 831b 8dbd 0cf7 183d fb1d 06bd a7be 7abd
00000310: af06 a2bc f5fa 503c c6c6 08bd 6e91 7dbd
00000320: dc2f c7bc 204e 59bd 8b58 66bd 27ca 5bbd
00000330: efc4 d5bc 57ba 3dbd 1934 8dbd ed5a 3c3d
00000340: 12ad b0bb 661d 373c 33d6 6cbd 7949 11bc
00000350: f03a 34bd 4f84 013d 4043 183c d5a5 85bd
00000360: 9b46 4ebd 9bfe 4dbd 5504 e63b 6e1a 51bc
00000370: 4e70 f9ba db70 cfbb f586 60bd 1445 f4bc
00000380: 36cc 7ebd 6d11 cebc 5c3a 5c3d 870d d4bc
00000390: 4ac5 84bd 3353 463d 17f9 73bc 17eb 9b3c
000003a0: 65f7 023d 94ca de3b 600f 893c 8e91 1f3d
000003b0: e374 4fbc 1937 bebb 8f00 8fbc c6a7 c03c
000003c0: 99da 71bd f15c 1f3d d8ff d43b aa0d b3bc
000003d0: f68a 4f3d ce5b 4cbd c173 2fbd 0b09 55bd
000003e0: ae22 01bd 46ee 39bb debd 7cbd 6ee7 4bbd
000003f0: 11e2 81bd adf7 73bd d823 82bc d42c 0ebd
0.049139474 0.00049333187 -0.06376844 0.01834753 0.039431706 0.005858535 -0.04554768 0.0081932675
0.048673812 0.020084921 -0.043228175 0.007691035 -0.022102902 -0.0057833022 -0.014194984 -0.0148551995
-0.0638768 0.014953339 0.027725486 -0.004134676 0.048029054 -0.029248219 -0.028857887 -0.06876604
0.025527341 -0.013473317 -0.029872525 -0.039547957 0.04492413 0.00054998166 -0.047341585 0.04703632
0.024009649 0.030479455 0.03333055 0.031379614 0.03274059 -0.022441925 -0.016487895 0.012134775
-0.018379936 -0.026466519 -0.06330043 -0.044539727 0.011921453 0.038789183 -0.006345605 0.04454758
-0.017479332 0.024756767 0.0139880935 0.019750316 0.014345021 -0.04880942 -0.010376818 -0.06757948
-0.021105861 0.035321373 0.03987499 -0.026957517 -0.071754575 0.04680284 0.008811289 -0.06167723
-0.05523267 -0.025571411 -0.011082206 -0.0036641168 -0.06849791 0.0016782854 -0.05359777 -0.06967398
-0.008203027 0.01447861 -0.024851289 -0.010389513 0.010948552 0.015307522 0.025878215 0.021122878
0.023911843 -0.058789585 -0.039782703 -0.016352525 -0.061104763 -0.009480162 0.040749867 0.0047750724
0.007277693 0.0032761756 0.0053157085 -0.007270153 -0.08736926 0.045553 -0.057017334 -0.041139923
-0.03223029 -0.020505274 -0.064784236 -0.033772226 -0.07006778 0.023966175 0.016819641 0.011478152
-0.038217857 -0.010349038 -0.017001156 -0.04549618 0.012408366 -0.013503519 -0.011249269 0.045103118
-0.0043433886 0.026238186 -0.051371235 0.005698583 -0.018344602 0.03543627 -0.030582 -0.049161874
0.0072396817 0.05110968 -0.05983814 0.047302995 0.032620855 -0.05551191 -0.042340472 -0.0033498849
0.042110924 0.038880587 -0.03650962 -0.015156922 -0.001193778 0.012200801 0.0060973656 -0.065500475
0.05123174 -0.012531532 -0.042329036 -0.064671926 -0.05772921 -0.01703801 0.041099906 -0.0028900008
0.025731253 -0.0042064 -0.017013231 -0.04952699 0.04306975 0.031826667 -0.047467276 -0.012466467
-0.06564797 -0.047303706 -0.037556656 0.015340883 -0.028540472 0.040754836 -0.025360039 0.007874054
0.017330581 0.04120274 -0.031250354 0.01355246 0.0022389605 0.005069999 -0.022205587 0.030934392
-0.048934966 0.035185207 -0.025439348 -0.03461233 -0.042306338 -0.06007082 -0.06699485 -0.032220583
9.602539e-05 -0.042858213 -0.008095943 -0.03169921 -0.0547081 -0.0354152 0.012090019 -0.008207619
-0.013553896 -0.058387615 -0.039232474 -0.037717897 0.04402801 -0.0329531 0.04733283 0.030676592
-0.06890013 0.037344977 -0.032743435 -0.061216976 -0.019778578 0.012755145 -0.03339269 -0.06190627
-0.024314813 -0.05305302 -0.056236785 -0.053659584 -0.026094882 -0.046320286 -0.068947025 0.04598515
-0.0053917253 0.011176443 -0.057821464 -0.008867615 -0.04400152 0.03162032 0.009293377 -0.065257706
-0.050360303 -0.05029164 0.0070195594 -0.012762649 -0.0019030662 -0.006330592 -0.054816205 -0.029818095
-0.06220647 -0.025154794 0.053766593 -0.025885357 -0.064829424 0.04841919 -0.014890931 0.019032998
0.031974215 0.0067990515 0.016730964 0.03895717 -0.012662145 -0.005804908 -0.017456321 0.0235175
-0.05904636 0.038906995 0.0065002255 -0.021857101 0.050669633 -0.04989224 -0.042835 -0.052010577
-0.031527214 -0.0028370782 -0.06170451 -0.049781255 -0.06341947 -0.059562374 -0.015886232 -0.03471072

fc2.bias f4 [256]
00000000: 796d a5bd b21d d6bd 5890 84bd 1cb9 14bd
00000010: 3e5e d4bc a27e 12be ff2c afbe 9cbc 88be
00000020: c979 0ebd 1fbb c6bd c135 723c 9033 37be
00000030: 2193 1dbe 3bea 3bbc 9247 c9bb a5db 22be
00000040: 8e04 84be 1ca0 2a3d 1b85 a8be b330 6b3d
00000050: 77c3 87bd aa47 0dbe 34cb 37bd 28df 0ebe
00000060: b605 073d 7126 623d d363 9bba 810f 63bb
00000070: cbb6 43be b94a 4a3d dc7a 7dbe c374 8ebd
00000080: 6e27 f6bd b949 2ebe 9b48 af3b b1d4 85be
00000090: fbb3 f3bc fa40 af3d c4c8 88be 7caa 953c
000000a0: 3420 623c 142f 39bd 3e4d b93b 9850 25bd
000000b0: 9331 0b3d 7c08 39be 5653 a4bd 295f 0cbf
000000c0: d01b 8fbd 2b0d e1bc 26aa 63bd a970 89bd
000000d0: a815 323d 7fb9 b1bd e40c 68be e920 153e
000000e0: c286 c53d fbfc 88bd ba13 02be 1c15 13bd
000000f0: 2853 a8bd adbb a1bd 17f1 913d 46ae e43c
00000100: f957 71bd 2102 053d 8299 22bd e8f3 7fbe
00000110: 4ae6 a6be 82d3 273c 2ad2 9cbb b472 99bc
00000120: 229d 21be 4653 ee3c 82b2 093e 62de 8dbe
00000130: 848e 0f3d fcef bfbe 421e 763c dcfe 2b3d
00000140: 4f6f 5ebe 96f2 e5bc a79e bbbe c053 b6bd
00000150: 1bb5 943c 6f30 c2bc db93 2e3b 113a 18be
00000160: 9b71 95bd b8a4 54be 3104 85bd d7e4 a0bd
00000170: 1ed6 82bd d558 12be 8faa 81be a7b8 4abe
00000180: d833 33be cb41 4abd 5c62 4cbd 8fcf 3b3d
00000190: 01b9 85be 75c1 90be 90f5 173d 191d 553c
000001a0: 0314 1bbe 94b0 71be 22f8 973d cca9 08be
000001b0: 6eb1 fe3d afe8 90bd 31ed 7abd d501 b43c
000001c0: 06ba c1bc 9afb 84be 1b33 d3bd 74c0 d43b
000001d0: 7d62 6ebc e703 b9be 82e6 40be 52d4 36be
000001e0: 7ede c0bd a872 90be 70c5 07bd 0d92 0cbc
000001f0: f47d e4bc 1c3b 01be 6a11 393d 4a22 44be
00000200: 17b7 f73b 030f 1abe f36e 1f3c 6772 adbe
00000210: 317e 1fbe ad40 94bc 9151 5bbe 0cf3 4bbd
00000220: 20ec 043b 3c9c b4bd 2a4c d0ba 8935 a9ba
00000230: 3d2e 0f3d ae4f 983d 8755 0bbe f9d0 2a3d
00000240: 5092 a5be c54f b7bd 4cc0 483b 7192 09be
00000250: f72d c5bc 228e fdbc eef0 54bc 9a4c 02be
00000260: 15a3 29bc 0a67 d13d f9b5 5dbe f579 38be
00000270: fb9b f4bd d737 203d 8f5f e1bd c3bc 3ebe
00000280: b890 4abd bee8 90bd d13a cbbd 7e52 03be
00000290: b1e5 133e 2bb1 74be 5c3d c7bc 16ff e73d
000002a0: 84af 06bc 110a 013d a23a 46bb 37f1 50bd
000002b0: 88ea 9cbc 7cd7 c9bd 445b 243d 790b fcbd
000002c0: e62d 19be 6c75 bebd cf82 8dbe 3b6c 0cbd
000002d0: e468 90be c219 683d add0 71be c6b3 07bd
000002e0: a0c0 b4bd 4d96 61be b30d 563c aa95 04bd
000002f0: b734 82be 0135 26be c750 76be 3583 3bbe
00000300: 2277 73bd bb3b 94bd d1c8 2abe 4fdf d9bd
00000310: cbd2 65be 0b44 493d 9728 113c 24f7 9bbd
00000320: c1a6 9abd d61e b63b dbd5 3ebd aa8d 90be
00000330: e524 09bf 1abc 98be ec95 28bc 4d05 87bc
00000340: 8c00 f4bd 374b 09be 6519 20be 6aa8 24be
00000350: 31fe 89be e08e 92be 93b0 2c3d 730b 6e3d
00000360: 5748 b0be 3d8d 57be c28e 16be 93ae 74bc
00000370: 7077 a9bd 94c5 26bd 5062 5e3e db25 42be
00000380: 396d c1bc d4a0 4fbd 72ea 8cbe b38d 0dbe
00000390: d2ac a2bd 301e a6bc 9167 893d 3094 bdbd
000003a0: 8973 c4ba 71bf 8abe 1097 90bd 2d70 2abe
000003b0: 8584 243e c5c3 44be 107c 0d3d 2fb8 b6be
000003c0: 7d41 173c 9200 24bf 1e3b e83d fd8b 0d3e
000003d0: bdca 503d c98d 103d 3f45 03be a28f 49bd
000003e0: cabd 74be 5e8e 8ebd f099 0abd 7317 7ebd
000003f0: 9aef 53be 3662 b6bd f428 16be 1e48 4fbe
-0.08077521 -0.10454883 -0.06472844 -0.036309347 -0.025923844 -0.14306119 -0.34214017 -0.26706398
-0.034784112 -0.09703659 0.014783324 -0.17890763 -0.15388156 -0.011469419 -0.006142565 -0.159041
-0.25784725 0.0416566 -0.3291405 0.05741949 -0.06629079 -0.13796869 -0.044871524 -0.13952315
0.03296443 0.05521244 -0.0011855311 -0.0034646692 -0.19112699 0.049387667 -0.24753898 -0.06955864
-0.12019239 -0.1702031 0.0053492314 -0.26138833 -0.029748907 0.08557315 -0.26715672 0.01826977
0.013801623 -0.045210913 0.00565496 -0.040360063 0.033982825 -0.18069643 -0.080237076 -0.548327
-0.06987727 -0.0274721 -0.055582188 -0.06710941 0.043477684 -0.08677959 -0.22661167 0.14563335
0.09644844 -0.06688877 -0.12702838 -0.035908803 -0.08218986 -0.078971244 0.07126062 0.027915131
-0.058921788 0.032472733 -0.039697178 -0.24995387 -0.32597572 0.0102432985 -0.0047857957 -0.018731453
-0.15782598 0.029092442 0.13447002 -0.27708727 0.035048023 -0.3748778 0.015021862 0.0419911
-0.21722148 -0.028069776 -0.3664448 -0.08902693 0.018152764 -0.023704736 0.0026638422 -0.148659
-0.07297059 -0.2076596 -0.0649494 -0.07856148 -0.06388496 -0.14291699 -0.25325438 -0.19797002
-0.17500246 -0.04937915 -0.04989849 0.04585224 -0.2611771 -0.28272596 0.03709942 0.013007426
-0.15144353 -0.23602515 0.074203745 -0.13346022 0.12436186 -0.07075631 -0.06126136 0.02197353
-0.023648273 -0.25973207 -0.10312482 0.0064926688 -0.014549849 -0.3613579 -0.18837932 -0.17854431
-0.09417437 -0.28212476 -0.033147275 -0.008579743 -0.02789209 -0.12620205 0.045182623 -0.19153705
0.007559668 -0.15044789 0.009731042 -0.33876345 -0.15575482 -0.018097246 -0.21417834 -0.049792334
0.0020282343 -0.08818862 -0.0015891839 -0.0012909631 0.034956206 0.07437073 -0.13606845 0.041703198
-0.3233819 -0.08950762 0.0030632196 -0.13434769 -0.02406977 -0.030951563 -0.012996895 -0.12724534
-0.010353823 0.10224731 -0.21651448 -0.18015273 -0.119438134 0.039115753 -0.110045545 -0.18626694
-0.04945442 -0.07075642 -0.09923328 -0.12824437 0.14443089 -0.23895709 -0.02432125 0.11327951
-0.008220557 0.03150374 -0.003024735 -0.05101129 -0.019154802 -0.098555535 0.0401261 -0.12306876
-0.14958915 -0.0929974 -0.27638862 -0.034282904 -0.28205025 0.05666519 -0.2361476 -0.03313043
-0.08825803 -0.22029991 0.01306479 -0.032369293 -0.25430843 -0.16231157 -0.24054252 -0.1831177
-0.059439786 -0.07237955 -0.16678168 -0.10638296 -0.22443692 0.049137156 0.008859775 -0.07615498
-0.07551337 0.005557875 -0.046590667 -0.2823308 -0.5357192 -0.2983101 -0.01028965 -0.01648202
-0.11914167 -0.13407598 -0.15634687 -0.1607987 -0.26951745 -0.2862463 0.04216058 0.058116388
-0.3443019 -0.21049972 -0.14702895 -0.0149342 -0.08274734 -0.04071577 0.2171719 -0.18959753
-0.023611652 -0.050690487 -0.27522618 -0.13823585 -0.07943119 -0.020278066 0.06709207 -0.0925678
-0.0014988045 -0.27099183 -0.07060063 -0.16644354 0.16066177 -0.19215305 0.034542143 -0.35687396
0.009231922 -0.6406337 0.11339401 0.13822933 0.050974596 0.035291467 -0.12819384 -0.049209245
-0.23900524 -0.06960748 -0.033838212 -0.06203408 -0.2069687 -0.08905451 -0.1466406 -0.20242354

fc3.weight f4 [256, 256]
00000000: bccf 5fbd 8911 34be bd89 083d c3db 533e
00000010: f7b6 e1bc 4e64 ecbd cfc2 133e e38e 5b3d
00000020: b0eb 053c 6bb0 05be 9319 653a 988c d3bd
00000030: 3755 013e 3337 853c 2f13 b83c 9527 593d
00000040: 53c3 2a3e 083b e4bd 19f5 4cbe 7faa 79bd
00000050: da6f c63c 6432 a33e a87a 753d ca96 94bc
00000060: 8669 abbd 056e 89bd 396c 19bd d022 113d
00000070: 9ce0 843c bb4d 64bd 1da3 253e eca3 23bb
00000080: 6453 8ebd eb50 883c 99b6 cdbc 04c9 5dbd
00000090: 3ba5 b43d d9fe 21be 2101 01be be4f 23bd
000000a0: be74 533d bffc 433d dc0c 953d e802 7f3d
000000b0: bf04 1c3b 9c3b 6cbd 699e 483b ae67 3bbd
000000c0: 20f5 34be 42dc f9bc 9663 be3c 61a7 953d
000000d0: 06ef d0bd 4a33 4a3d c385 5abe 2665 bbbe
000000e0: 3712 9abe 8a6d 57bd bb7d df3d 3781 42bc
000000f0: af99 0e3d 9df8 02be 93f2 3f3c ece2 15be
00000100: 3318 0ebc 52d7 31bb d905 6bbc 72f1 4c3d
00000110: 7665 39be 5266 ed3c dd64 01bd e495 0a3b
00000120: b71c 95bd 9777 5dbd 4d07 2dbd 2a6e 003e
00000130: ea74 8ebc bb7b 183e d938 393d 96e1 56bd
00000140: 649d b63b 091f aebc bc59 cc3d 4e92 0e3d
00000150: b5b2 b7bd d3ab 1b3d 3031 bbbc ed15 cabd
00000160: b611 04be 6a87 cdbc 54b6 343c 6759 f7bc
00000170: 96f7 9f3c 3a71 4ebd ce08 45be 8669 e8bd
00000180: a437 19bd 5d46 9a3d 8850 4f3c f584 0b3d
00000190: 1ce7 dc3d 1fa6 b53d 6242 89bd b3de 263d
000001a0: 96c7 e8bc aae9 33bc 861b 85bd 78ef 9abd
000001b0: d1f6 a5bd 900c 4d3d 0fdf 91bd a879 6abc
000001c0: 6dd1 633d 9b77 943b 31e8 9d3d 1065 7b3d
000001d0: c1bf 15bc baf4 91be 8e1b 8f3d ef4e c3bd
000001e0: 686e 37bd b47e e0bd 067c 31bc 1327 91bc
000001f0: 04b1 5cbd 60b6 16bd c6f8 16bd 2439 b33b
00000200: 3b8b 88bc 91c9 cf3c d433 94bc 8196 c1bd
00000210: abc0 d63d a257 18be a144 21be d32a c73c
00000220: d451 0dbe eeb5 0c3e 21f7 1ebd e70f ac3c
00000230: fc93 88bd db35 e6bd 3c1c e43b e4d1 90bd
00000240: ba89 50bd 0c20 473c c4ff 80bc 0fd0 b7bc
00000250: a1fb c23c baf4 a6bc 757b 493d d873 25bb
00000260: f46c 293d f39b 5cbe 868e 46be bc09 1abd
00000270: 9aed c23d 7655 41bd 246a 4fbd 54c2 17be
00000280: df14 ae3c 3340 013d cf7b 393e 0c45 a5bd
00000290: 166e 1cbf 01a8 653c 066f 1e3d 28f8 61be
000002a0: dccb 4cbd e0c2 a8bd ee8d 84bc 9814 7ebb
000002b0: 75cd 713d 1694 3dbe b75e c1bb fcb9 dd3d
000002c0: 2ee1 df3d 6c84 94bd cf7f 8d3d 837a 043d
000002d0: 0fd3 f4bc a70c 733b dc59 e63b 1851 c03b
000002e0: 5f18 743c c480 a43d ac01 413d 7248 91bb
000002f0: d0a7 b43b 281a a13c a712 543e 15c8 733b
00000300: 19f1 aa3c 2a02 90bd 6156 d53b b7c1 64bd
00000310: 8839 97bc e9db 743d 7d8e 1a3d 1824 c6bd
00000320: 6379 a7bd 3d78 4dbd 6bf0 753d 8396 48be
00000330: b12e 49bd 5d9c fd3d 276b ff3c 9826 10bd
00000340: 9a95 013c fde8 89bd 7c74 f83c 34ab ed3d
00000350: f57d 30bc 0ac6 b73d daf7 823c 89bd 68be
00000360: 143f 153d 2b77 dcbd 9d3d 07bd 2985 6cbb
00000370: 0054 d33a 7396 063d cf32 fbbd 1b32 943e
00000380: 2274 3e3d c63f 03bd 8c27 4e3b 3978 45bd
00000390: e457 9c3d fd3c 813c 8974 c9bd 16b4 8c3d
000003a0: 0483 323c d3d5 15be 6d88 073d e061 1ebd
000003b0: d540 a7be 35fe 15be cd8c 3abe c54f 4ebc
000003c0: 54e3 8cbd ff1f 64be c577 39bd 6090 53be
000003d0: 432c b33c f206 1c3d 921a 94bd 57b7 2b3c
000003e0: b3fe d13d 2f98 6f3d 412e 05bc 376e 1c3d
000003f0: 2fdd a9bd 9ca1 21bd 8c6b 1ebd 773b 13be
-0.05464147 -0.17584814 0.033334482 0.20689301 -0.027553065 -0.11542569 0.14429782 0.053603064
0.008173868 -0.1305558 0.00087394676 -0.103295505 0.12630163 0.016261673 0.022470085 0.053016264
0.16676073 -0.11144072 -0.20015372 -0.060953613 0.024223257 0.31874382 0.059931427 -0.018138308
-0.083697364 -0.06710438 -0.037456725 0.03543359 0.016220383 -0.055738192 0.16175504 -0.0024969531
-0.06949499 0.016640147 -0.025111483 -0.05414678 0.08820578 -0.15819873 -0.12598087 -0.03987097
0.051625006 0.04784846 0.07277843 0.06225863 0.002380654 -0.057674035 0.0030611998 -0.045753174
-0.17671633 -0.030500535 0.023240846 0.073073156 -0.1020184 0.04936532 -0.21340089 -0.36600608
-0.30092022 -0.0525947 0.10912653 -0.0118716275 0.034814533 -0.12790151 0.011715549 -0.14637345
-0.008672762 -0.0027136398 -0.014344656 0.050034948 -0.1810511 0.028979454 -0.03159033 0.002114647
-0.072808675 -0.054069128 -0.04224329 0.12542024 -0.017389733 0.1489095 0.04522023 -0.05246123
0.0055729616 -0.021255033 0.09978053 0.034807496 -0.089696325 0.03800566 -0.022850603 -0.09867463
-0.12897381 -0.025088985 0.011029799 -0.030193998 0.019527238 -0.05040095 -0.1924164 -0.11348252
-0.03740658 0.07532952 0.0126534775 0.034062345 0.10786268 0.08869576 -0.06702115 0.040739726
-0.028415482 -0.010981003 -0.0649939 -0.07565206 -0.08103717 0.05006081 -0.07122623 -0.014311232
0.055619646 0.0045308596 0.077103026 0.061375678 -0.009139956 -0.28507024 0.069876775 -0.0953654
-0.044783026 -0.10961667 -0.010832792 -0.017718827 -0.053879753 -0.03679502 -0.036858343 0.005469458
-0.016667953 0.025364669 -0.01809112 -0.094525345 0.10485967 -0.1487718 -0.15748836 0.024312412
-0.13800746 0.13741276 -0.0388099 0.021003677 -0.06668851 -0.11240741 0.0069613736 -0.070712835
-0.050912596 0.012153637 -0.015746959 -0.022438077 0.023801627 -0.020380367 0.049190003 -0.002524605
0.04136367 -0.21543865 -0.19390306 -0.03760694 0.09517975 -0.047200643 -0.050638333 -0.14820224
0.021250186 0.031555366 0.18113635 -0.0806981 -0.6110548 0.014017106 0.0386801 -0.2206732
-0.049999103 -0.082402945 -0.016180959 -0.00387696 0.05903383 -0.18513522 -0.0059011835 0.10826489
0.109316215 -0.0725182 0.06909143 0.0323434 -0.029885797 0.0037086399 0.007029755 0.005869042
0.014898389 0.080323726 0.047120735 -0.004433685 0.005513169 0.019665793 0.2071024 0.0037198116
0.020866917 -0.07031663 0.0065105413 -0.055848803 -0.01846005 0.059780035 0.037733544 -0.09674853
-0.081774496 -0.050163496 0.060043734 -0.19588666 -0.049116794 0.123833396 0.031179024 -0.035193056
0.007909203 -0.06733892 0.030328982 0.1160492 -0.010772218 0.0897332 0.015987325 -0.22728552
0.03643711 -0.10764917 -0.033017743 -0.0036090112 0.0016123056 0.032858323 -0.1226555 0.28944477
0.04649747 -0.03204324 0.0031456677 -0.048210356 0.07633951 0.015776152 -0.098366804 0.06870286
0.010895494 -0.14632349 0.03308909 -0.03866756 -0.3266665 -0.14647754 -0.18217774 -0.012592261
-0.06879297 -0.2227783 -0.045280237 -0.20660543 0.021871692 0.03809256 -0.072316304 0.010480723
0.10253658 0.058494743 -0.008128704 0.038191047 -0.082941405 -0.039460763 -0.038676783 -0.14378153

fc3.bias f4 [256]
00000000: 2ee9 b6be afe2 0cbe e1b1 e93b c81f dbbd
00000010: 2c08 65bd d5c6 0ebe 6bc6 aebe 020f 853b
00000020: 5027 dcbc ab0c 9e3d c068 01be ca2a a0be
00000030: dcde 5dbe 9cd9 293d 781c 47bc 34d0 a0be
00000040: 3500 70bd a5f2 0f3d 7ab7 df3d 1f1a 19be
00000050: 317d b2bd 754c b93d 4cc8 8cbd b9ad dbbd
00000060: 2276 c73d e8c7 9b3d d9ea 27bd 7be2 65bd
00000070: 5fd5 b6bd 307f 683c 2a52 29bc 9708 d53a
00000080: 2ad2 933d d548 103e e85c 823d c181 7e3d
00000090: b2dd 00be 835d af3c a479 3a3c d4d1 29bd
000000a0: 122a c2bd 5fb5 85bd d47a d9bc 7173 c83d
000000b0: 72bc fd3d 0a25 cdbe b388 f7bd e821 fbbc
000000c0: 3b5f 9f3c cd80 75bd 65a1 2d3c c145 b8bd
000000d0: a33f ce3d b158 2f3e 2c8f 03bd 41b2 b3be
000000e0: 4116 00be 20ad 9fbd 4f69 92be 0b73 d13c
000000f0: 919c b3be 5ce6 34bd d4b7 80bc b483 82bd
00000100: c219 8abe 4846 a0be 4ed0 063d 8dbd 383c
00000110: 7160 68bc b34c 94be ab35 d1bb 182b dabd
00000120: 8004 36bd 866a ba3a bcd4 e3bd e793 61bd
00000130: 72e0 893c f4e1 cfbd c508 9ebe 279e 6fbe
00000140: 2b33 74bc 3d97 943d 4089 9abd 79b3 97bd
00000150: e1e7 003c 4507 7dbd 5e36 043d fd55 2c3d
00000160: 8e32 aebe c133 6dbe 5b09 b63d a916 8cbb
00000170: 8946 26bd a635 dfbd da00 1fbd 5703 9dbd
00000180: 3802 a9be af8f 04bd 0b89 55ba a623 a6bd
00000190: 6a07 ab3d c0c0 89bc 22a4 fa3d 51be 7ebd
000001a0: b296 993d 69e7 f2be ba59 04be 3bf0 71bd
000001b0: 5efb 82be b792 81be b85b f53d c74a acbd
000001c0: 6b5d 60bc 00b2 ddbd 1702 f9bb 0c5b 6abe
000001d0: 573f 01be 129b c9bd e866 d63d 7dc8 1bbd
000001e0: 1ca6 10bc be6a 91be 3194 fd3d fabf b7bd
000001f0: 2a26 3cbc f9c1 9abe 2e53 19bc a744 2cbc
00000200: ac02 023e 0bad 64bc 86a0 92bd 02cd a0bd
00000210: 72ae 003d 5f3c 033d 8329 c4bd 9376 85bd
00000220: 6ee1 01be 59c9 dbbd 3c07 163d e679 aabd
00000230: 13f9 17bd febc cebc 5e49 d93d 3f97 a5bc
00000240: cf34 bcbe 2b95 ae3c 5198 93bc 85e8 073e
00000250: 9199 123e 4426 ce3d 506f 8dbd 7510 50be
00000260: f0b1 24be 86c0 15bc 6958 33be 467d 04bd
00000270: f2d2 8f3c e402 37bd 9962 473d b5e7 7ebd
00000280: 53da 3d3c 9c13 0dbe b645 123d 806e f5bc
00000290: 1fa0 143c fb68 73bd 9a01 1cbd a3ed c9bd
000002a0: ec95 a2bd 8b52 cfbc 925f aebd 679d 8bbd
000002b0: bf13 35be 724c b3be 5616 c73d 2413 d9bd
000002c0: d0f0 35be f748 36bc eae8 76bc ca06 a4be
000002d0: a664 e3bc 4709 0ebe 1fa2 ebbd 645c 08bf
000002e0: 268b 3ebd c4c4 af3c 1cd6 97be 234d 9dbc
000002f0: c117 9dbd fb52 82bc af0c 9e3c a6f3 bf3c
00000300: d99c 8abd 408f a5bd 604d bfbd b0dd 173a
00000310: 215c 3cbe 8bdd 043c f56e efba fb2f 253d
00000320: e260 d73d 157b 943d 31df 42bc 3765 a7bc
00000330: d0c0 0fbe f46c 15be 39d8 8d3d 3618 aebd
00000340: f654 67be 3bb4 8cbd 44df 6e3d 363a 0bbc
00000350: e3e3 34be 1c9d 993d 5ebb bfbc 970c 8d3d
00000360: fb4d 31be f4c9 9cbd 3f51 ba3c c03f c6bd
00000370: 4300 d9bd 4c18 0e3c da27 b1be b429 86bd
00000380: fec2 9c3c 9b1e 74bd c687 85be 485c 77bc
00000390: 600a 8bbe 005e 68bc b660 d3bd 5b8a 6b3d
000003a0: 26a2 76be 1039 38bd 5248 c4bd 4614 123e
000003b0: 7bb8 1dbd 086c e0bd 3c9d a93c 11e6 e3bd
000003c0: b644 adbe cb40 10be 05fe d7bc 4056 bd3d
000003d0: 16b6 0ebd 8883 88bd 523e 2cbd c0e3 85bb
000003e0: 2d43 1abe 5e68 213b 63be 603d 6c84 80bd
000003f0: a169 37bc efff a7be 0c19 20bd 7424 d1bd
-0.35724777 -0.13758348 0.0071318005 -0.10699421 -0.055915996 -0.13943036 -0.34135756 0.004060627
-0.026874214 0.0771726 -0.12637615 -0.31282645 -0.21667045 0.041467294 -0.012152784 -0.31408846
-0.058593947 0.035143513 0.10923667 -0.1495137 -0.087152846 0.09047786 -0.06874141 -0.10726494
0.09739329 0.076064885 -0.040995453 -0.05612419 -0.08927416 0.01419048 -0.010334531 0.001625317
0.0721782 0.14090283 0.06365377 0.06213546 -0.1258457 0.021406895 0.01138154 -0.041459873
-0.094806805 -0.065287344 -0.026547827 0.09787644 0.12389459 -0.4006732 -0.1208662 -0.030655816
0.01945459 -0.059937287 0.0105975615 -0.089976795 0.100707315 0.17123677 -0.03211896 -0.35096934
-0.12508489 -0.07796693 -0.2859597 0.025567552 -0.35080388 -0.044165 -0.015712656 -0.06372777
-0.26972777 -0.3130362 0.0329135 0.011275661 -0.01418315 -0.28964767 -0.0063845715 -0.10652751
-0.044437885 0.001422242 -0.1112456 -0.05507269 0.016830657 -0.10150519 -0.30866066 -0.23400174
-0.0149047775 0.07255409 -0.075457096 -0.074072786 0.007867784 -0.06177451 0.03227841 0.042074192
-0.34022945 -0.23164274 0.08888503 -0.0042751622 -0.04059461 -0.108989045 -0.03881917 -0.07666653
-0.33009505 -0.03236359 -0.0008145726 -0.08112268 0.083510235 -0.016815543 0.12238337 -0.06219322
0.07499446 -0.47442177 -0.12924853 -0.059066992 -0.25582403 -0.25307247 0.119803846 -0.084127
-0.013694148 -0.108249664 -0.007599126 -0.22886294 -0.12621818 -0.098440304 0.104688466 -0.038032997
-0.008828666 -0.2840175 0.12381781 -0.089721635 -0.011483708 -0.30226114 -0.0093582105 -0.010514415
0.12696332 -0.013957272 -0.07159524 -0.07851602 0.031416364 0.032039996 -0.0957823 -0.06516757
-0.12683651 -0.107317634 0.036627993 -0.083240315 -0.03710277 -0.025236603 0.10609697 -0.020213721
-0.3675904 0.021311363 -0.018016966 0.13272293 0.14316393 0.10065892 -0.06905997 -0.20318778
-0.16083503 -0.009140139 -0.17514195 -0.032346033 0.017556641 -0.04468049 0.048678014 -0.06223269
0.011587697 -0.13777012 0.035711013 -0.029959917 0.009071379 -0.05942629 -0.038087465 -0.09859779
-0.079387516 -0.025307914 -0.08514322 -0.068171315 -0.17683314 -0.3501926 0.09721057 -0.10599354
-0.17767644 -0.011125795 -0.0150701795 -0.3203643 -0.027757954 -0.13870727 -0.115055315 -0.53265977
-0.04651942 0.02145613 -0.2965554 -0.01920182 -0.07670546 -0.015908709 0.019293157 0.02343161
-0.067681976 -0.080839634 -0.0934093 0.0005793227 -0.1839452 0.008109461 -0.0018267321 0.04032896
0.10516526 0.072500385 -0.011894033 -0.020434005 -0.14038396 -0.14592344 0.06926007 -0.085007116
-0.22591004 -0.06870314 0.05831839 -0.008497765 -0.17665057 0.07500669 -0.023404773 0.06887167
-0.17314903 -0.07655707 0.02274382 -0.09680128 -0.10595753 0.008672785 -0.34600717 -0.06550923
0.019135948 -0.0595995 -0.2608015 -0.015097685 -0.27156353 -0.014182568 -0.103211805 0.057504993
-0.24085292 -0.044976294 -0.095841065 0.14265546 -0.038506012 -0.10958105 0.020704858 -0.11127866
-0.33841485 -0.14087217 -0.026366243 0.092449665 -0.03484162 -0.066657126 -0.04205162 -0.004085988
-0.15064688 0.0024628858 0.054869067 -0.062752575 -0.0111946175 -0.3281245 -0.039086387 -0.10212031

action_out.weight f4 [4, 256]
00000000: 6ae1 29bc 2196 0abc 9843 30ba a4aa 383d
00000010: 2b6f fa3c bedf 573c ac47 f23d 072b 173d
00000020: 486b 08bc 705e 79bc 77c3 e43d 4f65 173d
00000030: e599 15bd faab 0d3c 9e10 b53b f0ba a73b
00000040: ed33 813d ddda 61bc 0410 82bb 2ea0 a2bd
00000050: 8086 b8bb a598 043e cb15 073d 5faf 0ebc
00000060: 53ec b2bd c2c1 5b3d 450c 2dbd 9c37 1abc
00000070: 9954 593d f624 333d 3e07 e13c 65ae 643c
00000080: 0b0e 3c3e de72 a6bd 3b36 fd3c b187 bb3d
00000090: db71 20bf b025 873d 2720 93bd c426 293d
000000a0: 07dc 2cbe 938a 573b b86c 043c 6d39 d6bc
000000b0: 1eab cb3c e017 53bd 60e9 463c 2c4d 95bc
000000c0: 48cb 02be 396e 32be b946 8fbc 81c4 b43c
000000d0: dc99 a03c 9b2f adbe cc83 cf3c 59d6 ed3b
000000e0: ddc5 073d 3b7d 23bc 9b16 d4bf 4f77 7e3d
000000f0: b0cf f8bb aa98 b53d 2633 e8bc cd2e df3c
00000100: 31e3 11bd fba7 46bd 09cc 4c3e 03e3 813e
00000110: 7104 9a3d 3810 f7bc dd99 6f3d a059 b53c
00000120: a341 17bd fd4d 1b3e c09e e63d b0f6 b8bc
00000130: c8f6 ecbb e150 e6bc d435 0d3c eef7 e03c
00000140: 6914 383c 3bfc 41bd 201e e9bb 5d7e d1ba
00000150: 0853 333e 9902 833c 6383 1abd c99b 083d
00000160: 65ea c73d 06d5 bfbc 80e4 533d 8d54 d23c
00000170: 7811 303d 07d4 923b 1cce 2abd f75c 1abc
00000180: e144 fa3c 8e2a fe3c 1acc e3bb 368e 313d
00000190: f8ea ca3c 9507 a0bc 44f1 77be 85a6 663d
000001a0: 9595 a9be 9933 adbf 1be2 69bd 896a 8fbd
000001b0: 5fe3 0a3e 102c 90bf 29b1 113d a5c9 e53c
000001c0: c453 c5bc da1d 993d d027 c03c 102c d8bc
000001d0: b181 053e 1e27 793d 375f a03e d78b 973c
000001e0: 10e3 383e f041 33bc 3e46 71bd f71b 16bc
000001f0: 0acc 9dbd f77b 653c 33c8 96bd b65c 3bbd
00000200: 7964 333d 9845 3c3d 1983 7e3d 6ac6 4eba
00000210: eff6 40bc aba3 653d 48dd 253d ce28 8bbb
00000220: 0f5b 17bc c76b bb3c a709 c73d 02c1 543c
00000230: 59df 34bd f664 0cba b7e0 8a3c fc10 8fbc
00000240: e33a 5e3f 9441 09bd 3a99 b7bc 84bb f3ba
00000250: a81c 243d 388f b4bd 0e1d b83d 6098 073d
00000260: b30b 393e 8e08 f83c 7a82 bcbd c991 14bd
00000270: 2c84 31bd 71e2 303d bb9a 17be 1231 393c
00000280: 7c91 57bd 67b1 113f ff25 4ebd c680 febc
00000290: 70e1 de3c 2f42 71bc 4734 d73c cda6 2fbe
000002a0: 84bf 973c 170d edbc 2e3c 833c d3cb 923d
000002b0: 5f08 65bb 1cc2 d13c 1fe5 44bd 121a 7e3d
000002c0: 8719 81be a139 8f3d 2281 b73c ae11 3e3d
000002d0: a736 963d 9eac 3fbe 5805 f6bd 3113 56bc
000002e0: 0602 37bd 93a5 003c 78cc 8b3c 79e3 c9bb
000002f0: 5f56 f5bc 858a a3bd ce6a 1cbe bbc1 b53d
00000300: abd4 673d 8691 0ebd 6e84 8b3b c12c 5bbd
00000310: 15b6 c3bc 5a60 8abc 4841 123d 59af d63d
00000320: 87b7 7a3c ae17 ae3e 81f1 463d 64bf 323d
00000330: d5e2 e03c eac8 bfbc b314 97bd 2d81 8aba
00000340: 38b5 3dbe bf2d 5f3e 8f16 043e 35f5 2a3d
00000350: 313b 97be f66b d7bd c011 45bd 2a13 9e3e
00000360: 3767 233d 99c3 15bc f7c7 813c a639 903c
00000370: c86a 35bd ce3d 1fbd 99d4 80bc fa67 923c
00000380: c34d 3dbd 3236 153d 89ae 94bd 405f c53d
00000390: 7569 efbc e3b1 d63c 9c21 723c 46a4 f1bd
000003a0: cfa4 903d 3cdb d9bb 16f2 c13c 7c2b d0bc
000003b0: 98da 8fbc 71e4 f3bd a025 77bc d025 f5bc
000003c0: 5711 c5bc f918 a13c b8cb b5bd e821 dcbd
000003d0: 2455 363d 427d a63c 04c3 ed3c a542 df3b
000003e0: c9aa 12be fb5e a23d 9270 ef3c b238 82bd
000003f0: 5500 023d e526 b93c 808f a7bd a38b d8bb
-0.010368684 -0.008458645 -0.00067239394 0.04508461 0.030570587 0.013175903 0.118300766 0.03690627
-0.008326359 -0.01522027 0.111700945 0.03696185 -0.03652372 0.008646959 0.0055256626 0.0051187202
0.06308732 -0.013785091 -0.0039691944 -0.07940708 -0.005631268 0.12948854 0.032979768 -0.008708804
-0.087364815 0.05365158 -0.04224803 -0.009412672 0.053059194 0.04373642 0.027469274 0.0139575945
0.18364732 -0.08127378 0.030909648 0.091567405 -0.6267373 0.06598985 -0.07183867 0.041296735
-0.16880809 0.0032888993 0.008082561 -0.02615043 0.024861868 -0.05153644 0.012140602 -0.018225275
-0.12772858 -0.17424859 -0.017489778 0.022066357 0.019604616 -0.33825383 0.0253314 0.0072582182
0.03314768 -0.009978588 -1.6569399 0.0621255 -0.0075931177 0.08867009 -0.028344702 0.027243996
-0.035617057 -0.048500042 0.19999708 0.2536851 0.075203784 -0.0301591 0.058496345 0.022137463
-0.03692783 0.15166469 0.11260748 -0.022578567 -0.007231567 -0.028114738 0.008618791 0.027461972
0.011235335 -0.047359686 -0.007114187 -0.0015983094 0.17512143 0.01599245 -0.037722956 0.033351693
0.09761504 -0.023417007 0.051731586 0.025675083 0.04298541 0.004480842 -0.041700467 -0.009421579
0.030550422 0.031026151 -0.006951821 0.043348514 0.024770245 -0.019534865 -0.2421313 0.05631115
-0.33121935 -1.3531371 -0.057100397 -0.07002742 0.13563298 -1.1263447 0.035569344 0.028050253
-0.024087794 0.07476397 0.023456484 -0.026388198 0.13037755 0.06082832 0.31322643 0.018499298
0.18055367 -0.010941014 -0.05890488 -0.009161941 -0.07704933 0.014006606 -0.07362404 -0.045742713
0.04379699 0.045964807 0.062136743 -0.00078878424 -0.011777624 0.05606429 0.040494233 -0.0042468077
-0.009238019 0.02287854 0.09718638 0.01298547 -0.044158313 -0.00053556205 0.016952856 -0.017464153
0.86808604 -0.033509806 -0.022411931 -0.0018595313 0.04006639 -0.08816379 0.08989917 0.0331043
0.18070869 0.030277517 -0.09204574 -0.036271844 -0.04333894 0.0431847 -0.14805119 0.011303203
-0.05262898 0.5691132 -0.050329205 -0.031067263 0.027207106 -0.014725252 0.026270045 -0.17153473
0.018523939 -0.028936906 0.016019907 0.07167783 -0.0034947617 0.025605254 -0.04807007 0.06203658
-0.25214788 0.06993414 0.022400443 0.04640358 0.07334643 -0.18718192 -0.12012738 -0.013066099
-0.044679664 0.007851976 0.017065272 -0.00616115 -0.029948412 -0.07985405 -0.15275118 0.08874842
0.0565993 -0.03480675 0.00425773 -0.053509478 -0.023890534 -0.016891647 0.03570679 0.10482664
0.015302545 0.3400244 0.04857016 0.043639556 0.027451912 -0.023411233 -0.07376995 -0.0010567062
-0.1852616 0.21794794 0.1289923 0.041737754 -0.29537347 -0.10518639 -0.04811263 0.30873996
0.039893355 -0.009140872 0.015842421 0.017605614 -0.044291288 -0.0388773 -0.015726374 0.017871846
-0.046216737 0.036428638 -0.072598524 0.09637308 -0.02922509 0.02620787 0.014778521 -0.11798911
0.07062685 -0.006648449 0.023675006 -0.02541136 -0.017560288 -0.11908806 -0.015084654 -0.029925257
-0.02405612 0.019665228 -0.08876747 -0.107486546 0.04451479 0.0203234 0.029023655 0.0068133646
-0.14322962 0.07928272 0.029228482 -0.0635847 0.031738598 0.022601554 -0.08181667 -0.006608443

action_out.bias f4 [4]
00000000: 76d5 a13c 190f f3bc bf86 1a3c e7c3 233c
0.019755106 -0.029670285 0.00943154 0.009995437
